GraphClustering/LargeGraphs/Weights/Karate_100_200_500_Forward10.pt (torch, 298077 bytes, 3 tensors)

layers.0.weight f4 [32, 2312]
0.01382143 0.34170341 0.37112898 0.37127894 0.35664266 0.33774096 0.33467716 0.35859764
0.35329574 0.010663448 0.33877122 0.3351581 0.3525915 0.36895883 0.020747414 0.014785601
0.019481147 0.35406333 0.0030295898 0.33992392 -0.003351438 0.33616656 -0.010705215 -0.014258636
-0.002364582 0.0008130152 0.019323817 0.004026611 -0.0028566017 0.015719017 -0.019005904 0.3405745
-0.0054243864 0.017402558 0.36973292 0.00015138653 0.3399737 0.37153667 -0.019307742 0.0020460386
-0.0093136085 0.3698426 -0.018628022 0.008911461 -0.017909538 -0.0110012675 -0.018363954 0.3574131
0.0019499612 -0.006947355 0.011400167 0.34285986 0.013031235 0.35346842 0.014102229 0.3382424
-0.0021504834 -0.0193585 0.0024501674 -0.0070933644 0.010226893 0.016460303 0.008311334 0.0012843261
0.3434868 -0.0020380355 -0.020770878 -0.0059676617 0.3469606 0.3433395 -0.014788273 0.34113723
-0.0024972726 -0.004839249 -0.0044376985 0.37412333 0.34741187 0.33893913 0.0143851135 0.011516606
-0.00441516 0.3487512 0.018329697 0.0067165415 0.009814838 -0.0115872845 0.012452314 0.00954583
-0.017461352 0.015163863 -0.012544876 0.008432365 0.014547629 -0.014580638 0.014415608 0.33397818
0.34941608 -0.007583738 -0.019389693 0.020357253 0.35789734 -0.0019249407 0.33814257 0.3373382
0.33692646 -0.020371906 -0.007739448 0.013770347 0.019627605 0.33795393 0.008848676 0.015333421
-0.0019432647 -0.0035804987 0.36954468 0.3609345 0.008402572 0.011053354 -0.014299533 0.0022783123
-0.014954792 0.015503947 -0.0095084235 -0.012431406 -0.012123777 -0.012968841 0.0027444812 0.00681284
0.011139253 -0.0030356986 -0.0016958974 0.0042136014 0.012880811 0.010347609 -0.013849055 0.019743573
0.33781487 0.016115068 0.00503008 0.015774941 0.012039254 -0.0023652192 0.36667258 0.017553138
0.007257263 0.02070285 0.35460305 -0.009427779 -0.013847253 -0.01662805 -0.011334587 0.01841627
-0.0059441905 -0.013565352 0.010437896 -0.020758567 -0.0014647443 0.016881362 -0.0015935153 0.016876692
-0.014003298 -2.8900342e-05 0.018498752 -0.006169014 -0.0010210719 -0.0206402 0.00057207904 -0.00073353364
0.014785437 -0.016676664 0.33626956 -0.009451651 0.0043931915 -0.012739763 0.01617508 -0.0027682546
0.34528196 -0.0034422893 -0.00604898 0.003251892 0.34584987 0.020028664 -0.019159367 -0.020168344
-0.018944914 0.0072689033 0.34786463 0.00874713 0.007861176 -0.010016975 -0.018960023 -0.00023457449
0.0032900574 0.0064873397 -0.016156267 0.008854966 0.0065019275 -0.007997887 0.0013742029 0.017058548
0.012444663 0.008620352 0.018797332 -0.006240166 0.35543895 -0.019010859 -0.0062219235 0.020704912
0.34343672 0.35260868 0.009414198 0.0016768893 0.00024044777 -0.009557767 0.008219288 0.0027671463
-0.012387708 0.005512136 -0.001643375 -0.018425511 0.36611992 0.013886641 -0.0040632114 -0.015543698
-0.017253397 -0.011189058 0.0066350815 -0.019389374 -0.011915132 -0.009053669 -0.005005608 -0.0184103
-0.002254735 0.003089659 -0.012410913 0.0049802847 0.00059306814 0.014921692 0.3517291 0.36339664
0.34985238 0.36108905 0.0041875746 -0.019159976 0.0020238743 0.010020852 0.010391214 -0.0025118208
0.007716823 0.009984903 -0.017799368 0.007873931 -0.012422486 -0.0033055178 0.0060723294 -0.018146515
00000000: 4773 623c c0f3 ae3e 9e04 be3e 4618 be3e
00000010: de99 b63e 62ec ac3e ce5a ab3e 1c9a b73e
00000020: 2ee3 b43e beb5 2e3c 6c73 ad3e d899 ab3e
00000030: e086 b43e 2ce8 bc3e 7bf6 a93c 4e3f 723c
00000040: ed96 9f3c ca47 b53e 158c 463b 820a ae3e
00000050: cda3 5bbb 061e ac3e ed64 2fbc 0e9d 69bc
00000060: 1af7 1abb 8720 553a fb4c 9e3c a9f1 833b
00000070: d335 3bbb 2bc5 803c 45b2 9bbc c85f ae3e
00000080: 0dbf b1bb cf8f 8e3c a24d bd3e 83bd 1e39
00000090: 0811 ae3e 0e3a be3e 452b 9ebc d516 063b
000000a0: 1b98 18bc 025c bd3e cb99 98bc 6001 123c
000000b0: 06b7 92bc a93e 34bc 0170 96bc dafe b63e
000000c0: d795 ff3a a3a6 e3bb c4c7 3a3c 548b af3e
000000d0: f680 553c d0f9 b43e 090d 673c 1c2e ad3e
000000e0: 20ef 0cbb b895 9ebc fd92 203b 746f e8bb
000000f0: b38e 273c c2d7 863c 432c 083c d556 a83a
00000100: 80dd af3e 9090 05bb b027 aabc 608c c3bb
00000110: d2a4 b13e 32ca af3e 834a 72bc 8aa9 ae3e
00000120: 48a9 23bb 9092 9ebb 1d6a 91bb 188d bf3e
00000130: f8df b13e 6e89 ad3e 8aaf 6b3c 26b0 3c3c
00000140: 0cad 90bb 848f b23e 2928 963c 6f16 dc3b
00000150: 6ace 203c 98d8 3dbc ca04 4c3c 1d66 1c3c
00000160: 1c0b 8fbc da71 783c 0689 4dbc e727 0a3c
00000170: 2e59 6e3c a1e3 6ebc 712f 6c3c 30ff aa3e
00000180: aae6 b23e 0181 f8bb 22d7 9ebc 41c4 a63c
00000190: 523e b73e 4b4e fcba 0621 ad3e 98b7 ac3e
000001a0: a081 ac3e fce2 a6bc 329b fdbb 069d 613c
000001b0: 12ca a03c 4c08 ad3e 0afa 103c 0739 7b3c
000001c0: 25b5 feba cda6 6abb f634 bd3e 68cc b83e
000001d0: f1aa 093c 2019 353c 9748 6abc bd4f 153b
000001e0: f204 75bc 4404 7e3c 38c9 1bbc 19ad 4bbc
000001f0: cea2 46bc 437b 54bc c1dc 333b 3e3e df3b
00000200: 6a81 363c 92f2 46bb e048 deba 4012 8a3b
00000210: 090a 533c 0589 293c 26e7 62bc 46bd a13c
00000220: 12f6 ac3e bf03 843c 5fd3 a43b 733a 813c
00000230: 4b40 453c cb01 1bbb 82bc bb3e 99cb 8f3c
00000240: 56ce ed3b 0699 a93c 888e b53e f976 1abc
00000250: 97df 62bc 8c37 88bc b4b4 39bc b8dd 963c
00000260: 7cc7 c2bb 3641 5ebc b503 2b3c df0d aabc
00000270: aafc bfba c84a 8a3c 80dd d0ba fd40 8a3c
00000280: 176e 65bc 036f f2b7 b28a 973c 7125 cabb
00000290: 7dd5 85ba a315 a9bc 93f7 153a 9c4a 40ba
000002a0: 9e3e 723c 809d 88bc 862b ac3e 19db 1abc
000002b0: c3f4 8f3b 70ba 50bc 9a81 843c 9b6b 35bb
000002c0: ccc8 b03e 0898 61bb 8636 c6bb b21d 553b
000002d0: 3c13 b13e 2713 a43c 1bf4 9cbc 1538 a5bc
000002e0: 5d32 9bbc fb2f ee3b 501b b23e 1f50 0f3c
000002f0: 29cc 003c 3d1e 24bc 0d52 9bbc 1cf8 75b9
00000300: 019e 573b c093 d43b 265a 84bc 6b14 113c
00000310: 1f0e d53b 9209 03bc 991e b43a 5ebe 8b3c
00000320: b3e4 4b3c 603c 0d3c ddfc 993c 4e7a ccbb
00000330: 18fc b53e a9bc 9bbc 47e1 cbbb 599d a93c
00000340: f0d6 af3e 2089 b43e 023e 1a3c 11cb db3a
00000350: b520 7c39 2e98 1cbc 31aa 063c 0359 353b
00000360: d0f5 4abc 269f b43b 8466 d7ba 19f1 96bc
00000370: 1274 bb3e cb84 633c b024 85bb ffaa 7ebc
00000380: ff56 8dbc 5052 37bc 196b d93b 77d6 9ebc
00000390: b037 43bc d755 14bc 1506 a4bb 33d1 96bc
000003a0: 2dc4 13bb e07b 4a3b 2457 4bbc a831 a33b
000003b0: 2178 1b3a 1d7a 743c d615 b43e 200f ba3e
000003c0: da1f b33e aae0 b83e ec37 893b 62f5 9cbc
000003d0: faa2 043b 802e 243c e93f 2a3c 5c9d 24bb
000003e0: 67dd fc3b b897 233c fbcf 91bc a901 013c
000003f0: af87 4bbc 63a1 58bb 64fa c63b 00a8 94bc

layers.0.bias f4 [32]
0.3547995 0.40536702 0.38989505 0.41798505 0.3749442 -0.0389247 0.36763772 0.3776219
-0.034351595 0.33767805 0.3864488 -0.039033554 -0.04283883 0.43778428 -0.036171738 -0.045040272
0.3416325 0.3978713 0.3355958 0.33952236 -0.032881405 0.38929075 0.35294208 -0.03680847
0.34627956 -0.014272276 -0.026823275 0.46714473 -0.039186276 0.44748348 0.41109043 -0.014818601
00000000: 48a8 b53e 448c cf3e 53a0 c73e 2302 d63e
00000010: b0f8 bf3e 826f 1fbd 033b bc3e a857 c13e
00000020: 42b4 0cbd 23e4 ac3e 9edc c53e a6e1 1fbd
00000030: c577 2fbd 4325 e03e d128 14bd 267c 38bd
00000040: 74ea ae3e c9b5 cb3e 36d3 ab3e e0d5 ad3e
00000050: a7ae 06bd 1e51 c73e d3b4 b43e 7ac4 16bd
00000060: 8e4b b13e 44d6 69bc 7cbc dbbc 982d ef3e
00000070: ca81 20bd 8e1c e53e 727a d23e b8c9 72bc

layers.2.weight f4 [1, 32]
-0.48855823 -0.3847827 -0.3976937 -0.40055126 -0.40842122 0.106150605 -0.4099806 -0.44510004
0.0066391914 -0.46807927 -0.39817643 -0.028928854 0.060127847 -0.38595754 -0.007225598 0.016083838
-0.4889807 -0.42718813 -0.49224564 -0.4763796 0.12517932 -0.42210692 -0.4453098 0.1227525
-0.458646 0.14338116 0.07315671 -0.36937705 -0.02661849 -0.37623072 -0.3749117 0.08221254
00000000: 4e24 fabe 3d02 c5be 829e cbbe 0e15 cdbe
00000010: 961c d1be 7d65 d93d fae8 d1be 27e4 e3be
00000020: 938d d93b 16a8 efbe c8dd cbbe 34fc ecbc
00000030: 9e48 763d 3a9c c5be b6c4 ecbb 41c2 833c
00000040: ae5b fabe 67b8 dabe 9f07 fcbe 07e8 f3be
00000050: 022f 003e 661e d8be a5ff e3be aa65 fb3d
00000060: a6d3 eabe 83d2 123e 2fd3 953d fd1e bdbe
00000070: 050f dabc 50a1 c0be 6df4 bfbe 0c5f a83d
