GraphClustering/LargeGraphs/Weights/Karate_0_100_500_Forward90.pt (torch, 298065 bytes, 3 tensors)

layers.0.weight f4 [32, 2312]
00000000: 5070 213a ad71 a0bc 9b21 0dbd 924a 37bd
00000010: d12e 4ebc d992 05bd 4825 6abc e9d5 fcbc
00000020: 5952 1ebc a32e 0139 21d3 8fbc 67c3 21bc
00000030: b6e2 44bd 3bf5 b3bc 3896 fbbb 62df febb
00000040: 59f6 1b3c b554 02bd 1509 963c b07f 0dbd
00000050: a06e 513b 896b d7bc 7f95 e7b9 599e a9bc
00000060: 1c89 dc3b ba91 87bc 6dba 553b 7750 9abc
00000070: a661 f73a 34a7 c33a fbb3 9d3c 2a85 1dbd
00000080: 66b9 15bc 8a8b a63c bbaf 04bd 5f56 483a
00000090: cac0 7fbc 2503 8ebc e128 a0b9 9d70 3fbb
000000a0: 0b05 04bc 1d57 afbc aca3 21bc dd02 973c
000000b0: 5045 23bc 7003 a93c 5017 48bc 19fb ddbc
000000c0: 09ff 62bb 417d 56bb 9d20 f1bb 9eb5 4bbd
000000d0: c9e8 a1bc 79ae c0bc 5968 84bb f831 2ebd
000000e0: 6888 8cbb c9af e7b9 98a4 a2bc cc11 7abc
000000f0: 0ea1 76bc 32e2 a0bc d70e 9abc dd3d c03b
00000100: b3eb 48bc 7ea4 773c f69e 7d3c 570c 883c
00000110: 5105 a0bc 9c71 83bc 5b15 8e3c 1f26 91bc
00000120: 7ddc 5c3c 8c2d 733c 9e3b 90bc 40ff aabc
00000130: d3af d4bc 4e3d 3bbd 4b1c 843b 6062 643c
00000140: 30e1 03bc 5b9d 8ebc 91bc 893c 87f3 5b3c
00000150: ccfa 81bc e70c 57bc 21b7 8c3c 5c02 943a
00000160: dea8 fc3b db73 1bbc d08b 3e3c cbc9 e53b
00000170: 42db 663c bc67 9b3c 388c f7bb 5f93 22bd
00000180: 18ea d0bc 0055 963c 5ec8 1e3b 2b46 323c
00000190: 0891 fabc 4c1c 303c 816d 1ebd 8954 89bc
000001a0: 0ead a2bc 690f 9a3c d88b 95ba 393c 59bc
000001b0: 850d febb 26b7 2dbd 98f4 3fba 4745 50bc
000001c0: e74e 8e3c 6084 2a3c 7f9f 10bd b84c 94bc
000001d0: f714 5bbc 3de3 84bc 3b77 25bc 9b3e a43c
000001e0: a637 513c 1d09 36bc cb02 d43b c665 ad3b
000001f0: 5688 70bc f641 b63b 001a a03c db9b febb
00000200: def7 47ba da9e 1a3c f41c 903c ddeb febb
00000210: 7aa2 6a39 7619 723c 91cf adbb 788c 2b3c
00000220: d6b1 34bd ef6b 9dbc f520 a0bc cdc3 7cbc
00000230: 56de c63b 4305 73bc 2a4f 09bd 075d eebb
00000240: b581 8c3c fa39 97bc 99d8 09bd 2b61 903c
00000250: a929 4bbb 37f5 9fbc c3f6 a5bb 6e37 803c
00000260: 3ef0 6e3c c3fb 9abb 8ae2 993b 6b65 adba
00000270: 6d68 25bc e186 a8bc d7ca 183c 98d2 053c
00000280: 8b71 1dbb ddd0 1cbb ec86 1fbc cf90 85bc
00000290: e0b4 9dbc 372a 863b 2d90 2a3b 6db3 27bc
000002a0: 7201 1fbc 8212 ac3b 6fe8 d8bc 6415 b0bb
000002b0: 2eb0 b7ba e2c8 ee3b cd47 843b 8ad8 cfbb
000002c0: e16b c0bc 226c a8bc 0a3b 7fbc b5d1 42bc
000002d0: fc82 3dbc 752f c53b 7463 7b3b 1a09 903b
000002e0: d3fc 9dbb 4464 74bb b654 3dbd 084b 723b
000002f0: 49ef ec3a 77ae 99bb d5c8 80bb 79e2 63bc
00000300: d8d6 973c 4007 fc3b 9219 f3bb fdb2 09bc
00000310: 19b4 96bb 1d2a 7ebc a83d fcba 1361 5e3c
00000320: 63a0 8cbc bcb1 9a3c e611 71bc 5366 92bc
00000330: 373d babc 4af9 283c d6a6 b83a c085 a53b
00000340: bce9 44bd af07 29bc 4bba 5b3c 67ea 92bc
00000350: 832a e1bb b26b a73b dc82 953a d2e9 193a
00000360: b498 c0bb 8de9 973c 0873 9c3c b423 44bc
00000370: 950f 48bc f98d 6e3c d54a debb 83e5 a0bc
00000380: 6169 a2bb a7c2 9f3c a500 a73c 6a4c 7abc
00000390: 3f80 6bbc 1178 1ebc 68af 123c 8556 abbb
000003a0: 7e2f 92bc 52b4 82bc 48e6 15bc 11e6 4abb
000003b0: c64f 263b 8a1d 1e3b 6c52 42bd 901b c7bc
000003c0: 772a 10bd 10a0 7abc 7c9d 3abc 5871 b23b
000003d0: 06ca 6d3c b5e3 89bb fab3 5d3c 34d0 07bc
000003e0: b8b4 95bc 5fac 59bc cb44 cc3a 7736 143c
000003f0: 750c fe3b 6105 0d39 94ef 03bc 0874 bb3b
0.00061583985 -0.019585455 -0.034455877 -0.04474885 -0.012584404 -0.032610748 -0.014291115 -0.030863719
-0.009663188 0.00012319772 -0.017556729 -0.009873248 -0.04806777 -0.021967521 -0.0076778196 -0.007778094
0.009519183 -0.031819064 0.018314878 -0.0345456 0.0031956807 -0.026296394 -0.00044171137 -0.020705389
0.006730212 -0.01654898 0.003261234 -0.018837197 0.0018873706 0.001492715 0.01925086 -0.038457073
-0.009138441 0.02033021 -0.032394152 0.0007642265 -0.015609929 -0.017335484 -0.00030548035 -0.002921141
-0.008057843 -0.021403844 -0.009865683 0.018433983 -0.009965256 0.020631522 -0.012212589 -0.027097272
-0.0034636876 -0.0032728466 -0.007358624 -0.04973375 -0.01976432 -0.023520695 -0.0040407595 -0.042528123
-0.004288722 -0.00044190724 -0.019853875 -0.015263032 -0.015053047 -0.019639108 -0.018805904 0.0058667497
-0.012263226 0.015114902 0.015479794 0.016607447 -0.019533785 -0.016045384 0.017344167 -0.017718373
0.013480303 0.014842402 -0.017606553 -0.020873666 -0.025962746 -0.04571276 0.004031693 0.01393947
-0.008049294 -0.017409017 0.016813548 0.013424761 -0.01586666 -0.013125635 0.017177166 0.0011292207
0.00771056 -0.009488071 0.011630014 0.007012581 0.014090361 0.018970363 -0.007554557 -0.039691325
-0.02550225 0.018351078 0.0024228315 0.010880987 -0.030586734 0.010748934 -0.03867865 -0.016763942
-0.01985791 0.018806176 -0.0011409475 -0.013258987 -0.0077530765 -0.042410992 -0.0007322519 -0.0127118295
0.017371608 0.010407537 -0.035308357 -0.018102989 -0.013371698 -0.016221637 -0.010099228 0.020049384
0.012769615 -0.011110571 0.0064700595 0.0052916734 -0.0146809425 0.0055620624 0.019543648 -0.0077700443
-0.00076281826 0.009437287 0.01759193 -0.007779582 0.00022376506 0.014776578 -0.005304285 0.010470502
-0.04411491 -0.019216506 -0.019546965 -0.015427542 0.006068985 -0.014832797 -0.033522762 -0.0072742733
0.017151693 -0.018460263 -0.03365383 0.017624458 -0.0031000173 -0.019526107 -0.0050648167 0.015651431
0.014583645 -0.0047297194 0.004696195 -0.0013229077 -0.010095698 -0.020572128 0.009325705 0.008167885
-0.0024023976 -0.0023928203 -0.009736758 -0.016304402 -0.019251287 0.004094388 0.0026025877 -0.0102356495
-0.009704934 0.0052512297 -0.02647802 -0.0053736437 -0.0014014298 0.0072871307 0.0040368796 -0.006342952
-0.02348894 -0.020559374 -0.015578041 -0.011890818 -0.011566874 0.00601762 0.003835884 0.0043956162
-0.0048213988 -0.0037291208 -0.046223365 0.0036970992 0.0018076684 -0.0046899873 -0.003930191 -0.013908976
0.018535063 0.007691294 -0.0074188197 -0.008404491 -0.004599106 -0.01551297 -0.0019244449 0.013572949
-0.017166322 0.018883578 -0.01471374 -0.017871058 -0.022734268 0.010313341 0.0014087807 0.0050513446
-0.04807447 -0.010316773 0.013411115 -0.017934037 -0.006871523 0.005109274 0.0011406797 0.0005871329
-0.0058775786 0.018543983 0.01909782 -0.011971403 -0.012210746 0.014560216 -0.006783823 -0.01964069
-0.00495641 0.019501997 0.02038605 -0.015277008 -0.014373838 -0.009672181 0.008952953 -0.00522882
-0.017844912 -0.015955124 -0.009149142 -0.0030959884 0.0025377139 0.0024126493 -0.047441885 -0.024305135
-0.035196748 -0.015296951 -0.011390086 0.0054456405 0.014513498 -0.004208053 0.013531679 -0.008289386
-0.01827465 -0.013285725 0.0015584467 0.009046189 0.00775295 0.00013448812 -0.008052725 0.005720619

layers.0.bias f4 [32]
00000000: bb04 bfbc ce68 4bbd 6d99 1dbd 9108 f33e
00000010: 2d92 c9bc 4d54 3cbd b026 1abd 3bcb e13e
00000020: 62cc b4bc 9f07 db3e e8e5 ce3e 6da6 013f
00000030: 5145 0b3f fa35 d73e 3f67 f53e f79e f23e
00000040: 9434 d63e f027 dabc b159 083f 112c 9ebc
00000050: f12f 26bd e6c9 d73e fd02 f43e 2c90 95bc
00000060: 9dea e93e e2e2 39bd 7c21 dcbc 5ae1 ea3e
00000070: 3a40 e13e 920f e0bc 8a75 0abd 77e4 95bc
-0.023317685 -0.049660496 -0.038476396 0.47467473 -0.024605835 -0.045978833 -0.03763455 0.44100365
-0.022070114 0.42779252 0.4040978 0.5064457 0.54402643 0.42033368 0.47930333 0.47386906
0.4183699 -0.026630372 0.5326186 -0.019308122 -0.040573064 0.42146224 0.4765853 -0.018257223
0.45686808 -0.045382388 -0.026871435 0.45875055 0.43994313 -0.027351175 -0.0338035 -0.018297417

layers.2.weight f4 [1, 32]
00000000: acc6 513c 5c2f 3e3b 0e10 1c3d e426 cfbe
00000010: 1737 673d 749e 6cbb 6d46 563b 5185 f4be
00000020: 70e8 bfbb 9eae e8be 33fb f2be 077b cdbe
00000030: 4247 cdbe 8020 01bf 701d cebe eb5b d3be
00000040: 0fee 00bf 4d1a 453d 7500 d5be 70be a13d
00000050: 259b 6abc f7c8 ecbe 5864 d1be c610 7f3d
00000060: 13d4 d8be 2964 ea3d 17da a33c 46ed debe
00000070: 5685 dfbe 37a4 da3d 9433 763d 8538 163e
0.012803715 0.0029019928 0.03810125 -0.4045936 0.056449022 -0.0036105188 0.0032695786 -0.47757962
-0.005856566 -0.45445722 -0.47457275 -0.40132925 -0.40093428 -0.50440216 -0.40256834 -0.41281065
-0.5036325 0.048120786 -0.4160191 0.07897651 -0.014319216 -0.46247074 -0.4089687 0.062271856
-0.423493 0.11444885 0.020001454 -0.435404 -0.43656415 0.10675853 0.060107782 0.14669998
