GraphClustering/Core/GFlowNetforward.pt (torch, 4303 bytes, 3 tensors)

layers.0.weight f4 [32, 18]
000000 2f a0 fe bd 7c a7 07 be 64 88 ce bd 4b 6e 68 3e
       -0.12432896 -0.13247484 -0.10084608 0.22698323
000010 80 39 e0 3b ec ac 9a bd 28 13 cb bd ea 50 e3 3d
       0.006842792 -0.075525135 -0.09915763 0.110994175
000020 1d a6 56 3e 26 00 a1 bd 58 73 ae bc 11 73 4a 3e
       0.20961805 -0.078613564 -0.021295235 0.19770457
000030 ff 2b 6c be d7 1c 1d 3e 4e 61 d1 3d 39 8a 12 3e
       -0.23063658 0.15343033 0.102236375 0.1431054
000040 99 25 38 3e c3 c1 62 3e 82 21 f4 3d 6b ac 47 be
       0.17983092 0.22144227 0.119204536 -0.19499366
000050 bd 64 6c be 79 49 16 3e d8 4d ed 3c 94 25 19 be
       -0.23085304 0.14676465 0.028967783 -0.14955741
000060 b8 c7 ba 3c f5 77 2e 3e 6d 9b 33 be 32 bc af bd
       0.022800311 0.17037947 -0.17539759 -0.08580817
000070 10 07 95 bd 56 08 df bd 1e fd 35 be 6e ce 89 bd
       -0.07276738 -0.10890262 -0.17772338 -0.067288265
000080 bc f0 3f 3d 94 df 6c be 14 5b 4e 3d 9f a4 68 be
       0.04686044 -0.23132163 0.050379828 -0.22719048
000090 38 8c de 3c 73 68 15 3e 0c ad 51 3d 39 2e 01 3e
       0.02716647 0.14590625 0.05119042 0.12615289
0000a0 23 03 31 be b2 ea 98 bd 31 9f 0f 3e 1c 3c 78 3d
       -0.17286353 -0.074666396 0.1402557 0.0606042
0000b0 dd 88 23 3e 04 29 25 bd c2 5d 96 3d 30 15 f2 bc
       0.15970178 -0.04032232 0.07342102 -0.029551119
0000c0 13 7d 14 3e 85 91 70 3e 42 2f a0 3d 55 14 63 3e
       0.14500837 0.23493011 0.07821514 0.22175725
0000d0 c8 59 2e be 90 01 c7 bc 03 c1 24 be be 9a 92 3d
       -0.17026436 -0.024292737 -0.16089253 0.07158421
0000e0 02 35 d9 3d 80 13 d6 bd 26 0e a2 3d d2 9c 45 be
       0.106058136 -0.10452938 0.07912855 -0.19298103
0000f0 a4 05 2a be 0b 6c 2f 3e 7a 5f f1 3d 60 d4 c8 bb
       -0.16603714 0.17131059 0.11785789 -0.0061288327
000100 32 d4 83 3d ed e3 17 3e e6 55 51 be cc ef 7f 3d
       0.064369574 0.1483304 -0.20442924 0.062484547
000110 80 6c cc bd a7 c2 57 3e 0b b6 39 3e 98 7a c2 3c
       -0.09981632 0.21070348 0.1813585 0.023740098
000120 ec 9c ae bd 9e 59 c0 bd fc 44 34 be 87 06 4a 3e
       -0.08526024 -0.09392093 -0.1760444 0.19729052
000130 58 b9 f9 bc cd fe 51 3e 8a ab 08 be 88 bb 46 be
       -0.030483887 0.20507355 -0.13346687 -0.19407475
000140 63 a3 07 3e 25 7b 0d 3e 54 3f 55 bd f0 1a 0e be
       0.13245921 0.13816507 -0.052062348 -0.13877463
000150 dd 96 70 be 17 50 35 3e e6 8a 9f bd b4 82 ef bd
       -0.2349505 0.17706333 -0.07790165 -0.116948515
000160 15 1e 40 3e fc fd 0a be 95 0c 55 be 68 73 bc bd
       0.18761475 -0.1357345 -0.20805581 -0.092016995
000170 09 a5 15 3e b4 58 04 3d af 70 1b 3e c0 f9 16 be
       0.14613737 0.032311156 0.15179704 -0.1474371
000180 5c 3a 3c be a0 7b 1b be f8 b5 89 3c a1 f8 09 3e
       -0.18381637 -0.15183878 0.016810402 0.1347375
000190 fd 54 54 3e 08 94 2b bd 43 ed 68 3e b4 5a d1 bd
       0.20735545 -0.04188922 0.22746758 -0.102223784
0001a0 a0 c3 aa bd c0 b4 c7 bc f2 5e ea 3d 10 0f 4c 3c
       -0.08338094 -0.02437818 0.11443891 0.012454763
0001b0 8b 5d 1f 3e ca 21 f3 3d 02 c1 e2 3d 08 b4 48 be
       0.15563028 0.11871679 0.110719696 -0.19599926
0001c0 fc 8b 56 bd cb 7f 6a 3e 42 dc cf 3d c4 45 4a 3d
       -0.052379593 0.22900312 0.10149433 0.04938294
0001d0 a4 71 6b 3d 4c 3e 4d be f4 4e 29 3d 1a 0f 48 be
       0.057481423 -0.20043296 0.04133506 -0.19537011
0001e0 b5 9b 1a 3e 28 bf 7b bd 47 88 1f 3e ee 61 0c be
       0.1509846 -0.061461598 0.1557933 -0.13709232
0001f0 21 d2 3f be 2c f5 4d 3d 31 60 28 3e f6 a1 fe 3d
       -0.18732502 0.050282642 0.16442944 0.12433235
000200 da 98 d8 bd 14 d0 66 3d 82 26 8a bd 5d 17 e5 bd
       -0.10576029 0.056350783 -0.06745626 -0.11186097
000210 52 b0 f9 3d 28 07 43 bd 66 f8 e4 3d 9f cb 48 3e
       0.121918336 -0.047614247 0.11180191 0.19608925
000220 1a e9 f4 3d 6a e9 0a be b4 57 18 bd 70 81 bf bd
       0.11958523 -0.13565603 -0.037193015 -0.0935086
000230 d6 39 49 be 6a 7a f5 3d 10 78 51 be fa d1 88 bd
       -0.19650969 0.11986239 -0.20455956 -0.06680675
000240 98 87 dc bc 7f 7a 5f 3e 2c 1c a8 bd de ac 85 3d
       -0.026920125 0.21824072 -0.08208498 0.065271124
000250 6c 23 3f 3d 4c 27 3e bd 27 04 30 be 50 ae 82 bd
       0.04666464 -0.046424195 -0.17189084 -0.06380904
000260 6c 91 b0 bd 26 7a e0 3d 3a 17 0b be 84 aa 31 bd
       -0.08621487 0.10960798 -0.13583079 -0.043375507
000270 a7 39 05 be 64 28 75 3d fd 46 01 3e 20 ab 49 be
       -0.13010274 0.059852973 0.12624736 -0.19694185
000280 80 1d df bc de ca dd 3d 5d 0f 02 3e 24 61 67 be
       -0.027235746 0.108297095 0.12701173 -0.2259565
000290 80 7b 50 bc 33 e3 35 3e 69 6e 5f 3e 28 f6 a7 3c
       -0.012724757 0.17762451 0.21819462 0.020503119
0002a0 d4 71 0f bd 2e 37 cb 3d 6c ce 0f 3d 08 97 62 bd
       -0.035020664 0.09922634 0.03510897 -0.055319816
0002b0 8e f7 ac 3d ad 4b 19 be f7 c4 28 3e 92 b5 15 be
       0.08445655 -0.14970274 0.16481386 -0.14620045
0002c0 d4 03 c0 bd 49 a7 64 3e 48 ba f9 bc 46 65 cb 3d
       -0.0937573 0.22329439 -0.030484334 0.09931426
0002d0 6a 1d e0 3d 86 c3 e0 3d 5c 92 60 3d a1 00 23 3e
       0.1094311 0.10974793 0.05482708 0.15918209
0002e0 68 e0 f0 3c a4 cc 4c 3d b0 71 12 bd c0 0a f0 bc
       0.02940388 0.049999848 -0.035752952 -0.029302001
0002f0 44 e2 25 be 58 01 2e be d0 3a 70 bd 94 da 40 bd
       -0.16199595 -0.169927 -0.058649838 -0.047083452
000300 b0 be 0f bd 9c 2d 01 be f4 de 4d be f2 e6 f4 3d
       -0.035093963 -0.12615055 -0.20104581 0.11958112
000310 bf 35 11 be 3d ef 31 be 40 18 e0 bb a8 a8 f1 3c
       -0.14180659 -0.17376418 -0.0068388283 0.029499367
000320 f2 0b a3 3d b0 16 51 bd a8 d0 1a be 59 d3 6a be
       0.07961263 -0.051047027 -0.15118659 -0.22932185
000330 a2 4f b5 3d 9a 76 c2 bd 5e b6 2b be b4 c1 0a 3d
       0.088530794 -0.09495278 -0.16768786 0.033876136
000340 5b 47 52 3e 30 9c 1f bc 31 4a 4b 3e 28 ed b4 3c
       0.20535032 -0.009741828 0.1985252 0.022085741
000350 cd 13 21 be ae dd 4d be e6 37 be 3d f9 12 62 3e
       -0.1573021 -0.20104095 0.092880055 0.2207755
000360 18 98 2c bd 49 2c 36 be 70 cc 0f be f0 df 68 bd
       -0.042137235 -0.17790331 -0.1404283 -0.05685419
000370 00 dc c4 bb 6f f8 59 3e f0 29 c1 bd 96 09 9e bd
       -0.0060076714 0.21286176 -0.09431827 -0.07716672
000380 2e a5 82 bd 02 5f 88 3d 28 ca a3 3c f7 85 4b 3e
       -0.06379162 0.06658746 0.019993857 0.19875322
000390 59 ec 1b be a0 7f 27 be ef 71 2c 3e 06 9e cd 3d
       -0.15226878 -0.16357279 0.16840337 0.10039906
0003a0 e0 4b 89 bb 47 e7 1d 3e 87 dd 70 3e e2 90 62 be
       -0.004189953 0.15420257 0.23522006 -0.22125581
0003b0 6d 3b 69 3e fc 0e be bd ab 74 f1 bd 4d fe 1b 3e
       0.22776575 -0.09280202 -0.11789831 0.15233727
0003c0 5a 6c be bd 8e 63 51 be 27 e4 21 3e 11 ad 3a 3e
       -0.0929801 -0.20448133 0.1580969 0.18230082
0003d0 e0 f4 36 be 1a 3b 6c be 44 e6 1d be c8 2b 38 be
       -0.1786685 -0.2306942 -0.1541987 -0.17985451
0003e0 12 ff 5d be 96 99 8b 3d 65 36 54 be e5 03 57 3e
       -0.21679333 0.068164036 -0.20723875 0.2099758
0003f0 2a e0 ff 3d 4e 6b 9a bd 42 c0 bd 3d 7a 34 9f 3d
       0.12493928 -0.07539998 0.09265186 0.07773681

layers.0.bias f4 [32]
000000 b0 2c 97 bd d8 62 28 bd f2 ae 6a be 7c a4 c8 bd
       -0.0738157 -0.04110989 -0.22918299 -0.09796998
000010 f2 2a 03 be 1a 8d aa 3d f2 d0 f8 bd 62 e6 9a bd
       -0.12809351 0.08327694 -0.12149228 -0.07563473
000020 5c 1f 1a 3d a0 99 f5 bc 10 3f 45 bc 76 e5 ee 3d
       0.037627563 -0.02998048 -0.012038961 0.1166486
000030 67 59 71 3e f8 e2 db 3c ba b1 f6 bd 2a 99 51 be
       0.2356926 0.026841626 -0.120456174 -0.20468584
000040 80 58 55 be be c5 8e 3d 96 9f 9a bd 98 7d c9 3c
       -0.20834541 0.0697131 -0.0754997 0.02459602
000050 e0 2a 6c be c6 33 5b be bc 43 5f 3d 50 e7 7a bd
       -0.2306323 -0.21406469 0.054507956 -0.061255753
000060 a0 cb 6f bd 97 d3 3d be ee c3 a8 3d 3a 2b f0 3d
       -0.0585438 -0.18537746 0.082404956 0.11726995
000070 68 23 95 bc ed 7d 2e 3e 86 91 0f be 54 dd 5e 3d
       -0.01820536 0.17040224 -0.14020357 0.054410294

layers.2.weight f4 [1, 32]
000000 31 7c 1e 3e f0 2e 1e 3d 7a 9c fd bd 00 70 40 39
       0.15477063 0.03861898 -0.12383361 0.0001835227
000010 40 23 23 bc a9 37 02 be b9 09 2a 3e ad b2 9a bd
       -0.009957135 -0.12716545 0.16605271 -0.07553611
000020 5a 88 e4 3d 00 5c 7d b9 30 cc dd bc 21 a9 31 3e
       0.111588195 -0.00024162233 -0.027074903 0.17349674
000030 9f e6 c7 bd 68 43 1d be e2 43 ce 3d 66 f8 b5 3d
       -0.09760784 -0.15357745 0.10071541 0.08885269
000040 c0 41 0f bc 20 c4 17 be ed a3 dd bd 8a d5 14 be
       -0.008743703 -0.1482091 -0.10822282 -0.14534584
000050 80 43 0d be 99 bd 0c 3e 79 b7 26 3e b5 82 c7 bd
       -0.1379528 0.13744201 0.16280927 -0.09741727
000060 81 8b 0e be ca 0c 98 3d 4c 27 c6 bd 0e 84 15 be
       -0.13920404 0.07424314 -0.09675464 -0.14601156
000070 23 13 d0 bd b0 11 4e bc 66 1e ea 3d 11 94 2c 3e
       -0.101599 -0.012577459 0.11431579 0.16853358
