GraphClustering/GraphsLarge/Weights/GibbsKarate_0_500_10000_o_Forward300.pt (torch, 646115 bytes, 9 tensors)

layers.0.weight f4 [64, 2312]
-0.013905002 -0.011004905 -0.03506716 -0.04428619 -0.047500007 -0.019260941 -0.03811702 -0.046269134
-0.011842305 -0.007927242 -0.014048927 -0.01977038 -0.032924775 -0.04592932 0.0049711936 -0.019145839
-0.0021096978 -0.028846035 0.018391727 -0.035586026 -0.004118186 -0.009883539 0.0001472239 0.018192789
-0.0009402342 0.01232389 -0.012385238 0.0003610175 -0.007580639 -0.008983804 -0.012978301 -0.028900374
0.006125561 0.0051842136 -0.047892295 0.017621838 -0.03777411 -0.049119182 -0.012427082 -0.020668192
0.008941891 -0.04150697 0.014615148 -0.002271269 0.010402527 0.00944494 -0.014263636 -0.024992252
-0.0078119854 -0.017539863 -0.0022302154 -0.023690788 -0.0031649382 -0.037005052 -0.014862506 -0.026174651
0.01457689 -0.007974749 0.00092086894 0.008500717 0.012739376 0.009301487 -0.016994162 -0.0065341475
-0.018141834 -0.018523466 -0.019851303 -0.010535115 -0.04910995 -0.04808519 0.006214483 -0.024566848
0.0041354857 0.008761779 -0.014170316 -0.042252403 -0.0329216 -0.029356753 -1.862147e-05 -0.01571383
0.006016113 -0.035310734 -0.007141154 -0.0028613 0.012461261 -0.0037472218 -0.013563201 -0.0075410777
-0.01021112 -0.01609387 0.00035142043 0.008864184 0.017219258 -0.014523303 0.008907878 -0.048047855
-0.024515264 0.016932828 0.0151505675 -0.008403534 -0.013556193 0.016894167 -0.03869255 -0.04731874
-0.031826183 0.0020035917 0.011270174 0.018297328 -0.00830434 -0.03927918 -0.017321572 0.0010924686
-0.010944783 0.004963265 -0.026933016 -0.049272217 -0.01835414 0.011457375 -0.004749672 -0.016465515
0.0014244221 -0.019972486 -0.012688421 -0.011200771 0.0032119544 -0.010697024 0.020280203 0.008421997
-0.01136075 0.0055630268 -0.00558626 0.018640513 -0.009891466 0.009011458 0.020586029 0.019473307
-0.024271658 0.0067167054 0.0007554897 -0.019505978 -0.0057563423 0.006948349 -0.039373137 -0.002303484
0.017768253 -0.020717463 -0.031448185 0.0143709965 0.01163254 0.00091315364 0.017742783 -0.0051313266
0.014408381 -0.0061385697 -0.012338447 -0.0153173795 -0.012616617 0.013969536 0.016468016 -0.0039422577
-0.011925191 -0.010569532 0.002898885 -0.008065749 -0.01763519 -0.0075637377 0.015893523 -0.016213626
0.0020930422 0.009793723 -0.017832562 -0.016556479 0.011886534 0.001658833 0.006439151 0.0029644803
-0.044538118 0.009651742 -0.0045857257 -0.02045061 -0.01819363 0.012794006 0.011836496 -0.017453952
-0.010657805 0.016525637 -0.01810948 -0.015576838 0.01425227 -0.012617877 -0.016952239 0.010928715
0.009059388 0.017579572 0.012178089 -0.020043522 0.011405019 0.020037482 0.014772768 0.01128767
0.016137563 0.001871268 -0.0046870965 -0.01963794 -0.018458199 0.017001415 -0.017726623 -0.0032745672
-0.039968755 -0.015589018 0.0064560766 -0.016342426 -0.007929721 -0.013194031 0.009598835 0.008726698
-0.017241906 -0.009748467 0.017300302 0.019692723 -0.013977884 0.016415847 -0.010172352 0.01045457
-0.018195607 -0.0043423204 0.0139821 -0.007012963 -0.016167752 -0.013801104 -0.0076004975 0.016027391
0.00587802 0.012025388 -0.0007802497 0.0046002096 0.009535244 0.016792294 -0.045640446 -0.050540134
-0.009432908 -0.023292262 -0.0015563988 -0.019871334 0.011815009 -0.01225993 -0.0016670368 0.0008100798
-0.008731067 0.013502571 -0.019358804 0.014032409 0.019240579 -0.014227291 0.007429721 -0.009630733
00000000: ced1 63bc eb4d 34bc 95a2 0fbd 7065 35bd
00000010: 5e8f 42bd 1fc9 9dbc 9820 1cbd b484 3dbd
00000020: 3a06 42bc 43e1 01bc 792d 66bc 7ef5 a1bc
00000030: 21dc 06bd 6220 3cbd 65e5 a23b bcd7 9cbc
00000040: db42 0abb 854e ecbc 3faa 963c a7c2 11bd
00000050: d9f1 86bb 91ee 21bc 1d60 1a39 0b09 953c
00000060: 0d7a 76ba 24ea 493c 74eb 4abc f346 bd39
00000070: 0267 f8bb ce30 13bc f1a2 54bc 7ac0 ecbc
00000080: eeb8 c83b 56e0 a93b b62a 44bd ac5b 903c
00000090: 06b9 1abd 3231 49bd f69a 4bbc 5750 a9bc
000000a0: 0281 123c 3603 2abd 6074 6f3c 92d9 14bb
000000b0: 5c6f 2a3c f3be 1a3c 07b2 69bc 8dbc ccbc
000000c0: affb ffbb c2af 8fbc ce28 12bb 2f13 c2bc
000000d0: da6a 4fbb 9c92 17bd de81 73bc 396c d6bc
000000e0: e8d3 6e3c 86a8 02bc 7866 713a 9746 0b3c
000000f0: d1b8 503c 4465 183c 5737 8bbc 671c d6bb
00000100: 2f9e 94bc 86be 97bc 339f a2bc 7a9b 2cbc
00000110: 8427 49bd faf4 44bd dda2 cb3b 6a40 c9bc
00000120: f882 873b 918d 0f3c 9d2a 68bc db10 2dbd
00000130: cdd8 06bd 937d f0bc 4d35 9cb7 4aba 80bc
00000140: d022 c53b fda1 10bd 5700 eabb a684 3bbb
00000150: 512a 4c3c f393 75bb 3038 5ebc 251b f7bb
00000160: 8b4c 27bc 4bd7 83bc da3e b839 153b 113c
00000170: 670f 8d3c 26f3 6dbc 59f2 113c d4cd 44bd
00000180: 3cd4 c8bc b7b6 8a3c 163a 783c faae 09bc
00000190: cb1a 5ebc a365 8a3c 147c 1ebd 4cd1 41bd
000001a0: 2c5c 02bd b14e 033b 89a6 383c 47e4 953c
000001b0: ed0e 08bc 35e3 20bd f8e5 8dbc 2a31 8f3a
000001c0: bf51 33bc e2a2 a23b a1a2 dcbc aad1 49bd
000001d0: 6c5b 96bc b7b7 3b3c 23a3 9bbb b0e2 86bc
000001e0: adb3 ba3a 579d a3bc 18e3 4fbc 7083 37bc
000001f0: a77f 523b 9242 2fbc ab22 a63c 6afc 093c
00000200: 7022 3abc 0d4a b63b f20c b7bb fdb3 983c
00000210: d10f 22bc cba4 133c 08a4 a83c 7c86 9f3c
00000220: 5bd5 c6bc cf17 dc3b 0e0c 463a 00cb 9fbc
00000230: b39f bcbb faae e33b ba45 21bd 0cf6 16bb
00000240: ba8e 913c abb7 a9bc d0cf 00bd 5474 6b3c
00000250: 6996 3e3c b460 6f3a 5059 913c b024 a8bb
00000260: 2111 6c3c 0e26 c9bb 3327 4abc bff5 7abc
00000270: edb5 4ebc 7be0 643c efe7 863c 0e2e 81bb
00000280: e061 43bc d52b 2dbc 38fb 3d3b 3426 04bc
00000290: ad77 90bc 3bd9 f7bb 2233 823c 70d2 84bc
000002a0: 6c2b 093b da75 203c 9815 92bc 74a1 87bc
000002b0: bdbf 423c 336d d93a 83ff d23b ba47 423b
000002c0: 9a6d 36bd 5722 1e3c db43 96bb 0a88 a7bc
000002d0: cf0a 95bc f39d 513c dded 413c 97fb 8ebc
000002e0: 139e 2ebc c660 873c 555a 94bc fe35 7fbc
000002f0: 5a82 693c 36bb 4ebc 6cdf 8abc 5a0e 333c
00000300: d46d 143c 0903 903c 9b86 473c 5032 a4bc
00000310: 1edc 3a3c a525 a43c 7b09 723c ebef 383c
00000320: ec32 843c 5645 f53a 3796 99bb bfdf a0bc
00000330: a635 97bc 8d46 8b3c 6c37 91bc 1f9a 56bb
00000340: 47b6 23bd 1569 7fbc 7f8d d33b 8de0 85bc
00000350: a9eb 01bc c72b 58bc 6f44 1d3c 6dfa 0e3c
00000360: e63e 8dbc 09b8 1fbc 5db9 8d3c a252 a13c
00000370: 7f03 65bc 877a 863c f0a9 26bc a549 2b3c
00000380: f40e 95bc 064a 8ebb 2e15 653c ffcc e5bb
00000390: 3c72 84bc 071e 62bc 980d f9bb e04b 833c
000003a0: 689c c03b 2206 453c ac89 4cba 5bbd 963b
000003b0: b639 1c3c fe8f 893c 7af1 3abd 2c03 4fbd
000003c0: 7c8c 1abc 6acf bebc 1400 ccba 35c9 a2bc
000003d0: bd93 413c e0dd 48bc 7980 daba 895b 543a
000003e0: c00c 0fbc e339 5d3c 5b96 9ebc 30e8 653c
000003f0: 6b9e 9d3c 9519 69bc 0475 f33b 39ca 1dbc

layers.0.bias f4 [64]
-0.048235632 0.3895667 0.013035328 -0.050121974 -0.0843502 -0.109807774 -0.035789758 -0.017647343
-0.024932967 -0.041880477 -0.02618882 0.014310169 -0.029791418 -0.208513 -0.027578743 -0.018143423
1.6797875 -0.098680966 -0.046902094 0.055744592 -0.11752291 -0.04667114 -0.04527472 -0.06862484
-0.021296045 -0.029397907 -0.033793937 -0.025167516 -0.028794136 0.0071227727 -0.018826019 -0.17885877
-0.04245837 -0.037660986 -0.03968145 -0.034941092 -0.0196857 -0.043114156 -0.027702846 -0.02990137
-0.01377549 -0.05048744 -0.04769331 -0.11260906 -0.039219104 -0.031862896 -0.039757695 -0.036783237
-0.04694695 0.50879747 -0.040618975 0.4195587 -0.035975132 -0.04551079 -0.121843494 -0.15717645
-0.028070373 -0.13681519 -0.13842635 -0.040827334 -0.1586015 -0.04999807 -0.034465637 -0.026931217
00000000: ba92 45bd 4975 c73e 2192 553c b34c 4dbd
00000010: ccbf acbd e6e2 e0bd 4898 12bd 2991 90bc
00000020: 3940 ccbc dd8a 2bbd f089 d6bc 3375 6a3c
00000030: 220d f4bc 6f84 55be d1ec e1bc 84a1 94bc
00000040: 4703 d73f 3f19 cabd 691c 40bd 7154 643d
00000050: daaf f0bd 3d2a 3fbd fc71 39bd 2e8b 8cbd
00000060: 0b75 aebc e1d3 f0bc 836b 0abd 1b2c cebc
00000070: aee1 ebbc 2666 e93b 0639 9abc c126 37be
00000080: d4e8 2dbd 6842 1abd 0489 22bd 641e 0fbd
00000090: e843 a1bc 7898 30bd 14f1 e2bc b8f3 f4bc
000000a0: 98b2 61bc ebcb 4ebd 0f5a 43bd 949f e6bd
000000b0: 36a4 20bd ab82 02bd f7d8 22bd 05aa 16bd
000000c0: 724b 40bd 8d40 023f 1560 26bd 66d0 d63e
000000d0: a95a 13bd 8669 3abd 1589 f9bd ddf2 20be
000000e0: d7f3 e5bc 4819 0cbe a3bf 0dbe 903a 27bd
000000f0: 6e68 22be c7ca 4cbd d72b 0dbd db9e dcbc

layers.2.weight f4 [64, 64]
0.10920414 -0.1075286 -0.06526077 -0.21771465 0.07361777 -0.1244792 -0.121479124 0.029859096
-0.22917362 0.023624673 -0.07417709 -0.061230794 0.08248606 0.028638601 0.038109154 -0.12352583
-0.13106787 -0.17093463 -0.031986192 -0.2252576 -0.07256548 0.12288232 -0.05976315 0.02672191
0.09863484 -0.024423912 -0.11110774 0.12461522 0.03886099 0.112206295 0.0695584 -0.122083396
-0.008457735 0.044247836 0.082207575 -0.009114295 -0.09967899 -0.028723553 -0.10522689 0.041149676
0.11208844 -0.050360978 -0.0630022 -0.07949829 -0.18336888 -0.07157385 0.010428324 -0.07583329
-0.019523203 -0.13852184 0.03389749 -0.052824866 -0.09433846 -0.04117474 -0.022165984 -0.0016099215
0.10837425 -0.034610286 -0.057309106 0.014141679 0.08535138 -0.024573818 0.05622399 -0.17953153
-0.07109651 0.081169054 -0.040522337 -0.038681373 -0.050845116 -0.025198624 0.027851358 -0.09377842
0.0741113 -0.067173675 -0.08790806 -0.064093545 -0.124130055 -0.055106968 0.036956012 0.114256516
-0.109291926 -0.09023878 0.118705705 -0.08817628 0.019243553 -0.12451191 0.013324469 0.054053023
-0.058664367 -0.09348412 -0.0129389465 0.010770261 -0.10947764 -0.09848197 -0.06225826 0.05263762
0.013026893 -0.055393964 -0.016357377 -0.02862665 -0.055907458 -0.03683968 -0.10261428 0.095955476
-0.047155872 0.11813635 0.104047745 -0.092333555 0.09710571 -0.015383676 0.08413233 -0.055318743
0.04920128 -0.10537724 0.011265263 0.04342006 -0.045204043 -0.108698726 -0.0568313 -0.06754954
-0.0196352 0.050862074 0.08595987 0.084423155 -0.026615411 0.04874967 0.01640828 -0.028420791
-0.021597385 -0.030403713 0.013713186 -0.009660227 0.11477327 -0.18767901 0.05700642 0.11490993
-0.11220936 -0.080339685 0.060033187 -0.070121065 0.06891866 -0.0034331232 0.079122126 0.024536192
-0.16637303 -0.08059022 0.11764507 -0.05924669 -0.082784064 0.08097033 0.011197165 -0.011313513
-0.06862795 -0.13999172 -0.08213675 0.006776899 0.059210047 -0.014766395 0.016980663 0.09776944
-0.06275892 0.034443945 -0.08654976 0.11378445 -0.035996392 0.036718413 0.09286052 0.071211845
-0.053180233 0.06821789 0.014955774 -0.05815369 -0.010183352 0.050244227 -0.12101255 0.045505106
0.11425069 -0.17244855 -0.04539144 -0.2223323 0.08685875 0.03900969 -0.032411363 -0.115470275
-0.074294925 0.048752144 0.06556751 -0.116168484 -0.08312313 -0.11344002 -0.1149911 -0.09879471
-0.08943319 -0.095935516 -0.097877994 -0.055481814 -0.0034784283 -0.15394782 -0.029134095 0.0093411505
-0.056690034 0.050626576 0.010552034 0.073882185 0.013976708 0.03132291 -0.10693939 0.019708442
-0.041080832 -0.0977284 -0.045870963 -0.14882134 -0.19722186 0.019176409 -0.050786823 -0.065019324
0.114599794 -0.05160065 0.076926604 0.02079302 0.07755883 -0.014814436 0.09632675 0.0841399
-0.104936466 -0.09329754 0.13529544 -0.048219264 0.12857054 0.06271228 0.0810481 0.09934749
-0.027802706 0.0030459464 -0.037599593 -0.20703536 -0.21172985 0.05304572 -0.086301915 0.07111056
0.08901185 -0.17328006 -0.05364774 -0.20338784 -0.124125585 -0.092034996 0.030407827 -0.09612693
-0.0519401 -0.011202127 -0.016754463 -0.09501116 0.11480224 0.0145531 0.105037674 -0.33887514
00000000: 6ca6 df3d f437 dcbd 70a7 85bd 97f0 5ebe
00000010: eac4 963d f3ee febd 0cca f8bd 109b f43c
00000020: 7dac 6abe 8888 c13c 28ea 97bd 24cd 7abd
00000030: 74ee a83d 809b ea3c 5818 1c3d 1cfb fcbd
00000040: a836 06be 7d09 2fbe f403 03bd eea9 66be
00000050: 369d 94bd baa9 fb3d 34ca 74bd e8e7 da3c
00000060: 1001 ca3d a814 c8bc 748c e3bd 4436 ff3d
00000070: b42c 1f3d 6acc e53d a274 8e3d dc06 fabd
00000080: 5092 0abc 383d 353d 725c a83d 2054 15bc
00000090: 8024 ccbd a84d ebbc 3281 d7bd 908c 283d
000000a0: a08e e53d 5047 4ebd 4c07 81bd 00d0 a2bd
000000b0: 0dc5 3bbe 5095 92bd 90db 2a3c 7c4e 9bbd
000000c0: 20ef 9fbc abd8 0dbe 18d8 0a3d e35e 58bd
000000d0: 8634 c1bd d8a6 28bd 7095 b5bc 0004 d3ba
000000e0: 52f3 dd3d 84c3 0dbd f4bc 6abd 80b2 673c
000000f0: b4cc ae3d 084f c9bc 204b 663d 1dd7 37be
00000100: 0c9b 91bd f63b a63d c0fa 25bd 5c70 1ebd
00000110: f842 50bd 586d cebc 8828 e43c e60e c0bd
00000120: aac7 973d 5a92 89bd 2409 b4bd 7a43 83bd
00000130: e637 febd d8b7 61bd 305f 173d 52ff e93d
00000140: 72d4 dfbd 1ccf b8bd fa1b f33d c495 b4bd
00000150: a8a4 9d3c 1a00 ffbd e04e 5a3c b466 5d3d
00000160: 0c4a 70bd 9a74 bfbd e0fd 53bc c075 303c
00000170: d035 e0bd eab0 c9bd 8402 7fbd 8c9a 573d
00000180: c06e 553c c8e4 62bd e8ff 85bc 7082 eabc
00000190: 38ff 64bd 34e5 16bd 7027 d2bd 4e84 c43d
000001a0: 8426 41bd 78f1 f13d fc16 d53d 6019 bdbd
000001b0: 5cdf c63d d00b 7cbc 924d ac3d e895 62bd
000001c0: 4887 493d 06d0 d7bd f091 383c 3cd9 313d
000001d0: e027 39bd 709d debd f0c7 68bd 6a57 8abd
000001e0: 00da a0bc c054 503d ba0b b03d 0ce6 ac3d
000001f0: 9008 dabc bcad 473d a86a 863c b8d2 e8bc
00000200: 00ed b0bc 3511 f9bc 45ad 603c ee45 1ebc
00000210: 400e eb3d ed2e 40be 907f 693d e655 eb3d
00000220: 05ce e5bd 2289 a4bd 5ce5 753d a29b 8fbd
00000230: 3a25 8d3d 40fe 60bb c80a a23d 2000 c93c
00000240: b15d 2abe 7c0c a5bd e6ef f03d a8ac 72bd
00000250: b18a a9bd c6d3 a53d 5074 373c 505c 39bc
00000260: d08c 8cbd fd59 0fbe 5037 a8bd c010 de3b
00000270: 3c86 723d c0ee 71bc 081b 8b3c 583b c83d
00000280: c087 80bd 1815 0d3d 0041 b1bd d207 e93d
00000290: f470 13bd 0c66 163d a82d be3d 84d7 913d
000002a0: 84d3 59bd d2b5 8b3d 1009 753c 9032 6ebd
000002b0: 13d8 26bc e4cc 4d3d 6ed5 f7bd 9063 3a3d
000002c0: 44fc e93d 5a96 30be 60ec 39bd 14ab 63be
000002d0: 00e3 b13d a0c8 1f3d c7c1 04bd ae7b ecbd
000002e0: f027 98bd 54b0 473d 4248 863d bee9 edbd
000002f0: 763c aabd 3e53 e8bd 7480 ebbd e254 cabd
00000300: c028 b7bd d779 c4bd 4274 c8bd e640 63bd
00000310: 58f6 63bb 7fa4 1dbe a0aa eebc a00b 193c
00000320: cf33 68bd d05d 4f3d 70e2 2c3c 8b4f 973d
00000330: 90fe 643c 744c 003d 0a03 dbbd 9973 a13c
00000340: 6044 28bd d425 c8bd 31e3 3bbd 9f64 18be
00000350: 87f4 49be d817 9d3c d805 50bd da28 85bd
00000360: 4cb3 ea3d 345b 53bd b28b 9d3d 2056 aa3c
00000370: 2ad7 9e3d 40b8 72bc f646 c53d 8a51 ac3d
00000380: eee8 d6bd c812 bfbd e38a 0a3e 9081 45bd
00000390: ffa7 033e 4c6f 803d 8cfc a53d b276 cb3d
000003a0: 80c2 e3bc 809e 473b 0802 1abd 1401 54be
000003b0: b6cf 58be 7846 593d 0fbf b0bd 6aa2 913d
000003c0: d84b b63d 5470 31be bcbd 5bbd e744 50be
000003d0: 8e35 febd d87c bcbd d619 f93c 32de c4bd
000003e0: 24bf 54bd 2089 37bc a840 89bc 3695 c2bd
000003f0: 701d eb3d 2070 6e3c fe1d d73d 0b81 adbe

layers.2.bias f4 [64]
-0.22823864 -0.10166852 -0.31730816 -0.24851221 0.6440967 1.2665772 -0.05894702 0.070363306
-0.11835429 -0.1478008 -0.20098321 -0.17074826 -0.3453728 -0.11053001 2.6901643 -0.100235984
-0.18582237 0.40025565 -0.2329871 -0.19141363 -0.040572368 -0.32304174 -0.18309647 0.02858832
2.6221867 -0.06177333 -0.10431863 0.031954724 -0.054696858 -0.122795686 -0.0666024 -0.120743744
-0.028179703 -0.07355431 -0.037190367 -0.032338705 0.028653849 -0.045772806 -0.20771162 2.4399543
-0.06517326 -0.26713482 -0.024172055 -0.06927855 2.0188057 0.07674031 0.8456716 -0.13931504
-0.17853078 -0.04978271 2.1640813 -0.008832203 -0.14011641 -0.011717508 -0.027358573 0.43485034
-0.15066677 -0.23679215 -0.24307291 -0.028628496 0.040318042 -0.10993172 -0.042387128 -0.12028355
00000000: 64b7 69be 9637 d0bd 3776 a2be fc79 7ebe
00000010: 85e3 243f 341f a23f 6e72 71bd a31a 903d
00000020: bc63 f2bd 1859 17be 8bce 4dbe a2d8 2ebe
00000030: b4d4 b0be 8f5d e2bd a72b 2c40 8648 cdbd
00000040: 3848 3ebe 4fee cc3e 2c94 6ebe ef01 44be
00000050: 362f 26bd ba65 a5be a47d 3bbe 0d32 ea3c
00000060: e8d1 2740 0806 7dbd 02a5 d5bd f5e2 023d
00000070: d009 60bd 4e7c fbbd d766 88bd 7f48 f7bd
00000080: 1fd9 e6bc a4a3 96bd ed54 18bd 9775 04bd
00000090: 7abb ea3c 447c 3bbd 5bb2 54be 3628 1c40
000000a0: 8f79 85bd e5c5 88be 7904 c6bc eae1 8dbd
000000b0: 1d34 0140 062a 9d3d ef7d 583f 9aa8 0ebe
000000c0: c6d0 36be f4e8 4bbd 4f80 0a40 f2b4 10bc
000000d0: ad7a 0fbe cafa 3fbc 161f e0bc b4a4 de3e
000000e0: 6448 1abe a479 72be 1be8 78be 4f86 eabc
000000f0: 8824 253d e223 e1bd 209e 2dbd 3957 f6bd

layers.4.weight f4 [64, 64]
0.103267014 -0.03174086 0.09265025 -0.11464467 0.023123952 0.061807565 0.03181301 0.07105037
0.01040563 0.038331926 0.060758784 0.016280517 -0.054992497 0.1225717 -0.09270112 0.021369532
-0.056217387 -0.043373633 -0.05996614 -0.13029592 -0.07778396 0.053910878 -0.073785864 -0.035027735
-0.087830536 -0.09695004 -0.015408367 -0.0016934276 0.02463685 0.055665687 0.104014575 -0.08089065
0.021684825 -0.03930417 -0.05201393 -0.049503136 0.021592325 0.018454019 -0.011678456 0.11675213
0.15122469 -0.09627633 0.07144111 -0.013368964 -0.08912452 -0.06332357 -0.05986621 -0.014688209
-0.017458428 0.019806176 0.003280442 -0.07141344 -0.08041306 -0.08439459 -0.09344876 0.064197876
-0.01015056 0.013493389 0.09140806 0.104505904 0.14758228 -0.09850576 0.1374016 -0.093158096
-0.059406217 0.0729917 0.06898643 -0.24343589 -0.27110574 -0.16333456 0.03045883 0.0031827805
0.067183435 0.021597348 0.17873181 0.11473635 -0.049227294 -0.072098255 -0.18853216 -0.062380504
0.07138235 -0.30667877 -0.22903398 -0.17592625 0.111911364 -0.05284544 0.15154086 -0.0031530794
-0.06062223 0.076327816 -0.017492324 -0.07625178 0.0019844472 -0.0047110277 -0.23720866 0.027006615
-0.02427998 -0.07875842 -0.039776232 0.14364214 -0.002163694 0.14569016 -0.008406226 -0.33167607
-0.039604004 -0.07960798 -0.21607588 0.04075338 -0.19207343 -0.064245075 -0.110749915 -0.08352607
-0.20886183 0.026618436 -0.06610432 -0.013078625 0.08776706 -0.046099197 -0.08470455 -0.22831593
0.05766428 0.1753797 0.24218728 0.0071579884 0.0009039989 -0.10846717 0.012462148 -0.118421875
-0.086526245 -0.013317868 -0.06837323 -0.0803818 -0.23343316 -0.176158 -0.007608321 -0.07054067
0.083909094 -0.09903291 0.14544065 0.021390721 0.010987885 -0.124430105 -0.16216418 0.12887643
0.001267769 -0.2771542 0.07022998 -0.13863732 0.010058245 -0.07677633 -0.1161235 0.06680055
-0.13326295 -0.085491285 -0.10268137 -0.05443874 -0.014219433 -0.098777264 -0.08513826 0.027936926
0.09998116 -0.0033482474 -0.009958344 -0.034184977 -0.12866692 -0.091486305 0.066315 -0.09097046
-0.05122812 0.00895533 -0.063625224 -0.096227795 -0.22479117 0.09773536 -0.088235565 0.07052062
-0.05521913 -0.051180825 -0.12336152 -0.08597219 0.03492336 -0.05470736 0.049584694 -0.12583145
-0.14435424 0.07804965 0.117470235 -0.008952021 0.07542215 0.1022879 0.0699614 -0.10121051
0.10442878 -0.11341654 0.030818462 0.13459378 -0.053545274 -0.078956194 0.11779401 0.023971466
-0.036211684 0.09664461 -0.10400591 0.0008508265 -0.047189515 0.0059099863 -0.035489514 0.087614655
0.041417267 0.060064018 0.06413955 -0.086401224 -0.08266484 -0.0932506 -0.07592874 0.14866789
0.046044104 0.014615759 0.034372076 -0.042813253 -0.002295807 0.097949415 0.14787304 -0.07943403
0.016028529 -0.03371972 -0.029618476 0.09660489 0.10763205 0.13391086 0.046330858 -0.13773279
0.112365484 -0.050900385 0.049174704 0.10764225 -0.061200857 0.04543686 -0.07161865 -0.11158803
0.10363682 0.09104402 0.017012162 -0.067294694 0.14682114 -0.073869996 0.029045736 -0.053570054
0.0231991 -0.13144132 0.07935895 -0.08034379 -0.024422947 -0.05214089 0.06313223 -0.10604146
00000000: a87d d33d b402 02bd 6abf bd3d d3ca eabd
00000010: 716e bd3c ee29 7d3d 5c4e 023d db82 913d
00000020: 607c 2a3c f001 1d3d 34de 783d b85e 853c
00000030: d03f 61bd df06 fb3d 16da bdbd 280f af3c
00000040: 3444 66bd 8da8 31bd 0e9f 75bd 4b6c 05be
00000050: 324d 9fbd a7d1 5c3d 0b1d 97bd 3e79 0fbd
00000060: 7fe0 b3bd be8d c6bd 6073 7cbc 00f6 ddba
00000070: 38d3 c93c b401 643d 9805 d53d ffa9 a5bd
00000080: 60a4 b13c 69fd 20bd 8f0c 55bd cdc3 4abd
00000090: 63e2 b03c e22c 973c ff56 3fbc be1b ef3d
000000a0: a5da 1a3e 862c c5bd b74f 923d 8009 5bbc
000000b0: eb86 b6bd caaf 81bd 4536 75bd d0a6 70bc
000000c0: fa04 8fbc 9040 a23c affc 563b 3641 92bd
000000d0: 9aaf a4bd 12d7 acbd 1062 bfbd 2d7a 833d
000000e0: 894e 26bc 6013 5d3c 2634 bb3d 3107 d63d
000000f0: cf1f 173e 63bd c9bd 01b3 0c3e acc9 bebd
00000100: ef53 73bd ac7c 953d c248 8d3d 4247 79be
00000110: 5fce 8abe 2d41 27be cc84 f93c 3296 503b
00000120: 7897 893d ecec b03c 7905 373e e4fa ea3d
00000130: 8fa2 49bd 40a8 93bd 930e 41be b382 7fbd
00000140: e930 923d 0005 9dbe e287 6abe 0326 34be
00000150: c931 e53d 7674 58bd 872d 1b3e e5a3 4ebb
00000160: 044f 78bd c251 9c3d 104c 8fbc e529 9cbd
00000170: 800d 023b f75e 9abb d4e6 72be fa3c dd3c
00000180: cfe6 c6bc 184c a1bd 67ec 22bd ed16 133e
00000190: c3cc 0dbb cd2f 153e 44ba 09bc 72d1 a9be
000001a0: cf37 22bd 8209 a3bd ff42 5dbe 04ed 263d
000001b0: e6ae 44be ec92 83bd dad0 e2bd b70f abbd
000001c0: e0df 55be e80e da3c b461 87bd bb47 56bc
000001d0: 37bf b33d 83d2 3cbd 9479 adbd a7cb 69be
000001e0: 6131 6c3d bc96 333e f1ff 773e 8f8d ea3b
000001f0: 57fa 6c3a 0924 debd 0a2e 4c3c 2b87 f2bd
00000200: ac34 b1bd 3033 5abc 4407 8cbd 379f a4bd
00000210: 1a09 6fbe c362 34be 394f f9bb a077 90bd
00000220: 88d8 ab3d c4d1 cabd 65ee 143e 983b af3c
00000230: 8806 343c 36d5 febd 5e0e 26be 2ff8 033e
00000240: 452b a63a 28e7 8dbe bcd4 8f3d f1f6 0dbe
00000250: 56cb 243c e93c 9dbd 28d2 edbd bace 883d
00000260: 1576 08be 0e16 afbd 9c4a d2bd 28fb 5ebd
00000270: a0f8 68bc bc4b cabd f85c aebd fbdb e43c
00000280: ecc2 cc3d 456e 5bbb 5228 23bc 8c05 0cbd
00000290: 43c1 03be 2c5d bbbd 29d0 873d b84e babd
000002a0: 94d4 51bd 60b9 123c f14d 82bd 1413 c5bd
000002b0: a82f 66be 7a29 c83d d9b4 b4bd 1d6d 903d
000002c0: 742d 62bd fca2 51bd f7a4 fcbd 3012 b0bd
000002d0: cc0b 0f3d d314 60bd 5219 4b3d f6d9 00be
000002e0: 99d1 13be 7fd8 9f3d 3c94 f03d 7fab 12bc
000002f0: ee76 9a3d 527c d13d ec47 8f3d 7547 cfbd
00000300: c2de d53d ee46 e8bd 0077 fc3c f4d2 093e
00000310: 4a52 5bbd c9b3 a1bd fc3d f13d cf5f c43c
00000320: b452 14bd 9ced c53d 0d01 d5bd 000a 5f3a
00000330: cb49 41bd 8fa8 c13b 745d 11bd 506f b33d
00000340: 27a5 293d b005 763d 995b 833d 20f3 b0bd
00000350: 2f4c a9bd 2cfa bebd 8780 9bbd 653c 183e
00000360: be98 3c3d f076 6f3c bcc9 0c3d f35c 2fbd
00000370: 4075 16bb b499 c83d 086c 173e 4fae a2bd
00000380: 434e 833c b01d 0abd 72a2 f2bc c9d8 c53d
00000390: 316e dc3d ee1f 093e 6dc5 3d3d d309 0dbe
000003a0: e01f e63d ec7c 50bd 6a6b 493d 8a73 dc3d
000003b0: c0ad 7abd 001c 3a3d ccac 92bd 4488 e4bd
000003c0: 8b3f d43d 4a75 ba3d 175d 8b3c cdd1 89bd
000003d0: 4858 163e 2749 97bd 53f1 ed3c 466c 5bbd
000003e0: 0a0c be3c 8e98 06be f286 a23d 498b a4bd
000003f0: a212 c8bc b091 55bd 784b 813d 442c d9bd

layers.4.bias f4 [64]
0.044581953 0.5003394 0.005351042 0.09423684 -0.104341686 0.077123664 -0.2501705 0.036179025
0.049621016 -0.24152556 0.18195555 -0.09725706 0.22909996 -0.07998566 0.026657188 0.0770838
-0.0913715 -0.18683526 0.18684438 0.3507764 0.010092368 0.21384867 0.08397488 0.05212536
-0.05778431 -0.007198616 -0.10879798 -0.23173422 3.3149028 -0.20392935 0.29995707 0.6825078
-0.0188549 1.6906537 0.05262702 -0.005988376 -0.12402789 0.09355239 -0.08849846 -0.059691027
0.085155495 0.06619849 0.054378513 -0.19370165 0.104699574 -0.05267271 0.068973295 -0.27682948
0.12277952 0.12519298 -0.12734725 -0.053680133 -0.06388889 0.5358392 0.039763182 0.063983485
-0.027362583 -0.12860695 -0.27346972 0.0011102302 -0.2101474 1.5456897 0.07262249 3.988197
00000000: 919b 363d 3e16 003f cb57 af3b 3fff c03d
00000010: 18b1 d5bd 03f3 9d3d 5916 80be 7530 143d
00000020: 683f 4b3d 7a52 77be 8e52 3a3e b62e c7bd
00000030: 2e99 6a3e 86cf a3bd 2d60 da3c 1dde 9d3d
00000040: fb20 bbbd be51 3fbe 2254 3f3e f798 b33e
00000050: 765a 253c 25fb 5a3e 06fb ab3d 6781 553d
00000060: 3eaf 6cbd 5ee2 ebbb 7ad1 debd bc4b 6dbe
00000070: 5e27 5440 dbd2 50be f993 993e d5b8 2e3f
00000080: 9775 9abc 5767 d83f 6e8f 573d 243a c4bb
00000090: 5602 febd 6598 bf3d ae3e b5bd 947e 74bd
000000a0: 0166 ae3d 1393 873d 01bc 5e3d ba59 46be
000000b0: bb6c d63d 57bf 57bd df41 8d3d 98bc 8dbe
000000c0: d473 fb3d 9732 003e 5167 02be b3df 5bbd
000000d0: 2ed8 82bd c22c 093f b8de 223d c609 833d
000000e0: 7f27 e0bc 8ab1 03be 3904 8cbe 2585 913a
000000f0: e130 57be 29d9 c53f 1abb 943d 9f3e 7f40

layers.6.weight f4 [64, 64]
0.09670826 -0.123222925 0.057949394 0.02394558 -0.016615242 0.03982533 0.07092106 0.0063076825
-0.08319519 0.025212824 0.07165135 0.10706152 0.059851702 -0.023391247 0.07080887 0.10644895
0.12115787 -0.0071359873 -0.02965221 -0.13122019 0.13827965 -0.07583494 0.026157755 -0.056688126
0.05223915 0.004348892 0.11592665 -0.027350126 -0.21010989 -0.079986975 0.06722606 -0.12286782
0.08219614 0.01163912 0.040686186 -0.0074178716 -0.041038573 0.021994038 -0.05931273 -0.012893811
-0.091622435 0.08984546 0.0057683904 0.064548835 0.057139758 0.047704473 0.084880464 0.104236126
-0.07091281 0.03386888 0.08956847 0.0930573 0.1231721 -0.12669505 0.12602371 0.043098085
-0.04286174 0.02349481 0.036746368 0.103794634 0.03295119 -0.04708062 0.050692763 -0.058843497
0.04036343 -0.122727305 0.082455754 0.003937923 -0.065932706 0.0141392425 0.047242716 0.021306315
-0.14123198 0.11235799 -0.06991827 0.06510818 -0.10462434 -0.07893811 0.08019655 -0.050156318
0.0051099584 0.07964979 -0.024072532 -0.07242978 0.029411506 -0.00791471 0.031368855 0.092444204
-0.141875 0.051296014 -0.07089718 -0.0011081757 -0.14560081 -0.07399921 -0.17618999 0.024961367
0.00050904386 -0.28384662 0.08826172 -0.0045513916 0.036510214 -0.021493768 -0.07444575 -0.07721479
-0.08033348 -0.1368347 0.03287522 -0.045080945 -0.13578014 -0.13752742 0.024860226 -0.0334602
-0.10833544 0.0008854881 -0.1484991 0.058825597 -0.032426048 -0.04681138 0.080448344 0.064091116
0.026876677 0.01380308 0.039576694 0.047441486 -0.121243075 -0.09246384 -0.009877988 -0.1651511
-0.13669834 -0.12494744 -0.10741916 -0.13956517 -0.01361455 -0.06395575 0.08149944 0.03823129
-0.15478455 -0.10738741 -0.09913902 0.032018274 -0.120966 -0.05846636 -0.042804066 0.07088139
0.055562705 -0.116327494 -0.12290931 -0.07492904 -0.07971396 -0.056302957 0.024948902 0.011699641
-0.11764549 -0.038869172 0.04229574 -0.09945827 0.07350157 0.04769364 -0.04572849 0.06630557
-0.08930619 0.07031479 -0.10327838 0.035876166 -0.042213768 -0.033156116 -0.013938664 -0.068697035
-0.05926728 -0.043448247 0.07421851 -0.062317774 -0.12060481 0.08087687 0.046330802 -0.0824261
-0.08144705 -0.114820145 -0.084002726 -0.08641834 -0.112632066 0.082917444 -0.11653534 0.09451858
-0.07599971 -0.109285384 -0.10829364 0.06932877 0.022384137 -0.117478505 -0.08559499 -0.14136535
-0.00761421 -0.30120337 -0.015923807 0.074087776 -0.04284528 -0.10585069 0.03162591 0.082995854
0.0013800483 -0.021835774 -0.007571902 -0.04901372 -0.09240523 0.047947645 0.003077715 -0.08458903
0.044354 -0.08111231 -0.0652158 -0.026941389 0.044772286 -0.08625087 -0.09619471 -0.097676896
-0.013222345 0.043886475 -0.068546236 -0.1394289 -0.10149946 -0.059370816 -0.14409915 -0.103690594
-0.0800562 -0.08446937 0.07336617 -0.13146877 -0.07147649 -0.12638819 -0.006977988 0.11391099
0.0040025064 0.069823585 -0.11523915 -0.043647856 -0.08357074 -0.03864049 -0.031413924 0.08038609
0.068937525 -0.16479988 0.09243825 0.012346711 -0.12249518 -0.3192543 -0.12224569 0.03644683
0.005611054 -0.020556346 -0.10836363 0.011562429 0.04469901 -0.21766134 -0.022560025 -0.13825597
00000000: fb0e c63d 4d5c fcbd 585c 6d3d 8529 c43c
00000010: b01c 88bc e31f 233d 103f 913d adb0 ce3b
00000020: 3d62 aabd 208b ce3c f1bd 923d 1243 db3d
00000030: 0f27 753d 009f bfbc 3e04 913d e801 da3d
00000040: 9e21 f83d 00d5 e9bb 31e9 f2bc 965e 06be
00000050: 2e99 0d3e 594f 9bbd ca48 d63c cf31 68bd
00000060: b8f8 553d 2681 8e3b f46a ed3d 5f0d e0bc
00000070: 0c27 57be 36d0 a3bd d1ad 893d 20a2 fbbd
00000080: 7356 a83d 02b2 3e3c 8fa6 263d 9e11 f3bb
00000090: 1018 28bd d72c b43c e8f1 72bd 9040 53bc
000000a0: 8ba4 bbbd e600 b83d c404 bd3b 2e32 843d
000000b0: 610b 6a3d c465 433d cfd5 ad3d c079 d53d
000000c0: bc3a 91bd 18ba 0a3d ad6f b73d d394 be3d
000000d0: a741 fc3d 59bc 01be 5c0c 013e 9e87 303d
000000e0: cb8f 2fbd 3078 c03c 5c83 163d 4892 d43d
000000f0: d4f7 063d 9cd7 40bd 37a3 4f3d e105 71bd
00000100: 2054 253d 7458 fbbd 90de a83d b109 813b
00000110: ba07 87bd 48a8 673c 9481 413d 958a ae3c
00000120: 1e9f 10be f21b e63d 4f31 8fbd 7057 853d
00000130: 4945 d6bd 4eaa a1bd 173e a43d b670 4dbd
00000140: 7071 a73b 6e1f a33d c233 c5bc 1156 94bd
00000150: 66f0 f03c b3ac 01bc a17c 003d 6353 bd3d
00000160: ae47 11be c51b 523d 8a32 91bd 3540 91ba
00000170: 6118 15be e68c 97bd 266b 34be c87b cc3c
00000180: 5b71 053a 5854 91be 90c2 b43d d723 95bb
00000190: bc8b 153d b313 b0bc 0377 98bd ca22 9ebd
000001a0: e185 a4bd 651e 0cbe 2ba8 063d cca6 38bd
000001b0: f309 0bbe fdd3 0cbe aca7 cb3c 900d 09bd
000001c0: f9de ddbd 1a20 683a 2610 18be 1cf3 703d
000001d0: 2dd1 04bd 4abd 3fbd 1ac2 a43d 3442 833d
000001e0: 7a2c dc3c 5026 623c 2c1b 223d 0152 423d
000001f0: 4a4e f8bd af5d bdbd 49d7 21bc 5f1d 29be
00000200: a6fa 0bbe 72e4 ffbd 94fe dbbd 2cea 0ebe
00000210: 900f 5fbc 3bfb 82bd 2ee9 a63d 6a98 1c3d
00000220: d77f 1ebe eeed dbbd 6609 cbbd 9825 033d
00000230: 06bd f7bd 6c7a 6fbd 5153 2fbd 432a 913d
00000240: b895 633d 1c3d eebd e0b7 fbbd 6674 99bd
00000250: 1341 a3bd ee9d 66bd a461 cc3c daaf 3f3c
00000260: 1ef0 f0bd 4835 1fbd 4c3e 2d3d c7b0 cbbd
00000270: fe87 963d 685a 433d cc4d 3bbd 37cb 873d
00000280: 2ae6 b6bd 3301 903d 9e83 d3bd e3f2 123d
00000290: 58e8 2cbd b5ce 07bd ff5e 64bc 08b1 8cbd
000002a0: 3fc2 72bd caf6 31bd e0ff 973d ec40 7fbd
000002b0: a8ff f6bd c6a2 a53d 5ec5 3d3d 04cf a8bd
000002c0: b6cd a6bd d326 ebbd 9f09 acbd 19fc b0bd
000002d0: a4ab e6bd 9fd0 a93d 15aa eebd f592 c13d
000002e0: bca5 9bbd 04d1 dfbd 0ec9 ddbd 3efc 8d3d
000002f0: f05e b73c 9298 f0bd 6d4c afbd 14c2 10be
00000300: 9f80 f9bb 5437 9abe a572 82bc 55bb 973d
00000310: 887e 2fbd 3fc8 d8bd 2c8a 013d bbf9 a93d
00000320: bde2 b43a f0e0 b2bc b81d f8bb 9cc2 48bd
00000330: f43e bdbd c064 443d 7db3 493b 033d adbd
00000340: 8aac 353d 361e a6bd dd8f 85bd 30b4 dcbc
00000350: 2563 373d 4ca4 b0bd bb01 c5bd d30a c8bd
00000360: 89a2 58bc 4ec2 333d f861 8cbd 73c6 0ebe
00000370: f3de cfbd d02e 73bd ba8e 13be bc5b d4bd
00000380: 81f4 a3bd 47fe acbd 0141 963d c09f 06be
00000390: 4462 92bd e86b 01be 9ba7 e4bb 2a4a e93d
000003a0: 7527 833b abff 8e3d 8102 ecbd 18c8 32bd
000003b0: 2327 abbd 7e45 1ebd e3ab 00bd 76a1 a43d
000003c0: 1e2f 8d3d 4dc1 28be 4450 bd3d dc49 4a3c
000003d0: c1de fabd 4d75 a3be f35b fabd 4549 153d
000003e0: efdc b73b c865 a8bc c0ed ddbd 5870 3d3c
000003f0: 4f16 373d 9de2 5ebe cdcf b8bc f992 0dbe

layers.6.bias f4 [64]
-0.0026907825 -0.15472409 0.09413562 -0.013579283 -0.1660568 0.3749845 -0.25882965 0.23461093
-0.033610534 -0.23520878 -0.1397712 -0.06522466 1.1002125 -0.15764496 -0.0833748 5.1018777
-0.08818925 0.119209565 3.2755296 0.12863742 1.0733606 -0.10088372 -0.045363553 -0.032436825
0.50481147 0.06512141 -0.25871953 0.0565285 0.023763286 -0.04659051 0.0030738516 0.58450973
0.012852135 -0.11674002 -0.015223831 5.118511 -0.24777682 -0.13060516 -0.10989977 1.4108264
-0.1376937 0.018234437 -0.030390402 3.8352084 0.037293296 -0.18742608 1.26557 -0.23070128
-0.020607503 -0.17014623 0.3728307 0.5997905 -0.16195671 2.247921 -0.06966106 0.41937461
-0.11662124 -0.0067252736 0.015684452 0.032999713 -0.04190401 0.8977057 4.935816 0.077713735
00000000: d757 30bb fe6f 1ebe 2dca c03d a47b 5ebc
00000010: cb0a 2abe f8fd bf3e 5285 84be d93d 703e
00000020: 33ab 09bd 92da 70be 2e20 0fbe 8294 85bd
00000030: c3d3 8c3f ae6d 21be 68c0 aabd 9542 a340
00000040: 919c b4bd 2524 f43d 47a2 5140 87b9 033e
00000050: e163 893f 209c cebd 22cf 39bd 7adc 04bd
00000060: 533b 013f 605e 853d e376 84be 6e8a 673d
00000070: 39ab c23c b1d5 3ebd ac72 493b 6ea2 153f
00000080: c391 523c 6415 efbd 606d 79bc d8ca a340
00000090: 35b9 7dbe 5cbd 05be 2113 e1bd f695 b43f
000000a0: 94ff 0cbe 6360 953c 4bf5 f8bc 0e74 7540
000000b0: dbc0 183d 9fec 3fbe 33fe a13f f53c 6cbe
000000c0: 11d1 a8bc d03a 2ebe aae3 be3e df8b 193f
000000d0: fbd7 25be f0dd 0f40 75aa 8ebd 45b8 d63e
000000e0: 1ed7 eebd af5f dcbb ae7c 803c b52a 073d
000000f0: 8aa3 2bbd 0ad0 653f 34f2 9d40 6128 9f3d

layers.8.weight f4 [1, 64]
0.12603207 -0.116717584 -0.018624736 -0.14236066 -0.07547168 0.0007906838 0.1433115 6.363391e-05
0.11601978 -0.141244 0.006578014 0.14077727 -0.08963896 -0.058827776 0.027109418 -0.5807109
-0.0394318 -0.15851292 -0.001126239 -0.062889226 -0.01010808 0.057574313 0.00034000207 -0.018394483
0.00029360707 -0.027724477 -0.03484511 -0.02153699 0.057146892 -0.01100387 -0.0042390684 0.15875481
-0.015967736 -0.06070128 -0.10329741 -0.54735506 0.135242 0.08138378 -0.07188048 0.03679302
0.03795549 -0.1582971 0.029400896 -0.058635216 -0.03761294 -0.13778347 0.064319566 -0.11756012
-0.03321534 -0.025953082 0.012278216 -0.15170284 -0.109918356 -0.0009069087 -0.00032523563 -0.0042069713
-0.15304588 0.031726826 0.066748165 0.07549085 -0.07093913 -0.15849516 -0.2956876 0.02503787
00000000: 8d0e 013e a109 efbd e792 98bc fec6 11be
00000010: e590 9abd e445 4f3a 40c0 123e 3273 8538
00000020: c79b ed3d 44a2 10be 628c d73b eb27 103e
00000030: a294 b7bd 65f5 70bd 9214 de3c 78a9 14bf
00000040: 3d83 21bd 3651 22be 4f9e 93ba 11cc 80bd
00000050: 5c9c 25bc 0bd3 6b3d 4e42 b239 07b0 96bc
00000060: 46ef 9939 711e e3bc bfb9 0ebd 576e b0bc
00000070: dc12 6a3d 9349 34bc e2e7 8abb 9f90 223e
00000080: c5ce 82bc e8a1 78bd 988d d3bd 761f 0cbf
00000090: e17c 0a3e 8aac a63d 1336 93bd 47b4 163d
000000a0: 3777 1b3d a318 22be 26da f03c 7b2b 70bd
000000b0: 0710 1abd 1c17 0dbe fab9 833d 5cc3 f0bd
000000c0: cf0c 08bd 8f9b d4bc 922a 493c fd57 1bbe
000000d0: e01c e1bd 9dbd 6dba 6384 aab9 a2da 89bb
000000e0: 0fb8 1cbe fdf3 013d 43b3 883d f29a 9a3d
000000f0: 8948 91bd 8e4c 22be 5d64 97be 381c cd3c
