GraphClustering/GraphsLarge/Weights/Karate_300_400_1000_Forward0.pt (torch, 298077 bytes, 3 tensors)

layers.0.weight f4 [32, 2312]
0.017689416 0.7546435 0.76228887 0.7621022 0.76478285 0.7766829 0.7500046 0.748254
0.7563054 0.0038211101 0.7620571 0.7530295 0.76348704 0.7554471 0.0038119792 0.00225472
-0.0028384242 0.7512494 0.00064516906 0.7595313 0.0035669622 0.7431348 -0.012792337 0.004507707
0.017193945 0.012991473 -0.0077426736 0.015564958 0.0069849156 0.007816661 0.017158568 0.7584439
0.013783009 0.0075514386 0.758871 0.0022934405 0.7609696 0.73871046 0.016016351 0.004838359
-0.008722206 0.7622741 0.017987845 0.004207443 -0.005335087 -0.009609818 -3.9895713e-05 0.7410647
0.014830505 0.019771175 0.017356893 0.76049083 0.020754315 0.75516444 0.0060587507 0.74191064
0.019575989 0.009053634 0.015604263 -0.006113785 -0.011661394 0.0018766455 -0.010364019 0.00094117137
0.7615821 -0.012666092 0.015886452 0.016579762 0.7452124 0.77318126 -0.019710451 0.75746554
0.00021552907 0.0005022392 0.01137981 0.7697516 0.76270956 0.7452858 -0.010012463 0.015920263
-0.016897103 0.7540079 0.004362578 0.003936664 -0.0139145665 -0.0018412124 0.013972892 -0.0030880475
-0.017941333 0.0052971053 0.011776655 0.014952574 0.020227851 -0.008095693 -0.0097685065 0.7415624
0.74996763 0.015001863 0.010069646 0.013308193 0.7539224 0.019997219 0.7548242 0.7416803
0.77249974 -0.020629283 0.015226022 -0.0006231387 0.014302932 0.7525889 -0.009403046 -0.0098065175
-0.0065429015 0.017551763 0.74514526 0.7567653 0.016572004 -0.014353481 -0.010167811 -0.01090452
0.020088702 0.0046642553 -0.003534514 -0.0012108219 0.0003110611 -0.017924031 -0.006922622 0.015204748
-0.011613462 -0.0027356725 0.01943837 0.01054205 0.01868048 -0.011483772 -0.008265919 -0.004841795
0.7442791 -0.01846805 0.008942052 -0.008685746 -0.0165409 0.020229446 0.75606865 -0.004929577
0.016239177 0.019410362 0.7527484 0.00733289 0.017945241 -0.005037845 -0.011694724 -0.014635312
0.0048396233 -0.01576456 0.0058309594 -0.015238387 -0.018470202 0.0204403 -0.01712346 -0.017681403
-0.009264251 0.006886899 0.008430156 -0.00512643 0.010244825 -0.017084073 0.00040349408 0.001326944
0.018003386 -0.0063465987 0.7640893 -0.01425997 -0.0074637257 -0.011918926 -0.006126858 0.0054377764
0.76992327 0.017923176 0.019081423 -0.0056682923 0.77218086 0.0039541875 -0.011563885 0.012301964
0.016441533 -0.009196938 0.7766203 -0.002030174 -0.0020749464 -0.01556434 0.0069176615 0.009056019
0.009084262 -0.016730657 0.020327112 0.0068368386 0.014946316 -0.0009108727 0.011978776 0.00076209434
0.0013689173 -0.0131380875 -0.00027370907 -0.011717406 0.7494181 -0.007616129 -0.013893052 0.01282691
0.7491792 0.7727993 -0.009130341 -0.001571418 0.0075599346 0.009127522 -0.01861806 0.009120742
0.004663752 -0.0055074897 0.0035140628 0.007596042 0.77917844 0.015585384 0.0039529777 0.0031099762
0.007168569 0.0031641994 -0.0064528263 0.0022535697 0.016018568 0.009325045 0.01144577 -0.0110893985
0.0060139857 0.017889543 0.012231147 0.013718397 0.008197418 0.015491463 0.7581565 0.74439484
0.7515823 0.7477544 -0.015589946 0.009831273 -0.008974529 0.0027765476 -0.0075026746 0.012388905
0.011016512 -0.015622897 -0.014941631 0.00044871023 -0.00054958253 -0.0046326676 -0.0019427788 -0.0043373
00000000: 65e9 903c 5130 413f 5d25 433f 2119 433f
00000010: cfc8 433f b1d4 463f 4d00 403f 938d 3f3f
00000020: 3b9d 413f 976b 7a3b 2d16 433f 8bc6 403f
00000030: e373 433f fb64 413f 66d2 793b edc3 133b
00000040: db04 3abb e151 403f 9020 293a a570 423f
00000050: b2c3 693b 153e 3e3f f396 51bc 63b5 933b
00000060: 51da 8c3c 30da 543c 41b6 fdbb 2a04 7f3c
00000070: b8e1 e43b 7411 003c 2090 8c3c 6129 423f
00000080: 21d2 613c 0f72 f73b 5f45 423f 8c4d 163b
00000090: e7ce 423f 211c 3d3f b934 833c 198b 9e3b
000000a0: 95e7 0ebc 6524 433f 3f5b 933c 97de 893b
000000b0: f4d1 aebb 8072 1dbc b255 27b8 6bb6 3d3f
000000c0: a5fb 723c 29f7 a13c 0b30 8e3c 87af 423f
000000d0: f404 aa3c 7552 413f 7c88 c63b dbed 3d3f
000000e0: d35d a03c b155 143c 06a9 7f3c 2556 c8bb
000000f0: 6e0f 3fbc c6f9 f53a d9cd 29bc f1b8 763a
00000100: 0bf7 423f 7185 4fbc 4e24 823c 48d2 873c
00000110: 3dc6 3e3f 35ef 453f d077 a1bc 43e9 413f
00000120: a5ff 6139 b4a8 033a 6272 3a3c 710e 453f
00000130: ef40 433f 0dcb 3e3f 500b 24bc 366b 823c
00000140: cb6b 8abc a906 413f f5f3 8e3b 22ff 803b
00000150: ecf9 63bc d654 f1ba 8fee 643c d760 4abb
00000160: b4f9 92bc 5793 ad3b dff2 403c a4fb 743c
00000170: e1b4 a53c cca3 04bc 160c 20bc 09d7 3d3f
00000180: e1fd 3f3f 60ca 753c 28fb 243c 9b0a 5a3c
00000190: 0f01 413f 35d1 a33c 293c 413f c3de 3d3f
000001a0: 8bc2 453f befe a8bc 9176 793c 215a 23ba
000001b0: d856 6a3c aba9 403f 3c0f 1abc 84ab 20bc
000001c0: d665 d6bb b7c8 8f3c d7c1 3e3f 5fbb 413f
000001d0: 03c2 873c dd2a 6bbc e496 26bc dfa8 32bc
000001e0: 1091 a43c 9cd6 983b 4ea3 67bb 71b4 9eba
000001f0: ea15 a339 6bd5 92bc 2ad7 e2bb 561d 793c
00000200: 6446 3ebc f848 33bb 373d 9f3c 90b8 2c3c
00000210: ce07 993c 6e26 3cbc c76d 07bc eca7 9ebb
00000220: 1389 3e3f 4f4a 97bc af81 123c a94e 0ebc
00000230: c880 87bc 39b8 a53c b78d 413f 4a88 a1bb
00000240: 0608 853c 7b02 9f3c 1fb4 403f bd48 f03b
00000250: e601 933c 8214 a5bb 3a9b 3fbc f3c8 6fbc
00000260: b495 9e3b ae24 81bc a211 bf3b 6daa 79bc
00000270: d24e 97bc 6b72 a73c 8046 8cbc 97d8 90bc
00000280: 16c9 17bc 7fab e13b a31e 0a3c 9dfb a7bb
00000290: e9d9 273c e6f3 8bbc 0f8c d339 daec ad3a
000002a0: d67b 933c 21f7 cfbb 5b9b 433f a6a2 69bc
000002b0: 4592 f4bb 9947 43bc cfc3 c8bb 602f b23b
000002c0: b119 453f a0d3 923c a550 9c3c 15bd b9bb
000002d0: a5ad 453f 2192 813b 7376 3dbc 2d8e 493c
000002e0: 65b0 863c c1ae 16bc 97d0 463f ab0c 05bb
000002f0: d3fb 07bb 9301 7fbc 8dad e23b b25f 143c
00000300: 28d6 143c bb0e 89bc 0b85 a63c 8f07 e03b
00000310: 65e1 743c a2c7 6eba a142 443c 49c7 473a
00000320: 3e6d b33a 2241 57bc 9c80 8fb9 5dfa 3fbc
00000330: ddd9 3f3f b890 f9bb af9f 63bc f627 523c
00000340: 35ca 3f3f 2dd6 453f 6d97 15bc 0af8 cdba
00000350: 54b9 f73b 9a8b 153c e784 98bc 2a6f 153c
00000360: 63d2 983b 2c78 b4bb 314c 663b 38e8 f83b
00000370: 3d78 473f d759 7f3c fb87 813b bed0 4b3b
00000380: 51e6 ea3b 755e 4f3b 3b72 d3bb a0b0 133b
00000390: 5f39 833c 13c8 183c 0a87 3b3c 4fb0 35bc
000003a0: f810 c53b 178d 923c 2665 483c 21c3 603c
000003b0: 774e 063c e8cf 7d3c 8b16 423f a990 3e3f
000003c0: b367 403f d56c 3f3f f96c 7fbc 5913 213c
000003d0: e709 13bc bdf6 353b ffd8 f5bb d5fa 4a3c
000003e0: 9a7e 343c 2ef7 7fbc becd 74bc de40 eb39
000003f0: dc11 10ba a2cd 97bb d7a4 feba e91f 8ebb

layers.0.bias f4 [32]
0.7475831 -0.032711506 0.71899295 0.76257545 0.7910877 0.7568316 -0.050261103 -0.012759343
-0.04412817 -0.03336116 -0.041981183 0.7532101 0.81086355 0.7381554 -0.046581853 0.75644374
0.7396307 0.7759451 -0.02853599 -0.014101533 0.828916 -0.03781672 -0.010534523 -0.015852615
-0.035231605 -0.013021899 -0.013353465 -0.040924218 0.745125 0.726072 0.7288145 0.7666231
00000000: 9b61 3f3f 80fc 05bd ec0f 383f 2538 433f
00000010: b984 4a3f b7bf 413f 96de 4dbd 900c 51bc
00000020: bdbf 34bd b6a5 08bd 76f4 2bbd 61d2 403f
00000030: c194 4f3f c1f7 3c3f 9dcc 3ebd 4ca6 413f
00000040: 7058 3d3f 57a4 463f 4fc4 e9bc 1e0a 67bc
00000050: d733 543f b4e5 1abd fe98 2cbc 58dd 81bc
00000060: 044f 10bd ce59 55bc 7ec8 5abc 27a0 27bd
00000070: 83c0 3e3f dbdf 393f 9693 3a3f 6941 443f

layers.2.weight f4 [1, 32]
-0.26369748 0.06470846 -0.25720832 -0.2639373 -0.2699239 -0.29115516 0.0905195 -0.0045166146
-0.02671551 0.066627815 -0.013419911 -0.3142245 -0.2857855 -0.25825742 0.052243307 -0.2663035
-0.2626834 -0.26661503 0.11230109 0.04616175 -0.28596538 0.0016820909 0.028411932 -0.026561597
-0.010228125 0.05572142 0.049610414 0.06071976 -0.25968358 -0.29102948 -0.30937457 -0.3131632
00000000: 5b03 87be de85 843d cfb0 83be ca22 87be
00000010: 7733 8abe 4a12 95be 4a62 b93d 1c00 94bb
00000020: 7cda dabc 2a74 883d 30df 5bbc 09e2 a0be
00000030: 7a52 92be 513a 84be 14fd 553d ef58 88be
00000040: 707e 86be c481 88be 1dfe e53d 1a14 3d3d
00000050: 0e6a 92be 9b79 dc3a 24c0 e83c b597 d9bc
00000060: de93 27bc 253c 643d 4a34 4b3d 48b5 783d
00000070: 3ff5 84be d101 95be 5866 9ebe ed56 a0be
