GraphClustering/GraphsLarge/Weights/Karate_0_500_1000_o_Forward150.pt (torch, 298089 bytes, 3 tensors)

layers.0.weight f4 [32, 2312]
00000000: ef04 3ebc 3c36 1f3f fc98 233f da5a 283f
00000010: 7644 223f 2257 203f 7074 1f3f e2e5 263f
00000020: 706e 223f 837f f73a ac80 243f 0683 243f
00000030: 963d 253f 12d5 233f c114 523b 6e29 5b3b
00000040: a36f bf3b 2cbf 1e3f 2845 88bc 129e 1f3f
00000050: 6031 d1bb 2ce6 223f e145 073c 5fc8 073c
00000060: 9517 01bc 999a 763c 7f47 573c 5f77 6f3b
00000070: a76b 9f3c ff99 023c 058b 153c a61d 253f
00000080: 499b 0dbc 50dd 913c 368c 223f 0d5e 0e3c
00000090: 4667 243f e8a2 253f 18c7 96bc d1b6 bd3b
000000a0: 3c11 fcbb 2685 253f 0546 e2ba d18f 803c
000000b0: 13f9 2c3c f368 2e3c a6f5 633b fab1 283f
000000c0: 38b1 47bc cc36 96bb 5e89 823a a2a3 253f
000000d0: 7dcb 913c 14bc 203f e4da 683c ecb6 213f
000000e0: 8f06 eabb ae62 b9bb 4a06 c739 b8c7 02bc
000000f0: e233 363c 3a4f dd3a e8f3 a0bc 9ddb 643c
00000100: 7a4b 253f b763 ec3b e78c 533c cf5c 02bc
00000110: 7e1a 203f ba5b 243f a870 3c3b 48b4 283f
00000120: a5c5 143c a925 313c a9e2 0a3c 6a30 233f
00000130: fef2 243f ae58 203f bdf4 833b e3be 0c3c
00000140: 526a a1bb 6aeb 273f f845 fd3b a56f 8cbc
00000150: 8da5 9cbc ccec 933c 3f27 22bc ae8a 8dbc
00000160: 6f19 143c 0dd4 1dbc 4e05 8ebc 4dca a03c
00000170: 7b07 263c 0b71 1d3c 3c37 f8bb 32af 1e3f
00000180: eab8 233f b8c2 853c 5c62 9bbc 982f 9bbc
00000190: 6216 203f 5248 1f3c dcde 223f de68 263f
000001a0: 5840 203f 4218 a4bc 2ce2 283c e1ad ffbb
000001b0: fbf9 89bb 2429 1f3f b792 35bc 22c8 a53c
000001c0: 5d58 1ebc 7e63 6dbc 6879 223f 98f0 263f
000001d0: 381c 4a3c 54ef a7bc 9dbb ce3b 9f5d 9dbc
000001e0: f5d8 96bc b02e cf3b 6639 e8bb 0d9c 8d3c
000001f0: 275b c23b 0910 6b3c adc1 963c 807b 7f3c
00000200: e773 eb3b e36e 8f3c 77b7 0dbc a980 70bc
00000210: 9b2c 7dbc 7ca1 5cbc ac00 243b 82fb e7bb
00000220: 64e6 1e3f c99d 86bc 93e6 833c eadf 8dba
00000230: 9e60 833b 1f83 723c 4839 293f a8e2 5f3c
00000240: 7d16 343c 8f10 e1bb 66e6 243f edd2 15bc
00000250: 942f 693c dbc2 0b3b deff 113c c6c1 113a
00000260: bb55 563c 3cd5 7b3c 18e8 bcbb f461 473c
00000270: c7e3 c43b a50c 073c 4921 a93c 0621 843c
00000280: 5bdb a5bc 4dc8 05bc 7d3f 74bc 882a a93c
00000290: e1d2 5c3c 1df5 91bc 72a3 0fbc 1cac 5e3c
000002a0: 0e65 283b 0d7d 85bc 08c2 273f 27c3 603c
000002b0: 899b 5cbc f111 d93b 99d4 983c e38d 903c
000002c0: 6a51 253f 528c 7e3c bdc3 4939 ace3 f43a
000002d0: 90be 223f 906d 91bc 101a 663c 8cdf 06bc
000002e0: 763e a83c 0f32 9f3c fa18 233f 5696 a33c
000002f0: 2b7d 1fbc ad9e 893c d894 f2bb 3d48 37bc
00000300: 3449 cc3b 95aa 4b3c 6ab7 513b 7f70 963c
00000310: 58bd 6abb 449d 9cbb b793 46bc 6bbc a1bc
00000320: 473f 5ebc e56b 58bc a09a 553c 4fa2 4cbc
00000330: 78f5 283f dc3b 7fbc abfa 98bc 3d0d 0fbc
00000340: 0483 1f3f b005 283f 9cc0 c7bb e7dc a3b9
00000350: a3c5 a3bc 3f68 40bc 6c5f 183c e5f6 8cbc
00000360: 92a9 8f3c c925 ccbb bfe4 993a f22c 90bc
00000370: 4aa2 213f 3d30 883c 65e4 dbbb ba59 813c
00000380: 6034 c4ba 05b2 a3bc d974 523c 5970 bb3a
00000390: a5ac 9ebc e7ae cf3b b9f9 883c 5eb2 013b
000003a0: 6b58 73bc a890 e93b 2fcd 65bc 9178 8abc
000003b0: fce0 b23a 0814 833c 3cae 213f f8b5 213f
000003c0: 9c74 263f 7a46 293f d384 8a3b c5cb a2bc
000003d0: 531c 893c 02d2 37bc 1780 9e3c f5dc 913b
000003e0: 5e8b 94bc c451 b03b 9418 2c3a ee2f 8a3c
000003f0: 13a5 9e3b 0183 95bb f528 16bc 8731 17bc
-0.011597856 0.6219213 0.6390531 0.6576363 0.63385713 0.62632954 0.62287045 0.65194523
0.63449764 0.0018882606 0.6425884 0.64262426 0.645471 0.63996994 0.0032055827 0.0033441442
0.0058421656 0.62010455 -0.016634539 0.6235057 -0.00638406 0.63632464 0.0082564065 0.008287518
-0.007879158 0.015051507 0.013139605 0.0036539657 0.019460512 0.007971286 0.009127383 0.64498365
-0.00864298 0.017805725 0.63495195 0.008689416 0.6422008 0.647017 -0.018405482 0.0057896157
-0.007692484 0.64656293 -0.0017263299 0.015693577 0.010557431 0.010645139 0.003478387 0.6589657
-0.012188248 -0.004584169 0.0009959152 0.6470281 0.017797226 0.62786984 0.014212344 0.6316974
-0.007141895 -0.0056575155 0.00037960924 -0.007982187 0.011120768 0.0016884573 -0.019647554 0.0139683755
0.64568293 0.0072140354 0.012912012 -0.007956698 0.62540424 0.64202464 0.0028753672 0.6590009
0.009080325 0.010812202 0.008476892 0.6374575 0.64433277 0.62635314 0.004026978 0.008590433
-0.0049260044 0.6559359 0.007729288 -0.01714308 -0.01912191 0.01805725 -0.009897052 -0.017278042
0.009039267 -0.009633076 -0.017336514 0.019627715 0.010133619 0.009609471 -0.007574944 0.61986077
0.6395403 0.0163282 -0.0189678 -0.018943593 0.62534153 0.009721832 0.63621306 0.65003765
0.6259818 -0.020031098 0.01030783 -0.0078027104 -0.004210708 0.6217215 -0.011082343 0.020237032
-0.009664622 -0.014489053 0.634665 0.65210867 0.012335829 -0.020499863 0.0063089863 -0.019209681
-0.018414 0.0063227043 -0.0070869206 0.017286325 0.0059312764 0.014347085 0.018402899 0.01559341
0.0071854475 0.01750893 -0.008649698 -0.0146791125 -0.015452529 -0.013466235 0.0025024815 -0.0070795426
0.620703 -0.01643266 0.016101157 -0.0010824178 0.0040093204 0.0148017695 0.6610303 0.013664879
0.01099169 -0.006868429 0.6441406 -0.009144527 0.014232535 0.002132586 0.008911101 0.00055601855
0.013081963 0.015370663 -0.0057649724 0.01216935 0.0060085985 0.008242761 0.020645754 0.016129028
-0.020246198 -0.008165431 -0.014907715 0.020650163 0.013478012 -0.017817074 -0.008766996 0.013590839
0.0025695 -0.01629498 0.65530443 0.013718403 -0.013464817 0.0066244532 0.018656062 0.017645782
0.64577353 0.015536385 0.00019241772 0.0018683574 0.63572025 -0.017752439 0.0140443 -0.008232009
0.020537596 0.01943305 0.63709986 0.019969147 -0.009734432 0.016799295 -0.0074029975 -0.011186657
0.0062343124 0.012430807 0.0032000192 0.01836419 -0.0035818424 -0.0047794897 -0.012120179 -0.019743165
-0.013564891 -0.013209318 0.013037354 -0.012489869 0.65999556 -0.015578236 -0.018674215 -0.008731184
0.6230929 0.6563368 -0.006095959 -0.00031254368 -0.019991701 -0.011743604 0.009300094 -0.017207572
0.017536912 -0.0062300903 0.0011741145 -0.017599557 0.6313826 0.016624564 -0.0067105764 0.015789855
-0.0014969222 -0.019982347 0.012845241 0.001430045 -0.019369433 0.0063379887 0.01672064 0.0019790153
-0.014852623 0.00712784 -0.01402597 -0.016903194 0.0013647373 0.016000763 0.63156486 0.6316829
0.6502168 0.66123164 0.0042272597 -0.019872556 0.016737139 -0.011219503 0.019348187 0.004451389
-0.018132862 0.005380841 0.0006564942 0.016868558 0.0048414557 -0.004562736 -0.009165038 -0.009228117

layers.0.bias f4 [32]
00000000: 9e1b 273f b08a 113f 5d8f 113f 2d03 113f
00000010: e1ab 0d3f 7972 1a3f a39e e23e 8047 1b3f
00000020: 4d26 153f 098f 113f cbb2 0ebd 591c d3bc
00000030: 9831 243f cd4f 133f 903a 0e3f 2173 1b3f
00000040: 2420 b8bc 6dab b63e 9225 163f db62 163f
00000050: 8fb3 26bd 6f76 1dbd de90 94bc 263e e9bc
00000060: d431 133f 9152 183f d00f 163f 7c8a 0b3f
00000070: 4bb0 0c3f 6b96 e9bc 2d60 283f 2538 ffbc
0.65276515 0.56852245 0.5685938 0.5664547 0.5534039 0.6033092 0.44261655 0.60655975
0.5826157 0.5685888 -0.03483848 -0.025770353 0.64138174 0.5754364 0.5555811 0.6072255
-0.022476263 0.35677662 0.5865108 0.5874459 -0.040698584 -0.038443025 -0.018135484 -0.028472017
0.57497907 0.59500986 0.5861788 0.54508185 0.549565 -0.028514108 0.6577175 -0.031154701

layers.2.weight f4 [1, 32]
00000000: 418f 5dbe fc69 72be 9332 a3be 0f15 89be
00000010: 4170 81be 849c 4ebe 618d aebe caac 3dbe
00000020: ec28 86be e34a 89be 5002 c4bb 74bf bcb9
00000030: af09 4ebe 126b 9bbe 13d5 70be 3d63 3abe
00000040: 8158 e23d 4c45 a4be 280f 74be 5303 51be
00000050: 76e5 2c3d 98b7 de3d e118 133e 4e0d 953a
00000060: fdc7 87be 46a4 51be c3e3 69be faca 41be
00000070: 2fce 96be de3e 123e 3143 63be 9f57 093d
-0.21636678 -0.23673242 -0.31874523 -0.2677388 -0.25280955 -0.20176893 -0.3409224 -0.18522945
-0.26203096 -0.26814947 -0.005981721 -0.00036000798 -0.20120881 -0.30355126 -0.23518781 -0.18201919
0.11052037 -0.3208412 -0.23833907 -0.20411424 0.04221102 0.108748615 0.1436496 0.0011371763
-0.26519766 -0.20472822 -0.2284079 -0.18925086 -0.2945418 0.14281794 -0.221936 0.033530828
