GraphClustering/GraphsLarge/Weights/Karate_0_500_1000_o_Forward80.pt (torch, 298083 bytes, 3 tensors)

layers.0.weight f4 [32, 2312]
000000 ef 04 3e bc 23 6a fd 3e d3 17 03 3f b1 d9 07 3f
       -0.011597856 0.49495038 0.5120823 0.53066546
000010 4d c3 01 3f ee ab ff 3e 87 e6 fd 3e b9 64 06 3f
       0.5068863 0.4993586 0.4958994 0.5249744
000020 47 ed 01 3f 83 7f f7 3a 83 ff 03 3f dd 01 04 3f
       0.5075268 0.0018882606 0.51561755 0.51565343
000030 6d bc 04 3f e9 53 03 3f c1 14 52 3b 6e 29 5b 3b
       0.51850015 0.5129991 0.0032055827 0.0033441442
000040 a3 6f bf 3b f9 7b fc 3e 28 45 88 bc cf 39 fe 3e
       0.0058421656 0.49313334 -0.016634539 0.4965348
000050 60 31 d1 bb 02 65 02 3f e1 45 07 3c 5f c8 07 3c
       -0.00638406 0.50935376 0.0082564065 0.008287518
000060 95 17 01 bc 99 9a 76 3c 7f 47 57 3c 5f 77 6f 3b
       -0.007879158 0.015051507 0.013139605 0.0036539657
000070 a7 6b 9f 3c ff 99 02 3c 05 8b 15 3c 7c 9c 04 3f
       0.019460512 0.007971286 0.009127383 0.51801276
000080 49 9b 0d bc 50 dd 91 3c 0c 0b 02 3f 0d 5e 0e 3c
       -0.00864298 0.017805725 0.50798106 0.008689416
000090 1c e6 03 3f bf 21 05 3f 18 c7 96 bc d1 b6 bd 3b
       0.51522994 0.5200462 -0.018405482 0.0057896157
0000a0 3c 11 fc bb fc 03 05 3f 05 46 e2 ba d1 8f 80 3c
       -0.007692484 0.51959205 -0.0017263299 0.015693577
0000b0 13 f9 2c 3c f3 68 2e 3c a6 f5 63 3b d1 30 08 3f
       0.010557431 0.010645139 0.003478387 0.5319949
0000c0 38 b1 47 bc cc 36 96 bb 5e 89 82 3a 79 22 05 3f
       -0.012188248 -0.004584169 0.0009959152 0.52005726
0000d0 7d cb 91 3c ea 3a 00 3f e4 da 68 3c c2 35 01 3f
       0.017797226 0.50089896 0.014212344 0.5047265
0000e0 8f 06 ea bb ae 62 b9 bb 4a 06 c7 39 b8 c7 02 bc
       -0.007141895 -0.0056575155 0.00037960924 -0.007982187
0000f0 e2 33 36 3c 3a 4f dd 3a e8 f3 a0 bc 9d db 64 3c
       0.011120768 0.0016884573 -0.019647554 0.0139683755
000100 50 ca 04 3f b7 63 ec 3b e7 8c 53 3c cf 5c 02 bc
       0.51871204 0.0072140354 0.012912012 -0.007956698
000110 a7 32 ff 3e 91 da 03 3f a8 70 3c 3b 1f 33 08 3f
       0.49843332 0.5150538 0.0028753672 0.53203005
000120 a5 c5 14 3c a9 25 31 3c a9 e2 0a 3c 40 af 02 3f
       0.009080325 0.010812202 0.008476892 0.5104866
000130 d4 71 04 3f 06 af ff 3e bd f4 83 3b e3 be 0c 3c
       0.5173619 0.4993822 0.004026978 0.008590433
000140 52 6a a1 bb 41 6a 07 3f f8 45 fd 3b a5 6f 8c bc
       -0.0049260044 0.52896506 0.007729288 -0.01714308
000150 8d a5 9c bc cc ec 93 3c 3f 27 22 bc ae 8a 8d bc
       -0.01912191 0.01805725 -0.009897052 -0.017278042
000160 6f 19 14 3c 0d d4 1d bc 4e 05 8e bc 4d ca a0 3c
       0.009039267 -0.009633076 -0.017336514 0.019627715
000170 7b 07 26 3c 0b 71 1d 3c 3c 37 f8 bb 05 5c fc 3e
       0.010133619 0.009609471 -0.007574944 0.49288955
000180 c0 37 03 3f b8 c2 85 3c 5c 62 9b bc 98 2f 9b bc
       0.5125694 0.0163282 -0.0189678 -0.018943593
000190 73 2a ff 3e 52 48 1f 3c b2 5d 02 3f b4 e7 05 3f
       0.49837074 0.009721832 0.5092422 0.52306676
0001a0 5b 7e ff 3e 42 18 a4 bc 2c e2 28 3c e1 ad ff bb
       0.4990109 -0.020031098 0.01030783 -0.0078027104
0001b0 fb f9 89 bb f5 4f fd 3e b7 92 35 bc 22 c8 a5 3c
       -0.004210708 0.49475065 -0.011082343 0.020237032
0001c0 5d 58 1e bc 7e 63 6d bc 3f f8 01 3f 6f 6f 06 3f
       -0.009664622 -0.014489053 0.5076942 0.52513784
0001d0 38 1c 4a 3c 54 ef a7 bc 9d bb ce 3b 9f 5d 9d bc
       0.012335829 -0.020499863 0.0063089863 -0.019209681
0001e0 f5 d8 96 bc b0 2e cf 3b 66 39 e8 bb 0d 9c 8d 3c
       -0.018414 0.0063227043 -0.0070869206 0.017286325
0001f0 27 5b c2 3b 09 10 6b 3c ad c1 96 3c 80 7b 7f 3c
       0.0059312764 0.014347085 0.018402899 0.01559341
000200 e7 73 eb 3b e3 6e 8f 3c 77 b7 0d bc a9 80 70 bc
       0.0071854475 0.01750893 -0.008649698 -0.0146791125
000210 9b 2c 7d bc 7c a1 5c bc ac 00 24 3b 82 fb e7 bb
       -0.015452529 -0.013466235 0.0025024815 -0.0070795426
000220 69 ca fc 3e c9 9d 86 bc 93 e6 83 3c ea df 8d ba
       0.49373177 -0.01643266 0.016101157 -0.0010824178
000230 9e 60 83 3b 1f 83 72 3c 1f b8 08 3f a8 e2 5f 3c
       0.0040093204 0.0148017695 0.53405946 0.013664879
000240 7d 16 34 3c 8f 10 e1 bb 3d 65 04 3f ed d2 15 bc
       0.01099169 -0.006868429 0.5171698 -0.009144527
000250 94 2f 69 3c db c2 0b 3b de ff 11 3c c6 c1 11 3a
       0.014232535 0.002132586 0.008911101 0.00055601855
000260 bb 55 56 3c 3c d5 7b 3c 18 e8 bc bb f4 61 47 3c
       0.013081963 0.015370663 -0.0057649724 0.01216935
000270 c7 e3 c4 3b a5 0c 07 3c 49 21 a9 3c 06 21 84 3c
       0.0060085985 0.008242761 0.020645754 0.016129028
000280 5b db a5 bc 4d c8 05 bc 7d 3f 74 bc 88 2a a9 3c
       -0.020246198 -0.008165431 -0.014907715 0.020650163
000290 e1 d2 5c 3c 1d f5 91 bc 72 a3 0f bc 1c ac 5e 3c
       0.013478012 -0.017817074 -0.008766996 0.013590839
0002a0 0e 65 28 3b 0d 7d 85 bc df 40 07 3f 27 c3 60 3c
       0.0025695 -0.01629498 0.5283336 0.013718403
0002b0 89 9b 5c bc f1 11 d9 3b 99 d4 98 3c e3 8d 90 3c
       -0.013464817 0.0066244532 0.018656062 0.017645782
0002c0 41 d0 04 3f 52 8c 7e 3c bd c3 49 39 ac e3 f4 3a
       0.5188027 0.015536385 0.00019241772 0.0018683574
0002d0 66 3d 02 3f 90 6d 91 bc 10 1a 66 3c 8c df 06 bc
       0.50874937 -0.017752439 0.0140443 -0.008232009
0002e0 76 3e a8 3c 0f 32 9f 3c d1 97 02 3f 56 96 a3 3c
       0.020537596 0.01943305 0.51012903 0.019969147
0002f0 2b 7d 1f bc ad 9e 89 3c d8 94 f2 bb 3d 48 37 bc
       -0.009734432 0.016799295 -0.0074029975 -0.011186657
000300 34 49 cc 3b 95 aa 4b 3c 6a b7 51 3b 7f 70 96 3c
       0.0062343124 0.012430807 0.0032000192 0.01836419
000310 58 bd 6a bb 44 9d 9c bb b7 93 46 bc 6b bc a1 bc
       -0.0035818424 -0.0047794897 -0.012120179 -0.019743165
000320 47 3f 5e bc e5 6b 58 bc a0 9a 55 3c 4f a2 4c bc
       -0.013564891 -0.013209318 0.013037354 -0.012489869
000330 4f 74 08 3f dc 3b 7f bc ab fa 98 bc 3d 0d 0f bc
       0.5330247 -0.015578236 -0.018674215 -0.008731184
000340 af 03 fe 3e 87 84 07 3f 9c c0 c7 bb e7 dc a3 b9
       0.49612185 0.52936596 -0.006095959 -0.00031254368
000350 a3 c5 a3 bc 3f 68 40 bc 6c 5f 18 3c e5 f6 8c bc
       -0.019991701 -0.011743604 0.009300094 -0.017207572
000360 92 a9 8f 3c c9 25 cc bb bf e4 99 3a f2 2c 90 bc
       0.017536912 -0.0062300903 0.0011741145 -0.017599557
000370 20 21 01 3f 3d 30 88 3c 65 e4 db bb ba 59 81 3c
       0.5044117 0.016624564 -0.0067105764 0.015789855
000380 60 34 c4 ba 05 b2 a3 bc d9 74 52 3c 59 70 bb 3a
       -0.0014969222 -0.019982347 0.012845241 0.001430045
000390 a5 ac 9e bc e7 ae cf 3b b9 f9 88 3c 5e b2 01 3b
       -0.019369433 0.0063379887 0.01672064 0.0019790153
0003a0 6b 58 73 bc a8 90 e9 3b 2f cd 65 bc 91 78 8a bc
       -0.014852623 0.00712784 -0.01402597 -0.016903194
0003b0 fc e0 b2 3a 08 14 83 3c 12 2d 01 3f ce 34 01 3f
       0.0013647373 0.016000763 0.50459397 0.504712
0003c0 72 f3 05 3f 51 c5 08 3f d3 84 8a 3b c5 cb a2 bc
       0.52324593 0.5342608 0.0042272597 -0.019872556
0003d0 53 1c 89 3c 02 d2 37 bc 17 80 9e 3c f5 dc 91 3b
       0.016737139 -0.011219503 0.019348187 0.004451389
0003e0 5e 8b 94 bc c4 51 b0 3b 94 18 2c 3a ee 2f 8a 3c
       -0.018132862 0.005380841 0.0006564942 0.016868558
0003f0 13 a5 9e 3b 01 83 95 bb f5 28 16 bc 87 31 17 bc
       0.0048414557 -0.004562736 -0.009165038 -0.009228117

layers.0.bias f4 [32]
000000 75 9a 06 3f fa bf de 3e 3e 79 d6 3e e7 0b da 3e
       0.5257943 0.43505841 0.41889375 0.42587206
000010 8f 15 d5 3e 7c 4e f5 3e 37 98 db 3e 8f 8e f9 3e
       0.4161801 0.4791144 0.42889568 0.48741576
000020 cb ea e2 3e 3e 19 db 3e cb b2 0e bd 59 1c d3 bc
       0.44319758 0.42792696 -0.03483848 -0.025770353
000030 b3 e2 04 3f cb 44 db 3e 77 36 d8 3e e8 b6 fa 3e
       0.51908416 0.42825922 0.42229053 0.4896767
000040 24 20 b8 bc cd 89 bd 3e 8f b6 e7 3e fb e2 ec 3e
       -0.022476263 0.37019196 0.4525647 0.46266922
000050 8f b3 26 bd 6f 76 1d bd de 90 94 bc 26 3e e9 bc
       -0.040698584 -0.038443025 -0.018135484 -0.028472017
000060 76 d2 de 3e 67 a4 f0 3e 11 cc e8 3e 98 fc d8 3e
       0.43519944 0.4700043 0.4546819 0.42380214
000070 fc e1 ce 3e 6b 96 e9 bc ed a8 07 3f 25 38 ff bc
       0.40406787 -0.028514108 0.52992135 -0.031154701

layers.2.weight f4 [1, 32]
000000 a0 59 86 be 1f ca a1 be 70 e4 bf be aa 36 aa be
       -0.26240253 -0.3159952 -0.3747897 -0.3324483
000010 fd 5d a7 be 10 4b 90 be 88 c0 c4 be a7 f7 8c be
       -0.32688895 -0.28182268 -0.3842814 -0.27532694
000020 85 ab a8 be c7 99 aa be 50 02 c4 bb 74 bf bc b9
       -0.3294336 -0.33320448 -0.005981721 -0.00036000798
000030 dd f8 83 be 92 b4 b9 be 76 67 9c be b7 a9 83 be
       -0.25775805 -0.36270577 -0.30547684 -0.2571542
000040 81 58 e2 3d d3 3a a8 be 40 94 9d be e0 47 8f be
       0.11052037 -0.3285738 -0.30777168 -0.27984524
000050 76 e5 2c 3d 98 b7 de 3d e1 18 13 3e 4e 0d 95 3a
       0.04221102 0.108748615 0.1436496 0.0011371763
000060 87 57 ad be 2d cf 92 be f4 35 9a be 7c a3 97 be
       -0.3385584 -0.28673688 -0.30119288 -0.29616916
000070 ed e7 b6 be de 3e 12 3e 59 96 86 be 9f 57 09 3d
       -0.3572382 0.14281794 -0.2628658 0.033530828
