GraphClustering/GraphsLarge/Weights/Karate_0_100_1000_Forward20.pt (torch, 298071 bytes, 3 tensors)

layers.0.weight f4 [32, 2312]
000000 66 d8 7f 3c f3 ca cd bc 50 f4 9a bc 74 25 cb bc
       0.015615558 -0.025121188 -0.018915325 -0.024798132
000010 25 be d9 bc 2f 36 1e bd 6f 1f 2c bc eb 5e 2c bc
       -0.026579926 -0.038625892 -0.010505541 -0.010520677
000020 8c 91 f3 bc a4 e9 bb bb 55 3b 08 bd 27 f1 1f bd
       -0.029732488 -0.0057346392 -0.03325971 -0.03904834
000030 e9 40 0a bd 31 02 d8 bc 1f a3 e0 bb b7 6a 59 bc
       -0.03375331 -0.026368232 -0.006855383 -0.013270072
000040 0f e3 57 3c a9 bd 0e bd 19 b0 3c bc cc 62 ed bc
       0.013176694 -0.034848843 -0.011516594 -0.028977774
000050 05 aa ab 3a c8 d4 a4 bc 9b be 3f bc 59 65 51 3c
       0.0013096934 -0.020120993 -0.011703159 0.012780511
000060 be 00 c3 3b e8 cf 16 3c 61 dd 8d bb 92 b0 bb 3b
       0.005951016 0.009204842 -0.004329369 0.005727836
000070 2b a7 2f 3a ff 74 73 3c 74 7b 4b bc fb 9f ab bc
       0.000670063 0.014859437 -0.01241957 -0.020950308
000080 aa cb 03 3c b3 6e bf bb f2 5e 41 bd 4a 36 5d 3c
       0.008044163 -0.005842054 -0.047209688 0.013501713
000090 cc fb 17 bc 47 f0 58 bc b0 a5 ac 3b 76 98 ac 3b
       -0.009276342 -0.01324088 0.005268775 0.005267198
0000a0 dc 8c 9a bc 37 06 de bc 6b 87 7a bb 12 7e 0c bb
       -0.018865995 -0.027102573 -0.0038227688 -0.0021437448
0000b0 d4 a9 75 bc 3d 91 a0 bb 37 3c 24 bc dc 03 2d bd
       -0.014994103 -0.0049001263 -0.010024122 -0.04224001
0000c0 80 0d 51 3c c9 ea 00 bc 71 68 68 bc e6 7a ab bc
       0.012759566 -0.007868477 -0.014185057 -0.020932626
0000d0 9d b4 70 3a 5f 35 29 bc 27 72 bc ba 4c f3 47 bc
       0.0009182187 -0.010327666 -0.0014377282 -0.012204003
0000e0 0e 0c 74 bc 85 38 18 3c f1 48 b1 b9 0e 79 fc 3a
       -0.014895452 0.009290819 -0.00033814416 0.0019262151
0000f0 63 45 01 3c 8b 20 bc 3a 2f 71 1b 3b 83 b4 8a 3b
       0.007890078 0.001435296 0.0023718586 0.0042329445
000100 40 72 ee bc 25 50 c3 bb 7a a7 96 bc 2e 8f 0a 3c
       -0.029107213 -0.0059604817 -0.018390406 0.008456988
000110 fd ba fd bc 98 92 44 bd 95 e3 9f 3a ac 88 38 bd
       -0.030972952 -0.047991365 0.0012198562 -0.045052215
000120 f2 83 95 bc 1b e5 5e 3c 30 95 a2 bc 37 4f 95 bc
       -0.018251393 0.013604428 -0.019846529 -0.01822625
000130 1f 5f 36 bc c3 ec df bc a6 01 34 bb dd 57 36 3c
       -0.011131077 -0.027334576 -0.0027466803 0.011129347
000140 0b 00 5e bb ec 11 38 bd 8f 8c 9d 3b 24 71 a6 bc
       -0.0033874537 -0.044938967 0.0048080157 -0.020317622
000150 39 91 3f 3c bd e4 8b 3c 03 df ee 3b 9e c3 04 bc
       0.011692339 0.017076844 0.0072897687 -0.008103279
000160 8c f0 44 3a cc a9 da 3b 9f 77 11 bc 61 6e 5d 3b
       0.0007512651 0.0066730734 -0.008878618 0.0033787715
000170 0d c0 1f 3c 08 3e 79 bb c1 60 7a bc 64 1d a9 bc
       0.009750378 -0.0038031358 -0.015281857 -0.020643897
000180 37 f2 2a bc ef 93 7f bc 0b fa 78 bc 0e 67 59 3c
       -0.010433725 -0.015599235 -0.015196334 0.013269199
000190 48 5c 36 bd df 76 3b 3c 54 cc 45 bd a4 5c 3c bd
       -0.0445216 0.011441915 -0.048290566 -0.045986786
0001a0 e0 f0 6f bc 53 2b 2b b9 87 16 b1 3b e2 4e 2d bc
       -0.014644831 -0.0001632397 0.005404297 -0.010577889
0001b0 a0 3c 7e 3c 8e 4c 3b bd a0 7d c0 bb 80 5a aa 3b
       0.015517384 -0.045727305 -0.0058743507 0.0051987767
0001c0 a7 cd aa ba e5 41 4a bb f0 ed 29 bd eb 0e 93 bc
       -0.001303126 -0.003086203 -0.04148668 -0.01795145
0001d0 98 c5 fb bb 89 1f 6f 3c a6 66 41 3c f0 5b 56 3c
       -0.007683467 0.014594921 0.011804258 0.013083443
0001e0 db 85 87 3c 7f 0d 63 bc 6b dc 97 bb d3 05 c8 bb
       0.01654332 -0.013858198 -0.00463443 -0.00610421
0001f0 f3 cf 90 bc f9 cd 34 bc 95 6c 27 bc 54 0b 8d 3b
       -0.017677283 -0.011035436 -0.010218759 0.004304329
000200 4b f2 74 bc 76 2a e6 bb 20 b8 95 3c 4d 93 8c 3c
       -0.014950345 -0.0070241047 0.018276274 0.017160082
000210 15 1c ea bb 5d b5 79 bb 1d d7 7a 3b b0 62 85 ba
       -0.007144461 -0.0038102486 0.003827519 -0.0010176506
000220 60 b4 49 bd 0a 5c 86 3c da 28 6c bc c9 42 97 bc
       -0.049244285 0.01640131 -0.014414037 -0.018464463
000230 db 31 54 3c 9a b3 8c ba 52 c3 4a bd 11 ba 67 bc
       0.01295134 -0.0010734678 -0.04950268 -0.014143483
000240 ce 59 61 3c 5c 5f 31 bc 91 fd 93 bc 53 da a2 bc
       0.013754321 -0.010825958 -0.018065246 -0.019879496
000250 fb 54 4b bc 21 f9 9e 3c d7 15 9f 3c da 23 80 3c
       -0.012410398 0.019405903 0.019419594 0.015642095
000260 eb d7 6b bc 67 ee 9e 3c b8 91 76 3c c6 9e 7d bc
       -0.014394741 0.019400788 0.0150493905 -0.015479749
000270 9a 86 98 3b 7f 73 81 bb ec cd 0f bc f9 ef 13 3c
       0.0046547176 -0.003950536 -0.008777123 0.009029382
000280 80 82 11 bc c0 e4 c8 3b b1 cf ba 3b f3 82 65 bc
       -0.008881211 0.0061307847 0.0057010283 -0.0140082715
000290 78 3c 6e bc 63 0a 47 3c a8 57 3c bb 08 1b c6 bb
       -0.014540784 0.0121484725 -0.002873877 -0.006045703
0002a0 97 a5 85 bc 0e 33 e8 bb de dd 23 bd e7 bf 6a bc
       -0.016314311 -0.0070861643 -0.04000651 -0.01432798
0002b0 9b 1b dd 3b ab 46 1f 3c f2 af 12 bb de e1 27 bb
       0.0067476756 0.009721438 -0.0022382704 -0.0025616805
0002c0 c6 ed 71 bc 05 a0 7d bc 42 97 5d 3c b6 18 67 bc
       -0.014766162 -0.015480046 0.013524832 -0.014105013
0002d0 bc 43 28 bd fd 09 9e 3c cf fd 07 3c 08 ba 94 bc
       -0.04108022 0.019291872 0.008300259 -0.018155113
0002e0 0a d8 68 3c 45 d0 51 3c 3f 59 2e bc 74 ac 94 3c
       0.014211664 0.012806003 -0.010641395 0.018148638
0002f0 ff 51 8d ba cd c3 39 3c 2b d3 74 bc 13 bd 87 3c
       -0.0010781883 0.011338186 -0.0149429245 0.01656965
000300 1b 20 06 3b 52 ca 9e bc b1 72 00 bc 41 e3 25 bb
       0.0020465914 -0.019383583 -0.007839845 -0.0025312456
000310 dc f5 88 3c 0a 11 37 bc 66 a5 97 3c 87 4a 97 bc
       0.016718797 -0.011173496 0.018511485 -0.018468155
000320 ee f6 2e bc a6 ff 87 bb 99 f5 e4 3b 34 66 9e 3c
       -0.01067899 -0.0041503487 0.0069872853 0.019335844
000330 7c 7f 26 bd 58 78 6e bc fb 72 a5 bc ab df d9 3a
       -0.040648922 -0.014555059 -0.020196429 0.0016622444
000340 18 f7 49 bd d6 c1 b0 bc 8e 07 93 bc 42 0d 63 3c
       -0.049307913 -0.021576803 -0.017947938 0.013858141
000350 b4 ab 0d 3c 87 ce 63 bc d1 a3 16 bc 86 2e 30 bc
       0.008646894 -0.01390422 -0.00919433 -0.01075328
000360 ba 2d 33 bc 01 60 6f bc bc fe 93 3c 40 35 f3 3b
       -0.010936195 -0.014610291 0.018065803 0.0074221194
000370 09 b6 40 bc bf 20 8a bc bd d7 8f 3c f1 b8 6b bc
       -0.011762151 -0.016861318 0.017558927 -0.014387355
000380 3a 33 ab bb 63 a8 3b 3c 30 cb 1c 3c 20 29 68 3c
       -0.0052246125 0.011453721 0.009569928 0.014169961
000390 59 0b 4e bc 96 23 f4 37 c8 25 2e 3c 0b 1e 76 bb
       -0.012575948 2.9103638e-05 0.010629125 -0.0037554528
0003a0 dc fd 21 bb b5 37 18 bc 3f c7 34 bc 2c 01 e7 3a
       -0.0024717962 -0.009290625 -0.011033832 0.0017624251
0003b0 0a 06 47 bb 1e 54 7c 3a be 4a cb bc 3e c9 cd bc
       -0.003036859 0.00096255715 -0.024815913 -0.025120374
0003c0 d8 2f 3a bc 21 25 0f bd 4f 39 a7 3c e1 0c 11 3b
       -0.011363946 -0.03494752 0.020413069 0.002213292
0003d0 a5 56 f7 3b 4e df 88 3b 34 cb f9 3b 4e dc 2d 3c
       0.0075481706 0.0041770106 0.0076231007 0.010611607
0003e0 b1 f2 1c 3c 7c a8 62 bc a4 eb 92 bc d0 dc 42 bc
       0.0095793465 -0.013834115 -0.017934628 -0.011893466
0003f0 6d 2f 65 bc 82 74 b8 3a c0 48 56 3c 41 3d 11 bc
       -0.013988358 0.0014072808 0.013078868 -0.008864702

layers.0.bias f4 [32]
000000 8c f9 30 bd f0 89 3b bd d2 e3 0f bd c6 45 ec 3e
       -0.043206736 -0.045785844 -0.035129376 0.46146983
000010 35 22 7e bc ff 30 9d bc 6d 26 d1 3e db 8f d5 3e
       -0.015511085 -0.019188402 0.4084963 0.41711316
000020 5c ca 30 bd 3e b3 f3 3e db 62 f2 3e 3f 35 ce 3e
       -0.043161735 0.47597688 0.47341046 0.40275
000030 ce 48 de 3e e1 3b eb 3e 51 d6 90 bc 6f 01 2a bc
       0.4341492 0.4594412 -0.017680319 -0.010376318
000040 2f e5 af bc 3b 04 85 bc 13 cc 24 bd fc a1 1f bc
       -0.021471588 -0.016237369 -0.040233683 -0.00974321
000050 db 20 02 3f ad df f1 bc 40 f7 d5 3e ff 5e 40 bd
       0.50831383 -0.029525602 0.417902 -0.046965595
000060 03 c5 df bc 20 23 06 3f b6 34 94 bc 94 13 01 3f
       -0.027315622 0.52397346 -0.01809154 0.504205
000070 c5 62 90 bc 44 8e f9 3e 47 8f e8 3e 8d 98 f4 3e
       -0.017625222 0.48741353 0.45421812 0.47772637

layers.2.weight f4 [1, 32]
000000 07 7b a6 ba 31 9a b3 3d 02 6f f2 3c ec 9d e1 be
       -0.001270146 0.08769644 0.029593948 -0.44065797
000010 17 97 6c 3d e5 e6 05 3e e6 e9 03 bf f6 2d 01 bf
       0.057761278 0.1307636 -0.51528776 -0.50460756
000020 21 1d f7 3d 43 1a e4 be 98 75 f0 be 3a 4c 06 bf
       0.12066103 -0.44551286 -0.46964717 -0.5246006
000030 9f b8 02 bf 2c f6 f8 be 35 dc 12 3e af d9 12 3e
       -0.5106296 -0.48625314 0.14341815 0.14340852
000040 2a 8b 49 3d cf 0a 12 3d e9 98 11 3e 11 af 0a 3e
       0.049204983 0.03565484 0.14218487 0.13543345
000050 1a 2c d9 be 41 cf 2b 3d b3 6e fd be 0a 72 23 bc
       -0.4241646 0.0419457 -0.4949852 -0.0099759195
000060 6d 37 f0 3d 80 01 da be d7 95 8d bc 88 01 d6 be
       0.11729322 -0.4257927 -0.017283363 -0.41798043
000070 fc 0e a6 3b 7e 0c e4 be ac 19 f0 be 3b 00 dd be
       0.0050677042 -0.4454078 -0.46894586 -0.43164238
