GraphClustering/GraphsLarge/Weights/Karate_300_400_500_Forward160.pt (torch, 298083 bytes, 3 tensors)

layers.0.weight f4 [32, 2312]
-0.009522636 0.73036116 0.72608465 0.7445641 0.748565 0.7283934 0.74818856 0.7193721
0.7315013 -0.007910763 0.7170916 0.7471804 0.755431 0.7505962 0.01348621 -0.017215332
-0.004316333 0.73760515 -0.017805217 0.71533984 -0.0073486627 0.7549675 0.008209705 -0.009648175
0.011773482 -0.0024161846 0.0007646009 -0.006203758 0.015474508 0.005633556 0.0023454498 0.71904725
0.0013826869 0.020511629 0.72518796 0.0017780317 0.7409459 0.7146457 0.015912676 0.0038692765
-8.015339e-05 0.75298697 0.017184079 -0.013768956 0.018711584 -0.010371717 0.0059611215 0.7285648
-0.0006994121 -0.020352572 -0.009172828 0.7477502 0.0027494596 0.7434005 -0.019444078 0.7429183
0.0012257568 -0.010657565 -0.010620128 -0.005334782 0.015084821 -0.011403269 0.019968107 0.01429156
0.7282092 0.0068661976 -0.00854052 -0.016555421 0.75230354 0.74996036 0.0039554024 0.73521465
0.020340988 0.013096917 0.015356916 0.7148376 0.7527849 0.7475049 0.0026632692 0.013602764
0.00391661 0.7246031 0.0022832337 -0.00484566 0.020206857 0.0059684576 0.012657006 -0.008054503
0.01881728 0.017777454 0.014744713 0.0025143917 0.0102458615 -0.019983705 0.0016200232 0.71640414
0.7379225 0.017062789 0.0060954485 0.01062773 0.7334785 -0.013787694 0.72870225 0.7204645
0.753905 0.011754917 -0.017874984 -0.014689069 0.016312445 0.721181 -0.0032596076 0.01143318
-0.017559087 -0.00847587 0.74306494 0.7227642 0.004402293 -0.015491644 -0.000442951 -0.018113548
0.01274065 0.0048655486 -0.015104447 0.008213243 0.009131298 -0.018858148 0.0068678586 -0.002270307
0.00043086227 -0.0040325434 0.018216735 0.0059265536 0.011124542 -0.019628279 0.01497802 0.012851633
0.7298463 -0.0015202021 0.001748162 0.006706575 -0.0063249753 0.0030411878 0.7526508 0.0032402968
0.014628345 0.020193202 0.7251839 0.018250696 0.0150014935 0.0068176393 -0.018487308 -0.0070910635
0.015380922 0.014838678 -0.008288758 -0.0066242325 0.009401252 -0.007855498 0.011112736 0.0056666387
0.015175446 -0.00811904 0.0058678454 -0.00039646548 0.002526054 -0.0033458846 -0.011493973 0.002514771
-0.004144458 -0.0023406004 0.75243837 -0.011212257 0.00041328455 0.007895027 0.014623848 -0.0062686694
0.71993965 0.013191394 -0.020448087 -0.018148405 0.72014743 0.017818633 -0.0037346843 0.019098695
0.0014753628 0.007339757 0.72855693 -0.0091620805 0.01847076 -0.015000569 0.013995496 0.004328189
0.008066473 -0.002135623 0.009056232 -0.014459084 0.018652992 0.004975413 0.003960063 -0.018317511
0.0025860637 -0.004278215 0.020059153 0.011569072 0.73762757 0.005898588 0.019575072 -0.0031430144
0.7234017 0.73319405 -0.018398218 0.0010608932 0.006498479 0.0062071895 0.0131280115 0.0051466185
-0.01226834 0.0045142025 -0.018307175 -0.0030174614 0.72864324 0.017958334 0.013022707 -0.02001563
0.008056447 0.0056561716 0.0027263805 -0.009890318 0.00782008 -0.00049567915 0.016891852 0.010069564
-0.013309659 0.008067199 -0.0068838247 -0.0136682205 -0.003247851 0.0009915914 0.7444152 0.7481194
0.7547423 0.7165938 0.015595923 0.012832034 0.020509278 -0.0186876 0.017137242 0.008336964
0.01059135 -0.015788523 0.0053552454 -0.012702438 -0.0043884367 0.0051817913 0.0038890284 -0.013026438
00000000: d504 1cbc f3f8 3a3f afe0 393f c19b 3e3f
00000010: f5a1 3f3f fd77 3a3f 4989 3f3f c528 383f
00000020: ab43 3b3f 259c 01bc 5193 373f 3747 3f3f
00000030: ed63 413f 1327 403f 44f5 5c3c 2b07 8dbc
00000040: 0770 8dbb b1d3 3c3f 3fdc 91bc 8320 373f
00000050: 0dcd f0bb 8d45 413f 0082 063c 6113 1ebc
00000060: 90e5 403c da58 1ebb 7f6f 483a e548 cbbb
00000070: ca88 7d3c b199 b83b 1eb6 193b 7b13 383f
00000080: 463b b53a 0108 a83c eba5 393f d80c e93a
00000090: a1ae 3d3f 05f3 363f 4d5b 823c b093 7d3b
000000a0: 0618 a8b8 c1c3 403f a0c5 8c3c 3097 61bc
000000b0: 0949 993c 22ee 29bc 8355 c33b 3983 3a3f
000000c0: c058 37ba 70ba a6bc a149 16bc 8f6c 3f3f
000000d0: 4730 343b 7f4f 3e3f 3049 9fbc e52f 3e3f
000000e0: 93a9 a03a 119d 2ebc 0c00 2ebc 65cf aebb
000000f0: 5326 773c c7d4 3abc 2894 a33c 2627 6a3c
00000100: eb6b 3a3f d7fd e03b 8aed 0bbc 3c9f 87bc
00000110: f796 403f 67fd 3f3f 529c 813b 0737 3c3f
00000120: 25a2 a63c 7494 563c 939b 7b3c 99ff 363f
00000130: 83b6 403f 7b5c 3f3f 3e8a 2e3b 21de 5e3c
00000140: e856 803b 977f 393f 4ea2 153b 58c8 9ebb
00000150: da88 a53c 0d93 c33b 555f 4f3c 09f7 03bc
00000160: b226 9a3c 06a2 913c cf93 713c 7ec8 243b
00000170: 42de 273c deb4 a3bc f556 d43a 4366 373f
00000180: 7de8 3c3f 43c7 8b3c 54bc c73b ee1f 2e3c
00000190: 3fc5 3b3f c8e5 61bc 3b8c 3a3f 5d70 383f
000001a0: ebff 403f b297 403c 8f6e 92bc 6caa 70bc
000001b0: ada1 853c 519f 383f 249f 55bb 3c52 3b3c
000001c0: 13d8 8fbc 60de 0abc 8139 3e3f 1307 393f
000001d0: 1c41 903b aad0 7dbc e03b e8b9 dd62 94bc
000001e0: 29be 503c 2e6f 9f3b a478 77bc d790 063c
000001f0: 719b 153c 677c 9abc c60b e13b 6ec9 14bb
00000200: 5be5 e139 6d23 84bb 433b 953c 8933 c23b
00000210: b643 363c 7ccb a0bc 5f66 753c a88f 523c
00000220: 35d7 3a3f 8541 c7ba 9522 e53a d4c2 db3b
00000230: bd41 cfbb aa4e 473b b9ad 403f 295b 543b
00000240: baab 6f3c 376c a53c a7a5 393f 7c82 953c
00000250: d3c8 753c 8166 df3b b272 97bc 275c e8bb
00000260: 4300 7c3c ed1d 733c 92cd 07bc 1710 d9bb
00000270: b507 1a3c 59b4 00bc 3112 363c 36af b93b
00000280: 6fa2 783c b905 05bc 0e47 c03b b2dc cfb9
00000290: 278c 253b a146 5bbb 3851 3cbc dbce 243b
000002a0: 3cce 87bb c264 19bb cd9f 403f 9db3 37bc
000002b0: 1dae d839 255a 013c dd98 6f3c 6969 cdbb
000002c0: f74d 383f b720 583c bf82 a7bc f7ab 94bc
000002d0: 955b 383f 62f8 913c 9bc1 74bb de74 9c3c
000002e0: f660 c13a 5882 f03b b582 3a3f 8d1c 16bc
000002f0: fe4f 973c f2c4 75bc 5d4d 653c 7bd3 8d3b
00000300: 3d29 043c cff5 0bbb 9760 143c cbe5 6cbc
00000310: 29ce 983c ca08 a33b 6bc3 813b 9b0e 96bc
00000320: f37a 293b 4530 8cbb 1853 a43c 348c 3d3c
00000330: 29d5 3c3f f148 c13b e75b a03c 08fb 4dbb
00000340: db30 393f 9bb2 3b3f dcb7 96bc ab0d 8b3a
00000350: 31f1 d43b ae65 cb3b df16 573c f7a4 a83b
00000360: 2601 49bc e0eb 933b eef8 95bc 9ac0 45bb
00000370: 5d88 3a3f 5b1d 933c 315d 553c d2f7 a3bc
00000380: 30ff 033c 6857 b93b 13ad 323b 000b 22bc
00000390: cb1f 003c 77f0 01ba c860 8a3c d0fa 243c
000003a0: c210 5abc 492c 043c b591 e1bb acf0 5fbc
000003b0: e6d9 54bb 49f8 813a ff91 3e3f c184 3f3f
000003c0: cb36 413f b172 373f 0b86 7f3c 743d 523c
000003d0: 1303 a83c bd16 99bc 6763 8c3c c397 083c
000003e0: 5787 2d3c ef56 81bc 0e7b af3b e31d 50bc
000003f0: e0cc 8fbb 04cc a93b 12df 7e3b d76c 55bc

layers.0.bias f4 [32]
0.7240954 -0.04300072 -0.038143072 0.8305504 0.72858363 0.7507915 0.70294416 -0.038950033
-0.022280589 0.7242672 0.5886838 -0.04691995 -0.009523719 -0.037776753 -0.017540744 0.73052573
-0.050719295 -0.0333494 -0.04301233 -0.03855722 0.70810294 0.7372428 -0.031475198 -0.045909263
0.89298 0.6807649 -0.050462797 0.68737954 -0.018962156 -0.016827779 0.7466159 -0.027619112
00000000: 515e 393f 8621 30bd e93b 1cbd f39e 543f
00000010: 7584 3a3f df33 403f 26f4 333f 128a 1fbd
00000020: c885 b6bc 9369 393f fbb3 163f 222f 40bd
00000030: 5f09 1cbc ccbb 1abd 9bb1 8fbc bc03 3b3f
00000040: 09bf 4fbd 6199 08bd b22d 30bd 2dee 1dbd
00000050: 3c46 353f f2bb 3c3f 23ec 00bd 5a0b 3cbd
00000060: 569a 643f 9c46 2e3f 14b2 4ebd 1bf8 2f3f
00000070: 8656 9bbc 69da 89bc 3822 3f3f 7a41 e2bc

layers.2.weight f4 [1, 32]
-0.2539456 0.1370139 0.07722078 -0.494973 -0.27848062 -0.26345533 -0.3091203 0.007686102
-0.020503571 -0.34973362 -0.4621418 0.12291553 0.11542038 0.112786934 0.013648531 -0.2730592
0.012233129 0.06341299 -0.02373659 0.046045043 -0.31802157 -0.28080302 0.027310023 0.03832793
-0.43213007 -0.43328524 0.07537597 -0.3584781 0.028721102 0.08370696 -0.28268042 0.13413073
00000000: 2805 82be 5f4d 0c3e ee25 9e3d 1a6d fdbe
00000010: 0395 8ebe 9ee3 86be 0445 9ebe b2db fb3b
00000020: 1bf7 a7bc 4910 b3be da9d ecbe 23bb fb3d
00000030: 8561 ec3d d6fc e63d 179e 5f3c 6ace 8bbe
00000040: 766d 483c abde 813d 3d73 c2bc ba99 3c3d
00000050: b9d3 a2be 6ac5 8fbe 45b9 df3c bffd 1c3d
00000060: 2740 ddbe 90d7 ddbe b75e 9a3d 718a b7be
00000070: 8448 eb3c 8e6e ab3d 7dbb 90be 9159 093e
