GraphClustering/GraphsLarge/Weights/Karate_1000_1500_2000_o_Forward500.pt (torch, 298113 bytes, 3 tensors)

layers.0.weight f4 [32, 2312]
00000000: a7dc 90bc 661d b4bc f3e8 15bd 3c6c 48bd
00000010: 568e 3fbd d67d e1bc f2b7 25bd 78db 27bd
00000020: f2b7 4ebd b85c 8ebc 7e1b 11bd bec1 4ebd
00000030: 051f cfbc b23d 09bd 077d 033c 5661 863c
00000040: efc4 083a dc31 adbc 347d 303c 67b3 0abd
00000050: d2ba 5abc 0ef2 2dbd f304 b8b8 a8a4 f43b
00000060: 98ef f0bb cfa4 7e3c d532 20bc 3162 6abc
00000070: f437 5dbc 4536 843b 6801 d33b a4b6 2cbc
00000080: f14d 943c 1a57 cebb b241 92bc 7214 95bc
00000090: bc9c 28bc 462f 41bd 2583 55bc 5d59 85bc
000000a0: 32a3 45bb 3a77 1abd fb93 2a3c 1cec 4abc
000000b0: 7560 83bc 3736 993a 5d7f 1abc d395 a6bc
000000c0: 8549 cb3b 0efb c3ba 8d54 aa3b a63f 24bd
000000d0: 5d2e 11bc 8eaf 3cbd ea27 74bb e000 3ebd
000000e0: fcde 5abc 4619 e13b f1f8 0cbc c1c4 a2bc
000000f0: b2c3 69ba b027 a43a abaa 2c3c 0c8a 23bb
00000100: 0235 4ebd b59a bcbb ad41 84bc 4533 c1bb
00000110: 485c 40bc 7cdc dcbc cd0b 223c 466c 32bc
00000120: 0a47 a53c 1482 f93b 2dbe 5fbc 9639 32bd
00000130: cc2c 4bbd 88cd f6bc 5a90 4d3c cfd6 313c
00000140: fe15 5b3c e1a3 19bc 665e 7e3c ae36 d1bb
00000150: 299c a7bc 5f17 ffbb dfd7 a6bb 1868 2ebc
00000160: 9d54 dd3b 2ed6 80bc 9dfe 903c 2e35 f13b
00000170: bbc5 3a3c 935d a1bb 7f79 17bc 1428 44bc
00000180: 263d f7bc 1e9f c23b d382 7ebc 6365 a53c
00000190: 9c02 27bd 7cbd 3d3c c2c8 27bc 4222 efbc
000001a0: fad4 debc e5ef 89bb cb37 1ebc 6b02 973c
000001b0: 4226 8d3c 2486 42bd f62b 2c3c 4c94 943c
000001c0: e8fb 013b 3e76 1a3b 4a17 3abd 5c8b 47bd
000001d0: ccd9 84bb d6d4 89bb 0c0e 1fbc caa6 7d3c
000001e0: 70bd 5c3b eaa5 6cba 140f 873c 48a8 f93b
000001f0: 58d9 a3bb 939b d03b 3f14 48bc 1ef7 8e3c
00000200: 8d06 403c 55a5 88bc ad12 5b3b 65b1 05bc
00000210: 9a2c e63b 0db9 88bc 8f1e 913c 93ab a0bc
00000220: 5b6c 07bd 8388 f5bb 7043 0d3b 4581 a73c
00000230: 0a4f 0cbc 2b0b a73c d666 33bd d8a4 f4bb
00000240: f701 ad3b b594 6abb 0aab 47bd bfc1 8cba
00000250: 214a eabb 84ef 61bc 8f90 a3bc 27c9 15bb
00000260: df97 87bb 6545 72bc 8072 7e3c cf26 35bb
00000270: 3d15 463c 5ba3 7cbc 2f93 823c e666 6f3c
00000280: fac9 413c 74ad a0bc 2aa4 6b3c 34fe 1fbc
00000290: 4aee 4ebc 49f1 b63b 7ee0 813a 174b 2b3c
000002a0: 5abb 763b 72b9 11bc 0c33 49bc 8da9 8e3c
000002b0: 4959 12bc 7e69 993c c5cb 0c3b 7ab6 0a3c
000002c0: 5960 dabc 7383 5e3c 34e6 cf3b 3ab8 8a3c
000002d0: 22f9 2cbc 2c02 73bb 39d8 96bb 4a31 553b
000002e0: c983 b6bb 721d e53b 33c6 26bd cb60 3ebb
000002f0: 70c5 81bb 78c3 573c f7c3 33bb 2264 5cbc
00000300: 0bca 453c 6674 8f3c 5e1b 4f3a a728 7cbc
00000310: ba92 c8bb f273 503c e5e3 f8bb 3f09 893c
00000320: fcac 083c 11ae 54bc 9d8b 86bc 59fe 653c
00000330: 91c6 e3bc aaa3 5dbc 524e 4d3c 6d37 1d3c
00000340: 1d81 e0bc d40a 30bc a8ce 973c 5d2a 1abc
00000350: eee4 d63b 5bec 99bb 236c a5bc bb89 2abc
00000360: 7436 8e3c d266 2a3c f3bd 573b 13a1 c53a
00000370: 7ca1 23bd 9a3c 2cbc 8bd6 2cbb 7dad 753b
00000380: 95a8 60bc f195 a43c c78f a4bc 87ec c2bb
00000390: 0509 fcbb 6394 07bc 97b3 8e3b e764 80bb
000003a0: 7c71 b33b af59 03bc edd0 af3b 1ffd 343c
000003b0: 7411 9ebb b05b 4ebc ae4e 0fbd 0c05 27bd
000003c0: 8b8b 64bc 0d85 c8bc cbd5 063c bbaa 263c
000003d0: 1d53 a0bc f97d 9e3b cea2 283c a3b1 01bc
000003e0: 97c0 27bc 76ed 013c 6bc5 a93c 3c20 47bc
000003f0: 0348 40bc 297a 7a3c d4ec 83bc 53a3 083b
-0.01768334 -0.021986675 -0.03659911 -0.048931345 -0.0467666 -0.027525824 -0.040458627 -0.040980786
-0.050468393 -0.017378196 -0.03542661 -0.050477736 -0.025283346 -0.033506103 0.008025414 0.016403835
0.00052173337 -0.021141939 0.010772038 -0.033862498 -0.0133502055 -0.04246717 -8.7747256e-05 0.0074659176
-0.0073527806 0.015542223 -0.009777744 -0.014305637 -0.01350211 0.0040347897 0.0064393766 -0.010541592
0.018103572 -0.0062970044 -0.017853592 -0.018198226 -0.010291275 -0.047164224 -0.013031756 -0.016277963
-0.0030157086 -0.03771136 0.010411258 -0.012385394 -0.016037205 0.0011689131 -0.00942978 -0.020335114
0.0062038326 -0.001495214 0.0051980675 -0.040099762 -0.0088611515 -0.04606586 -0.0037255236 -0.046387553
-0.013358828 0.006869468 -0.008604274 -0.01986921 -0.00089174055 0.0012524035 0.010538737 -0.0024954109
-0.05034352 -0.005755747 -0.016144598 -0.0058960044 -0.011740752 -0.026960604 0.009890509 -0.010890072
0.020175476 0.0076143835 -0.013656181 -0.04351195 -0.04960327 -0.030127302 0.012546623 0.010854437
0.013371943 -0.009377451 0.015525436 -0.006384692 -0.020460205 -0.0077847685 -0.005091652 -0.010644935
0.0067544715 -0.015727129 0.017699534 0.007361076 0.011399682 -0.004924485 -0.0092452755 -0.011972446
-0.030180525 0.0059393784 -0.015534121 0.020189947 -0.040773973 0.011580821 -0.0102407355 -0.02919114
-0.027201165 -0.004209506 -0.009656857 0.01843377 0.017230157 -0.047491208 0.010508528 0.01813712
0.0019833986 0.0023569013 -0.045432366 -0.048716888 -0.0040542837 -0.00420628 -0.009707939 0.01548166
0.003368225 -0.00090274087 0.016486682 0.0076189376 -0.0050002746 0.006366202 -0.012211858 0.017451819
0.011720312 -0.016680399 0.003342788 -0.00815997 0.00702436 -0.016689802 0.017714767 -0.019613063
-0.03306232 -0.00749308 0.0021555088 0.020447383 -0.008563766 0.020391067 -0.043799244 -0.00746594
0.0052797752 -0.0035794203 -0.0487471 -0.0010738893 -0.00714995 -0.013790015 -0.019966392 -0.0022855492
-0.0041379775 -0.014787053 0.015530229 -0.002764154 0.012090025 -0.015419806 0.015939323 0.014611935
0.01182794 -0.019613959 0.0143824015 -0.009765197 -0.012630055 0.0055829627 0.0009908823 0.0104549145
0.0037648291 -0.008894311 -0.012280237 0.017414832 -0.00893242 0.01872706 0.002148376 0.008466357
-0.02665727 0.013581145 0.006344581 0.01693355 -0.010557445 -0.0037080152 -0.0046034125 0.00325306
-0.0055699092 0.0069920355 -0.04071636 -0.0029049392 -0.003960304 0.013169162 -0.0027430037 -0.013451608
0.012072097 0.017511558 0.00079005014 -0.015390552 -0.006121007 0.012722956 -0.0075955265 0.016728042
0.008342024 -0.012980954 -0.016423995 0.014037692 -0.027804645 -0.01352779 0.01253088 0.009595734
-0.027405316 -0.010744769 0.018531159 -0.009409514 0.0065580523 -0.004697365 -0.020193165 -0.010408814
0.01735995 0.010400491 0.0032919615 0.0015077911 -0.039948925 -0.010512495 -0.0026372995 0.003748744
-0.013712068 0.020091029 -0.02008809 -0.0059486064 -0.007691505 -0.008275124 0.004354905 -0.0039182785
0.005476175 -0.008016988 0.005365482 0.011046677 -0.004823858 -0.012595102 -0.034987144 -0.040776297
-0.013949285 -0.024477506 0.008229683 0.010172541 -0.019570882 0.0048367945 0.010292722 -0.007915887
-0.010238788 0.00793015 0.020724019 -0.012153681 -0.011735919 0.015287914 -0.01610414 0.0020849302

layers.0.bias f4 [32]
00000000: c20a bcbc 39a7 b93e 9b95 4abd 4cc1 733e
00000010: b83b d8bc fa63 f53f a057 e13e a3f6 81bc
00000020: 7040 babc 3284 eebc 03a8 563f 361b b33e
00000030: a482 d2bc 2d2c 06bd 1180 ba3e 1be0 873f
00000040: 6184 8c3e fd0b 223f 22de 0ebd eceb dc3f
00000050: 7281 24bd f7f1 243f 5050 c3bc d54f edbc
00000060: 99ea 49bd eead 0b40 d235 713f 68f5 41bd
00000070: 755d bebc 4f46 1cbd 46fe 2cbc 3336 b5bc
-0.022954348 0.36260393 -0.04945908 0.23804206 -0.026395664 1.9171135 0.44012165 -0.015864676
-0.022735804 -0.02911577 0.83850116 0.34981698 -0.02569706 -0.032756973 0.36425832 1.0615267
0.27444747 0.6329954 -0.03487981 1.7259498 -0.04016251 0.6443171 -0.023842007 -0.028968731
-0.049295995 2.1824908 0.9422275 -0.04735318 -0.023237923 -0.03815299 -0.01055867 -0.02212057

layers.2.weight f4 [1, 32]
00000000: 8036 963d 450d 163a 3213 d83d bbc6 18ba
00000010: 1417 d23d 0c35 f6be 181b 84be 2c1a 5d3d
00000020: e09e a73d 3acf f0bb 7306 9cbe 02d7 b9ba
00000030: 68a4 783d 74ef a03c 25a9 8e3c 559e 55be
00000040: b762 d7ba d177 df3e a7e5 073e 5267 a2be
00000050: eb6c 4f3d 04ab 543e 0e64 033e 6988 423d
00000060: a520 373d 9db6 30bf db4e ebbe ce09 9b3d
00000070: 5dc7 89bc de54 123e 0ca4 f2bc 3820 0d3e
0.07334614 0.0005724023 0.10550536 -0.0005827953 0.10258308 -0.48087347 -0.2580192 0.053980038
0.081846 -0.007348922 -0.3047367 -0.0014178457 0.060703665 0.01964543 0.017414639 -0.2086118
-0.0016432618 0.436461 0.13271199 -0.31719452 0.05064098 0.20768362 0.12831137 0.047493372
0.044708867 -0.69028646 -0.459586 0.075702295 -0.016818697 0.14290187 -0.02961924 0.13781822
