GraphClustering/GraphsLarge/Weights/WomboComboKarate0_500_2_oForward0.pt (torch, 646079 bytes, 9 tensors)

layers.0.weight f4 [64, 2312]
0	0xbb57f498	-0.0032952186
1	0x3c70649a	0.014672423
2	0xbc3aa372	-0.011391507
3	0x3bb74538	0.0055929683
4	0x3c1e6c7e	0.009669421
5	0x3ba6cb14	0.005090127
6	0xbc6f07b3	-0.014589238
7	0x3ba9f950	0.005187191
8	0xbc88e607	-0.016711248
9	0x3c06a712	0.008218544
10	0x39c89b40	0.00038262643
11	0x3c740346	0.014893359
12	0x3beb7c24	0.0071864296
13	0xbb071e20	-0.002061732
14	0xbc735cba	-0.014853651
15	0xbc1e9477	-0.009678951
16	0x3c14373e	0.009046374
17	0x3bbaecd4	0.0057045016
18	0x3beef524	0.0072924066
19	0xbc403cd0	-0.011733249
20	0x3c6f3102	0.014599087
21	0x3bb2a588	0.005451862
22	0x3c37a286	0.011208182
23	0x3c5b263e	0.013375817
24	0xbc6ee3de	-0.014580695
25	0xbc4ba7a9	-0.01243011
26	0x3c9b693b	0.018971076
27	0xbc0eb43f	-0.008709966
28	0xbc56ce75	-0.013110747
29	0x3ca14b79	0.019689308
30	0x3bec6ea4	0.007215338
31	0x3bff1f7c	0.0077857357
32	0xbc0acdda	-0.00847193
33	0x3c5d4eba	0.013507539
34	0x3c5d6a8a	0.01351417
35	0x3c613f7a	0.013748044
36	0xbc8e825d	-0.017396146
37	0x3c3f3d72	0.011672365
38	0xbb9c665c	-0.0047729444
39	0xbc35b791	-0.011091129
40	0x3c12d3b4	0.008961607
41	0xbc7c8052	-0.015411453
42	0xbbd22f7a	-0.006414351
43	0x3afdc210	0.0019360203
44	0xbc204af7	-0.009783498
45	0x3c98b657	0.018641634
46	0x3c5e199e	0.013555912
47	0x3b21de98	0.0024699327
48	0x3c92aa3d	0.017903442
49	0xbb09eaf0	-0.0021044575
50	0x3ca29bff	0.019849775
51	0xbb1ef608	-0.0024255533
52	0x3c10b718	0.008832715
53	0x3893ce00	7.047877e-05
54	0xbb8c0040	-0.0042724907
55	0xbbf5b654	-0.007498542
56	0xb9c67180	-0.00037850067
57	0x3b8329d0	0.004002787
58	0x3c3efaf6	0.011656513
59	0xbc0f1b24	-0.008734498
60	0x3b8039d0	0.003913142
61	0xbba7596c	-0.0051070955
62	0x3aad24f0	0.0013209861
63	0x3b85feac	0.004089197
64	0xbc758bc1	-0.014986933
65	0xbba3ae88	-0.004995171
66	0x3c9abc89	0.018888729
67	0x3c54c0e2	0.01298544
68	0xbc64a996	-0.013956448
69	0x3baf8cc0	0.005357355
70	0x3ca8edfb	0.02062129
71	0x3c5aafa6	0.013347542
72	0xbbb05bd6	-0.0053820414
73	0x3c55b96e	0.013044698
74	0x3ca92bfd	0.020650858
75	0xbca75152	-0.020424519
76	0xbc7c18f8	-0.015386812
77	0xbc0cc1c7	-0.008591122
78	0x3c8bbdbf	0.017058251
79	0xbc9e44d4	-0.01931993
80	0x3c0bc798	0.008531474
81	0xbb35ba80	-0.002772957
82	0xbc68cb1e	-0.014208583
83	0xbc9edf3a	-0.019393552
84	0x3ca7ed5b	0.020498922
85	0x3b3e9158	0.002907833
86	0xbc5a7195	-0.013332744
87	0x3b9cd8c0	0.004786581
88	0xbbe688cc	-0.0070353504
89	0xbb7e2630	-0.0038780086
90	0xba88d7e0	-0.0010440312
91	0xba46c9c0	-0.00075831637
92	0xbbce3b9c	-0.006293727
93	0x3c75990e	0.014990104
94	0xbca2439e	-0.019807633
95	0xbb442af8	-0.0029932838
96	0x3c2f377e	0.010694383
97	0xbc075ba2	-0.008261593
98	0x3b784030	0.0037880056
99	0xbc6e56f2	-0.014547097
100	0xbb6a5d58	-0.0035761204
101	0x3c21e4cc	0.00988121
102	0xbb541db8	-0.0032366347
103	0x3b175398	0.0023090597
104	0x3c3b7322	0.011441024
105	0x3c41f36e	0.011837823
106	0x3b8f6880	0.004376471
107	0xbca30142	-0.01989806
108	0xbc9d4038	-0.019195661
109	0x3b7e3338	0.0038787853
110	0xbc50c165	-0.012741421
111	0xbc0e41ac	-0.00868265
112	0xbca70916	-0.020390075
113	0x3c37ac76	0.0112105515
114	0xbaf0c000	-0.0018367767
115	0x3c72252e	0.014779372
116	0x3c951f61	0.01820344
117	0x3b17ceb8	0.0023163985
118	0x3b6d0678	0.0036167186
119	0xbc9a9c3f	-0.018873332
120	0xb981a6c0	-0.00024729036
121	0x3b90b014	0.0044155214
122	0x3c0471b2	0.008083748
123	0xbc8da5d3	-0.017290985
124	0x3c6e7242	0.014553608
125	0xbc64eb76	-0.013972154
126	0x3c7649d6	0.015032252
127	0x3c123c6e	0.00892554
128	0xbb595af8	-0.0033165794
129	0x3c7a7196	0.01528587
130	0x3c71395a	0.014723146
131	0x3c317ece	0.010833455
132	0x3c9a8361	0.018861474
133	0xbc9fa31b	-0.019486954
134	0xbba36628	-0.004986543
135	0x3c3f3e96	0.0116726365
136	0xbc7b47b6	-0.015336921
137	0x3c4d7d02	0.012542011
138	0xbac26170	-0.0014830064
139	0x3c139720	0.009008199
140	0xbc1cba47	-0.009565896
141	0xbaa86da0	-0.0012850054
142	0x3a727920	0.00092496164
143	0xbbb18fcc	-0.0054187533
144	0x3c93f7d5	0.018062511
145	0x3c93e9ad	0.018055761
146	0x3bdfa5a4	0.006825166
147	0x3a736fc0	0.00092863664
148	0x3c9a268b	0.018817207
149	0xbbf98f8e	-0.00761599
150	0xbc03926e	-0.008030517
151	0xbc8313c3	-0.016000634
152	0x3b3def30	0.0028981678
153	0xbb2387b8	-0.002495272
154	0x3c16c9f0	0.009203419
155	0x3c174950	0.009233788
156	0xbc1c0747	-0.009523219
157	0xba6ffc60	-0.0009154733
158	0xbbfa7a36	-0.007643963
159	0x3c4189b6	0.011812618
160	0xb9efb480	-0.00045720115
161	0xbbf060e2	-0.007335768
162	0x3b39dee8	0.0028361622
163	0x398e3740	0.00027125515
164	0xbbacafc6	-0.0052699773
165	0x3c12852e	0.008942885
166	0xbb4f6850	-0.0031647868
167	0x3b8dca54	0.004327098
168	0xbc77046c	-0.015076738
169	0x3c958b13	0.018254792
170	0x3ae14510	0.001718672
171	0xbb0939f8	-0.0020939093
172	0xbacbca00	-0.0015547872
173	0x3b9f9060	0.0048695058
174	0x3c7a7eba	0.015289003
175	0xbc96f8b3	-0.018429136
176	0xbb8de308	-0.0043300427
177	0xbc019cdc	-0.007910933
178	0x3c7a95fa	0.015294546
179	0xbb892134	-0.0041848663
180	0xbc3787bb	-0.011201794
181	0xbb36ebb8	-0.0027911495
182	0x3b9f1054	0.0048542414
183	0xbbeda2ea	-0.007252087
184	0x3ab2fd80	0.0013655871
185	0xbc52bbbf	-0.012862145
186	0xbca7f3fa	-0.02050208
187	0x3ad4f300	0.0016246736
188	0x3bbbfcc4	0.005736919
189	0x3c8453cd	0.01615324
190	0x3b6d38e8	0.003619725
191	0xbbca638c	-0.0061764177
192	0xbb0fbd28	-0.0021932814
193	0x3b2e9980	0.0026641786
194	0xbc9fdc87	-0.019514335
195	0x3bf118cc	0.0073576923
196	0xbb932bd4	-0.0044913087
197	0x3c9a9855	0.018871466
198	0x3b89d5ec	0.0042064097
199	0xbc6077e6	-0.013700461
200	0xb9988b80	-0.00029095635
201	0xbbe3cd9c	-0.006952001
202	0x3bb0a7a8	0.00539108
203	0x3c070f6e	0.008243425
204	0x3b8baa50	0.004262246
205	0xbc8a7427	-0.016901089
206	0x3c9d32d5	0.019189278
207	0xbc1a0aeb	-0.009402017
208	0x3c24ef3e	0.010066805
209	0x39817040	0.0002468843
210	0xbc15ddb6	-0.009147098
211	0xbc544692	-0.012956278
212	0xbc670dcc	-0.0141024105
213	0xbc761270	-0.015019044
214	0xbba16c1c	-0.0049262177
215	0x3c13f938	0.009031586
216	0x3b010960	0.0019689426
217	0x3c9c28ad	0.019062364
218	0x3c722956	0.014780363
219	0xbc75785a	-0.014982307
220	0x3ca4c1c3	0.020111924
221	0x3a3a0220	0.00070956536
222	0x3c24ebd6	0.010065993
223	0xbbff9e82	-0.007800878
224	0x3c8275af	0.015925257
225	0x3a9f9120	0.0012173988
226	0xbba938e4	-0.0051642526
227	0xbbce7248	-0.0063002445
228	0x3c7487ba	0.014924938
229	0x3bdf1cec	0.0068088677
230	0xbc8ff68a	-0.017573614
231	0x3c810941	0.015751483
232	0x3beb26c8	0.007176254
233	0x3c51b33e	0.012799082
234	0x3bc1ef40	0.0059184134
235	0xbc0991d7	-0.008396587
236	0x3c12a338	0.008950047
237	0xbc18b4db	-0.009320463
238	0xbc392f87	-0.011302835
239	0x3bafc528	0.005364079
240	0x3c24beb8	0.0100552365
241	0xbc9d57af	-0.01920685
242	0x3be035e4	0.0068423618
243	0xbbbf87c2	-0.005845041
244	0xbc841e58	-0.01612775
245	0x3c91b0cd	0.0177845
246	0xbc99245c	-0.018694095
247	0x3bcb4150	0.006202854
248	0xbc94ccce	-0.018164065
249	0x3bbe7df8	0.0058133565
250	0x3c5591be	0.013035236
251	0x3c8d5a05	0.017254839
252	0x3ca09ab7	0.019605024
253	0xbae47ee0	-0.0017432831
254	0xbc9f726e	-0.019463744
255	0xbc82fb95	-0.015989104

layers.0.bias f4 [64]
0	0x3c8fc99f	0.017552195
1	0x3bbc3f5c	0.0057448577
2	0x3c99d745	0.018779406
3	0x3c810e1f	0.015753804
4	0xbc53059b	-0.012879754
5	0x3b2c7aa0	0.0026318207
6	0x3c0015d2	0.007817702
7	0xbba50350	-0.0050357953
8	0xbb916880	-0.004437506
9	0xbba21cdc	-0.004947288
10	0xbc857de0	-0.016295373
11	0x3c2ddd46	0.010611838
12	0x3c9b2ef5	0.01894329
13	0x3c26f20c	0.010189544
14	0xbc908eff	-0.01764631
15	0x3c1d9f6c	0.009620529
16	0xbb2f6108	-0.0026760716
17	0xbabded70	-0.0014490318
18	0x3c9107bd	0.017703885
19	0x3c214bca	0.00984473
20	0x3c858851	0.016300352
21	0xbc03c801	-0.00804329
22	0x3c0a1fbc	0.008430418
23	0x3c8c600d	0.017135644
24	0xbc070c5d	-0.008242694
25	0xbc86e85e	-0.016468223
26	0x3c97e6d1	0.018542679
27	0x3b962368	0.0045818575
28	0xbca69cad	-0.02033838
29	0xbc368a89	-0.011141428
30	0x3b217ef0	0.002464231
31	0xbc0635b4	-0.008191515
32	0x3c734dda	0.014850104
33	0xb9da5a40	-0.00041647442
34	0xbbd39248	-0.006456647
35	0xbbeddb4c	-0.0072588082
36	0xbc8a3ac5	-0.016873727
37	0xbc273f5e	-0.010207979
38	0x3bddeeec	0.0067728665
39	0xbc0797b7	-0.008275918
40	0x3c5a97fa	0.013341898
41	0xbc532456	-0.012887081
42	0x3c04708c	0.008083474
43	0xbc83a1a7	-0.016068293
44	0x3b9b6868	0.004742671
45	0xbc302e29	-0.010753193
46	0x3c5787a2	0.013154896
47	0xbc5f5454	-0.013630945
48	0x3c450262	0.012024494
49	0xbca3a438	-0.019975767
50	0xbc4dd690	-0.012563363
51	0x3be9e158	0.007137459
52	0x3c100a04	0.00879145
53	0xbc81c096	-0.015838902
54	0x3c07f16a	0.008297304
55	0x3c74ba1a	0.014936948
56	0xbc4ef96a	-0.012632707
57	0x3c6d5642	0.0144858975
58	0xbbc6f8f0	-0.006072156
59	0xbc59a552	-0.013284044
60	0x3c895213	0.016762769
61	0x3a515bc0	0.0007986389
62	0xbc8c264c	-0.017108105
63	0xbca20816	-0.019779246

layers.2.weight f4 [64, 64]
0	0xbd825dce	-0.06365548
1	0xbdb87fb8	-0.090087354
2	0x3d94bc50	0.0726248
3	0x3d3875e4	0.045034304
4	0xbda6e0d0	-0.08148348
5	0xbdc61c7c	-0.09673402
6	0xbd6a6848	-0.057228357
7	0x3d565474	0.052326635
8	0x3d8dd0b4	0.069245726
9	0xbdf6e35c	-0.12055084
10	0x3d7437a0	0.05962336
11	0xbdb858be	-0.09001301
12	0xbdf3d40a	-0.119056776
13	0xbd76fd88	-0.06030038
14	0x3d1f1408	0.038837463
15	0x3d8ae3c0	0.06781721
16	0x3d986fe4	0.074432164
17	0xbd89224a	-0.06695993
18	0xbd99ea2c	-0.07515368
19	0x3c6ef9a0	0.014585882
20	0xbdc8f356	-0.09812038
21	0xbda62382	-0.08112241
22	0xbc842dc0	-0.016135097
23	0xbd83b21e	-0.064304575
24	0x3d381274	0.044939473
25	0xbd49c1d8	-0.04925713
26	0xbdf4a912	-0.1194631
27	0xbda55630	-0.080730796
28	0x3ceb0368	0.028688148
29	0xbaebf380	-0.0018001646
30	0xbb415000	-0.0029497147
31	0xbd949828	-0.07255584
32	0x3d6b3808	0.057426482
33	0x3dbe03ec	0.09278092
34	0xbde9efe0	-0.11422706
35	0x3dc6a6c6	0.09699778
36	0x3db4716c	0.08810696
37	0xbdfd962a	-0.12382157
38	0x3d74c104	0.059754387
39	0x3d7fe600	0.062475204
40	0xbd4e215c	-0.050324783
41	0xbd4d5b30	-0.05013579
42	0xbdf4e5be	-0.11957882
43	0xbd7175cc	-0.05895023
44	0x3dc4e30a	0.09613617
45	0xbde2bd60	-0.11071277
46	0xbd1f4728	-0.03888622
47	0xbd988ca0	-0.07448697
48	0x3d84ec66	0.06490402
49	0x3dae9b96	0.085257694
50	0x3d89842e	0.067146644
51	0xbdf44988	-0.119280875
52	0x3d868c74	0.06569758
53	0xbbdf1240	-0.0068075955
54	0xbc1c4c90	-0.009539738
55	0xbd81aa2c	-0.06331286
56	0xbd12cfcc	-0.0358427
57	0xbca90f68	-0.02063723
58	0x3dfe6c60	0.12423015
59	0xbda95084	-0.0826731
60	0x3cdfec48	0.027334347
61	0x3cde2410	0.027116805
62	0xbdeb0ba2	-0.11476828
63	0x3ca61a00	0.02027607
64	0x3cb19df8	0.02168177
65	0x3dc05bc8	0.09392506
66	0x3c262580	0.010140777
67	0x3dd6296e	0.10457121
68	0xbc016b70	-0.00789915
69	0xbdecd966	-0.11564903
70	0x3daad95c	0.08342239
71	0xbdbbc634	-0.091686636
72	0xbdd819ea	-0.10551818
73	0xbdf5850e	-0.11988269
74	0x3bf06c20	0.0073371083
75	0xbd2e1cb0	-0.042507827
76	0xbc1b0d60	-0.009463638
77	0xbd0f8c90	-0.03504616
78	0xbca4f8b8	-0.02013813
79	0xbde3acd2	-0.11116947
80	0xbdc99168	-0.09842187
81	0x3d428f44	0.04749991
82	0xbcc00f20	-0.023444712
83	0xbd7c7fdc	-0.061645374
84	0x3db185b8	0.08668083
85	0xbdbdd5a6	-0.09269266
86	0x384b4000	4.8458576e-05
87	0xbdeac7bc	-0.114638776
88	0x3de4e964	0.11177328
89	0x3dfb5086	0.12271218
90	0xbc8bb498	-0.017053887
91	0xbde7f20e	-0.11325465
92	0xbcae4f48	-0.021278039
93	0x3d5b188c	0.053490207
94	0x3c7f0580	0.015565276
95	0xbd31dcdc	-0.04342352
96	0x3de661e6	0.112491414
97	0xbdf10b1c	-0.11769697
98	0x3dcd1424	0.10013607
99	0x3d9f0cf2	0.07766141
100	0x3cf6bbf8	0.030118927
101	0xbd28b3cc	-0.041187093
102	0x3b73ef80	0.003722161
103	0x3db266b2	0.08710994
104	0x3aeaee80	0.0017923862
105	0x3c90fe48	0.017699376
106	0x3d61f0b4	0.055161193
107	0xbdc36f32	-0.09542693
108	0xba8cf000	-0.0010752678
109	0xbd9b5296	-0.075841114
110	0x3df3d5b6	0.119059965
111	0xbd8aa068	-0.06768876
112	0xbd77b9e8	-0.06048003
113	0xbd943908	-0.0723744
114	0x3da57cf6	0.08080475
115	0xbbc5ed80	-0.006040275
116	0x3dd6d4ac	0.10489783
117	0xbd840d00	-0.06447792
118	0xbda7f9fa	-0.08201976
119	0xbcae1f50	-0.021255165
120	0x3deb9286	0.115025565
121	0xbd45ffa0	-0.048339486
122	0x3d2457b8	0.040122718
123	0xbd3a4a48	-0.045480996
124	0x3c96fda8	0.0184315
125	0x3d05fef0	0.03271383
126	0x3d093948	0.033501893
127	0xbdf5854a	-0.119883135
128	0xbd183744	-0.03716208
129	0xbda52914	-0.08064476
130	0x3b9dcca0	0.004815653
131	0xbcb9e148	-0.02269043
132	0xbd88e870	-0.06684959
133	0xbdf44d2a	-0.119287804
134	0xbdd7f9c6	-0.105456874
135	0x3dff8c56	0.12477939
136	0xbc8454d8	-0.016153738
137	0x3dc3c762	0.09559514
138	0xbdd2675e	-0.10273622
139	0xbdab065c	-0.08350822
140	0xbdb3c0ce	-0.08777009
141	0xbddb8498	-0.107186496
142	0xbdd47ffc	-0.103759736
143	0x3db7a3c0	0.0896678
144	0x3cdd7908	0.027035251
145	0xbad70480	-0.0016404539
146	0x3dd5989c	0.104294986
147	0xbd8fd010	-0.07022107
148	0x3d13169c	0.035910234
149	0x3dda9492	0.10672869
150	0xbdf20234	-0.118168265
151	0xbd91028c	-0.07080564
152	0xbcc52ec8	-0.024070159
153	0xbd19e75c	-0.037574157
154	0x3dac72fe	0.084203705
155	0x3ba169a0	0.0049259216
156	0x3dedf3f4	0.11618796
157	0x3d8826ac	0.06648001
158	0x3de19fec	0.11016831
159	0x3c4aca60	0.0123773515
160	0xbdc8fbf6	-0.09813683
161	0x3da38236	0.0798382
162	0x3dae8a64	0.0852249
163	0xbc7aef50	-0.015315846
164	0xbc9e0af8	-0.01929234
165	0xbc9ed9b0	-0.01939091
166	0xbd9cbc82	-0.076531425
167	0xbdf5c140	-0.1199975
168	0xbd8f6616	-0.07001893
169	0x3d19f910	0.03759104
170	0x3de4b1a4	0.11166695
171	0x3ddb2936	0.1070122
172	0xbdad4884	-0.08461097
173	0x3daebc64	0.085320264
174	0x3cb970d8	0.022636816
175	0x3d8110c8	0.06302029
176	0x3d0f2004	0.03494264
177	0xbc79c5b0	-0.015244886
178	0xbc6c5aa0	-0.014425904
179	0xbda3c5e2	-0.079967275
180	0xbc5eb500	-0.013592958
181	0xbda49d26	-0.08037786
182	0x3dbefdd2	0.09325756
183	0xbd09c734	-0.03363724
184	0xbd8c2e8a	-0.06844814
185	0xbd3b8df0	-0.04578966
186	0x3c3ec1e0	0.011642903
187	0x3d44d084	0.04805042
188	0x3d08b90c	0.0333796
189	0xbc82a368	-0.015947059
190	0xbded0000	-0.115722656
191	0x3d8352fe	0.06412314
192	0xbda86af4	-0.08223525
193	0x3cc68070	0.024231166
194	0xbde558c8	-0.11198574
195	0xbd9183a4	-0.071051866
196	0xbd77b8c4	-0.06047894
197	0xbdba4966	-0.09096031
198	0x3d8d946e	0.06913076
199	0x3dd71d68	0.10503656
200	0x3d119ccc	0.035549924
201	0x3d47bcdc	0.048764095
202	0xbcbf23b0	-0.023332447
203	0xbd43b260	-0.047777534
204	0xbc1e9e40	-0.009681284
205	0xbdba41d6	-0.090945885
206	0x3cd67580	0.026179075
207	0x3db79bb2	0.089652434
208	0x3cb8fa18	0.022580191
209	0xbd414b0c	-0.04719071
210	0xbd82e886	-0.063920066
211	0xbd9428cc	-0.07234344
212	0x3df762a0	0.12079358
213	0xbc3a79d0	-0.011381581
214	0x3bceb420	0.0063080937
215	0x3da09cbc	0.07842395
216	0x3d7da2d0	0.06192285
217	0x3c89fcf8	0.016844258
218	0x3d538700	0.051642418
219	0x3dfc4516	0.123178646
220	0xbde05b9e	-0.109549746
221	0x3dda058a	0.10645588
222	0xbdfde588	-0.12397295
223	0xbdf58e18	-0.11989993
224	0xbde0ded0	-0.10979998
225	0xbdc67264	-0.09689787
226	0x3c8c3358	0.017114326
227	0x3d7c7fac	0.061645195
228	0xbc94e938	-0.018177614
229	0xbcfd4d70	-0.030920714
230	0xbdab007e	-0.08349703
231	0x3dbc26d4	0.091870934
232	0x3dff242a	0.124580696
233	0xbd8e4b38	-0.069479406
234	0xbd2864f0	-0.041111887
235	0xbd396c40	-0.04526925
236	0x3d70e35c	0.058810577
237	0x3daf755e	0.08567308
238	0x3dce49cc	0.100726694
239	0xbd0fb954	-0.035088852
240	0x3d93115c	0.071810454
241	0x3db4b9d2	0.08824505
242	0xbd0ab190	-0.033860743
243	0xbdaec8dc	-0.08534405
244	0x3d51bec4	0.05120732
245	0x3de39178	0.1111173
246	0xbd909c8c	-0.07061109
247	0xbdb71a0e	-0.089405164
248	0x3de11ac4	0.10991433
249	0x3d110ce4	0.035412684
250	0x3c166650	0.009179667
251	0xbddc495a	-0.10756178
252	0xbde51e72	-0.111874476
253	0xbdf94050	-0.1217047
254	0xbd8967a4	-0.06709221
255	0x3d8ef840	0.06980944

layers.2.bias f4 [64]
0	0xbd3774f4	-0.04478927
1	0x3d0a2584	0.033727184
2	0xbdcd2dfa	-0.10018535
3	0xbdd90c04	-0.10597995
4	0x3c888f98	0.016670033
5	0x3d2b0218	0.041750044
6	0xbc5f8170	-0.0136417
7	0x3da3b654	0.07993761
8	0xbd810748	-0.06300217
9	0xbd9122a8	-0.07086688
10	0xbbf0ef60	-0.0073527545
11	0xbdfc8848	-0.12330681
12	0x3dfc4e50	0.123196244
13	0xbda6aba4	-0.081382066
14	0x3d94002e	0.07226597
15	0xbcecf0b0	-0.028923362
16	0xbd8e7ada	-0.06957026
17	0xbdab16e0	-0.083539724
18	0xbd1c2d30	-0.03812903
19	0xbc646230	-0.013939425
20	0x3defb350	0.11704123
21	0xbd8b464c	-0.068005174
22	0x3da18410	0.07886517
23	0xbd84bb12	-0.06480993
24	0x3cc29f40	0.023757577
25	0xbdd706ee	-0.104993686
26	0x3de652ba	0.112462476
27	0x3d856e58	0.06515187
28	0x3db2bd5c	0.08727524
29	0x3cc8abb0	0.02449593
30	0xbdb456b6	-0.08805601
31	0xbdd3b84c	-0.10337886
32	0x3ddf6528	0.10907966
33	0xbdfea932	-0.12434615
34	0x3da8aa70	0.082356334
35	0xbd58c238	-0.052919596
36	0x3a8c5200	0.001070559
37	0xba37e900	-0.00070156157
38	0xbdf3b210	-0.11899197
39	0x3def1b6c	0.11675152
40	0xbde38d48	-0.11110932
41	0x3d87a2de	0.06622861
42	0xbd8723e4	-0.065986425
43	0xbdd3abfc	-0.10335538
44	0xbdd35776	-0.10319416
45	0xbd17f44c	-0.037098214
46	0x3ce0aed8	0.027427122
47	0x3de4b128	0.111666024
48	0x3d14e3e8	0.03635016
49	0xbdfe9304	-0.12430385
50	0x3ad8c200	0.0016537309
51	0x3d0d4cf8	0.03449723
52	0x3dd560ca	0.10418852
53	0xbc49d370	-0.012318477
54	0x3d3b3084	0.045700565
55	0x3d3cae94	0.04606493
56	0x3db9e602	0.09077074
57	0x3c9c15d0	0.01905337
58	0xbc2c93b0	-0.010533258
59	0x3c415700	0.011800528
60	0x3d2dd564	0.042439833
61	0xbd513dd8	-0.05108437
62	0xbda24632	-0.07923545
63	0xbb30e600	-0.002699256

layers.4.weight f4 [64, 64]
0	0xbc86a2b0	-0.016434997
1	0x3df956a6	0.1217473
2	0xbbfe9540	-0.007769257
3	0x3db11b5a	0.08647795
4	0x3ba2bfe0	0.004966721
5	0x3dde368c	0.10850248
6	0x3d8addea	0.06780608
7	0xbd01965c	-0.031637534
8	0x39148000	0.00014162064
9	0x3d614420	0.05499661
10	0x3dc56fe6	0.096404836
11	0x3ccdd7f0	0.025127381
12	0x3d8dc418	0.069221675
13	0x3dc777d8	0.09739655
14	0xbdb9d904	-0.090745956
15	0x3c59ae30	0.013286158
16	0x3d874a92	0.0660602
17	0x3df23bf6	0.11827843
18	0xbdc2e892	-0.095170155
19	0xbc9f7400	-0.019464493
20	0x3daab050	0.0833441
21	0xbde65e9e	-0.112485155
22	0xbcb717a8	-0.022350147
23	0x3cea25c0	0.028582454
24	0x3c969410	0.018381149
25	0x3dde3e74	0.10851756
26	0x3d056708	0.03256896
27	0xbddfa886	-0.10920815
28	0x3dd59732	0.10429229
29	0x3d954c96	0.07289998
30	0x3d2cf43c	0.042225108
31	0x3cc30868	0.02380772
32	0xbd563608	-0.052297622
33	0xbd4a2568	-0.04935208
34	0xbda37e72	-0.07983102
35	0xbd5ae120	-0.053437352
36	0xbdb74a7e	-0.08949755
37	0x3c02cef0	0.007983908
38	0x3d196bb8	0.037456244
39	0x3cfef680	0.0311234
40	0xbde7ddcc	-0.11321601
41	0xbc931ac8	-0.017957106
42	0xbd7af168	-0.06126538
43	0xbcaa36d8	-0.020778105
44	0xbb487940	-0.0030589849
45	0x3d05b428	0.032642514
46	0xbddf20f8	-0.1089496
47	0xbd882d20	-0.06649232
48	0x3c25bff0	0.010116562
49	0xbd58d740	-0.052939653
50	0x3cea7148	0.02861847
51	0xbdd7adb2	-0.105311766
52	0x3cc48800	0.023990631
53	0x3da401c6	0.08008151
54	0x3d9d8c56	0.076927826
55	0xbda6e3ac	-0.08148894
56	0x3ca7ee90	0.020499498
57	0x3c72db40	0.014822781
58	0x3db6a874	0.08918849
59	0x3daa297a	0.08308692
60	0x3d90a3d2	0.07062496
61	0x3db32724	0.087477
62	0xbd457a68	-0.04821244
63	0x3df78e1e	0.120876536
64	0xbdc16da4	-0.094447404
65	0xbdec532a	-0.115393
66	0xbdcf8084	-0.10131934
67	0x3cb8c7a8	0.022556141
68	0xbdb47bbc	-0.08812663
69	0xbdb1de7e	-0.08685015
70	0x3da21592	0.079142705
71	0xbc8247f0	-0.015903443
72	0x3d7773e8	0.06041327
73	0xbdd742c4	-0.105107814
74	0xbded0384	-0.11572936
75	0xbdc6eec4	-0.0971351
76	0x3d09d5c0	0.033651114
77	0x3d8585f4	0.0651969
78	0x3d9a462e	0.07532917
79	0xbde23e98	-0.11047095
80	0xbcd46b90	-0.025930196
81	0xbcf83fe8	-0.03030391
82	0xb9183000	-0.00014513731
83	0xbd40e69c	-0.047094926
84	0xbd293cb8	-0.04131767
85	0x3d0d53d8	0.034503788
86	0xbd2a4630	-0.041570842
87	0xbdf99a60	-0.12187648
88	0xbdfbdd26	-0.1229804
89	0x3ceb1c88	0.028700128
90	0xbdd05c32	-0.10173835
91	0x3d5e77f4	0.054313615
92	0xbd318224	-0.043337002
93	0x3d7ab580	0.06120825
94	0x3da242f4	0.079229265
95	0xbdc3949e	-0.09549831
96	0x3dc8f78a	0.09812839
97	0x3de86bba	0.11348672
98	0xbde34820	-0.11097741
99	0x3c801458	0.0156347
100	0x3d80729e	0.062718615
101	0x3cb6c748	0.022311822
102	0xbd3223a8	-0.043491036
103	0x3d307bc0	0.043086767
104	0x3d97b3e4	0.07407358
105	0x3d495114	0.049149588
106	0xbd839936	-0.06425707
107	0xbd19f278	-0.03758475
108	0xbd025438	-0.0318186
109	0xbd854770	-0.06507766
110	0xbd5f9334	-0.054583743
111	0xbdfbaa94	-0.122883946
112	0x3d42bf04	0.047545448
113	0xbcbcf418	-0.023065612
114	0xbbf83940	-0.007575184
115	0x3acde280	0.0015707761
116	0x3da61fa2	0.08111502
117	0x3da35738	0.0797562
118	0x3db42266	0.087956235
119	0x3d995496	0.074868366
120	0x3d86daa4	0.06584671
121	0x3c332ba0	0.010935694
122	0x3d31ef68	0.043441206
123	0xbd832b4c	-0.064047426
124	0x3d8d0c2a	0.06887086
125	0xbd058e5c	-0.032606468
126	0x3c76bdc0	0.015059888
127	0x3db128e6	0.08650379
128	0xbda9958a	-0.082804754
129	0x3de82772	0.113356486
130	0x3d292880	0.04129839
131	0xbd3c2324	-0.04593195
132	0x3c956c90	0.018240243
133	0x3c222700	0.009896994
134	0x3b94d260	0.00454168
135	0x3d2d9308	0.042376548
136	0x3c7b2750	0.015329197
137	0x3d57385c	0.052543983
138	0xbd7a9a48	-0.06118229
139	0xbc860800	-0.016361237
140	0xbdf444d6	-0.11927192
141	0x3d270278	0.04077384
142	0x3ccc83e0	0.024965227
143	0xbd260260	-0.04052961
144	0xbd589a20	-0.05288136
145	0xbd0ec8ec	-0.034859583
146	0x3ca17510	0.01970914
147	0x3d1b652c	0.037938282
148	0xbd4f0dd8	-0.05055031
149	0x3da5aaf8	0.0808925
150	0x3c0440d0	0.008072093
151	0xbdd41dea	-0.10357268
152	0x3db8ee70	0.09029853
153	0xbb7c5840	-0.003850475
154	0x3cb35958	0.021893188
155	0xbb2cdac0	-0.0026375502
156	0xbd8e4168	-0.06946069
157	0xbd743648	-0.05962208
158	0x3d1aebf4	0.03782268
159	0xbd47d368	-0.048785597
160	0x3d77ad14	0.060467795
161	0xbdb124da	-0.08649607
162	0x3ce64f18	0.028113887
163	0xbb3c8600	-0.0028766394
164	0xbd9fe844	-0.07807973
165	0x3cead650	0.028666645
166	0x3d5bacf4	0.053631738
167	0xbd8db324	-0.06918934
168	0x3d424df0	0.04743761
169	0x3d564464	0.052311316
170	0x3cdf9220	0.027291358
171	0xbda4c7a0	-0.08045888
172	0x3dab2918	0.083574474
173	0xbd2f84dc	-0.042851314
174	0xbb94a400	-0.004536152
175	0x3dd1b74a	0.10240038
176	0x3df77a34	0.12083855
177	0x3da30834	0.07960549
178	0xbcd36df0	-0.025809258
179	0xbdf692cc	-0.12039718
180	0x3c4cb1b0	0.012493536
181	0x3dfba8ce	0.12288056
182	0x3cd4bda8	0.025969341
183	0xbdf7ae78	-0.12093824
184	0x3db861d4	0.09003034
185	0xbc1a9c60	-0.009436697
186	0xbd56992c	-0.05239217
187	0xbb0751c0	-0.0020648092
188	0xbc991860	-0.01868838
189	0xbd8ecb04	-0.06972316
190	0x3dfc0c6c	0.12307057
191	0xbdc1c0da	-0.09460612
192	0x3c2e4440	0.010636389
193	0xbd4af58c	-0.049550578
194	0x3d9bcd1c	0.07607481
195	0x3d3db270	0.04631275
196	0xbdc904f2	-0.09815396
197	0xbccc7d08	-0.024961963
198	0x3de54364	0.11194494
199	0x3d2d7970	0.04235214
200	0xbd0bbe6c	-0.034117147
201	0xbd92de7e	-0.07171343
202	0x3d907ea6	0.07055406
203	0x3d95eb7c	0.07320306
204	0x3d974abc	0.07387301
205	0xbce50ba0	-0.027959645
206	0xbdb12188	-0.08648974
207	0x3dee07da	0.11622591
208	0x3dba077a	0.09083457
209	0x3dea1f28	0.11431724
210	0xbc8fb9d0	-0.017544657
211	0xbc837150	-0.016045243
212	0x3cc1c630	0.023654073
213	0x3cf5ebf8	0.030019745
214	0x3d70e790	0.058814585
215	0xbd9d34f0	-0.07676113
216	0x3db516d8	0.08842248
217	0x3be3eaa0	0.0069554597
218	0xbdbb5e62	-0.091488615
219	0x3c98af98	0.018638417
220	0xbd9126c4	-0.07087472
221	0x3d30baec	0.043147013
222	0x3de7a2c6	0.113103434
223	0xbda433b4	-0.08017674
224	0x3c7f9020	0.015598327
225	0xbbcb0080	-0.006195128
226	0x3dae7616	0.08518617
227	0xbc42a4a0	-0.01188007
228	0xbdf3fc94	-0.1191341
229	0x3c22e040	0.009941161
230	0x3de2776e	0.11057936
231	0xbd75d6e4	-0.06001939
232	0x3d7b1ccc	0.06130676
233	0xbdc594c2	-0.09647514
234	0x3d00ab64	0.03141345
235	0xbdde929e	-0.10867809
236	0xbcf736e0	-0.030177534
237	0x3bd292e0	0.0064262003
238	0x3d1ccb70	0.03827995
239	0x3d290508	0.041264564
240	0x3d9bdd96	0.076106235
241	0x3da0e12c	0.07855448
242	0x3d11756c	0.035512373
243	0x3dc0b8f4	0.09410277
244	0x3ca1a990	0.019734174
245	0xbdc09c90	-0.09404862
246	0xbd770308	-0.060305625
247	0x3c2fe350	0.010735348
248	0xbdce7a94	-0.10081974
249	0x3d10a7a8	0.03531614
250	0x3cce7598	0.025202557
251	0x3da305c6	0.079600856
252	0x3dd7985e	0.105271086
253	0x3debeba8	0.11519557
254	0x3db0457a	0.086070016
255	0x3d805c62	0.062676206

layers.4.bias f4 [64]
0	0x3ddc4396	0.107550785
1	0xbd3114d0	-0.04323274
2	0xba285800	-0.00064218044
3	0x3dd22e34	0.10262719
4	0x3d9c355a	0.076273635
5	0x3d44b520	0.048024297
6	0x3b4910c0	0.003068015
7	0x3d198b0c	0.03748612
8	0xbd36e314	-0.044650152
9	0xbdaa6418	-0.083198726
10	0xbdf7499e	-0.12074588
11	0x3ded818e	0.11596976
12	0xbcfe9b08	-0.031079784
13	0x3dc4ea24	0.09614971
14	0xba7ceb00	-0.0009648055
15	0x3c00a560	0.0078519285
16	0xbc9ade40	-0.018904805
17	0x3d54fb88	0.05199769
18	0x3deecef6	0.116605684
19	0xbd0497ac	-0.032371208
20	0xbc6caf20	-0.01444605
21	0x3daece96	0.08535497
22	0xbcf25100	-0.02957964
23	0x3d0b527c	0.03401421
24	0x3c0c0820	0.008546859
25	0x3d3e1a18	0.046411604
26	0x3d0c94a4	0.034321442
27	0x3cec54a0	0.028848946
28	0xbb5f2f40	-0.0034055263
29	0x3dd4bb4e	0.10387288
30	0xba33e200	-0.0006861985
31	0xbc57a310	-0.013161436
32	0x3df01bbc	0.1172404
33	0xbdbb1cf2	-0.0913638
34	0xbdce653a	-0.10077901
35	0xbd93da5c	-0.07219383
36	0xbdf6187a	-0.12016387
37	0xbc7246c0	-0.014787376
38	0xbdd2462a	-0.10267289
39	0xbce709e8	-0.028202966
40	0xbd270598	-0.04077682
41	0x3d9f492c	0.07777628
42	0x3dabdce6	0.083917424
43	0xbd6f021c	-0.05835162
44	0xbc328ee0	-0.010898322
45	0xbb032e40	-0.002001658
46	0xbda7de34	-0.08196679
47	0x3c2cb320	0.010540754
48	0xbce223f0	-0.027605027
49	0xbd52b2fc	-0.051440224
50	0xbd004048	-0.031311303
51	0xbd9c1a30	-0.07622182
52	0xbdfb911a	-0.12283535
53	0xbdcc6c00	-0.09981537
54	0xbc993308	-0.018701091
55	0xbdff5ec6	-0.124692485
56	0xbc1ebee0	-0.009689063
57	0xbde3c102	-0.11120798
58	0x3d559008	0.052139312
59	0x3ccb73d0	0.024835497
60	0xbc3f9fa0	-0.011695772
61	0xbce87b58	-0.028379127
62	0xbd7b2200	-0.06131172
63	0x3d76b930	0.060235202

layers.6.weight f4 [64, 64]
0	0xbdbdaabc	-0.092610806
1	0xba85e200	-0.0010214448
2	0xbdd9f5cc	-0.10642585
3	0xbdd786c6	-0.10523753
4	0xbdb2c1ac	-0.08728346
5	0xbdcfc3e8	-0.10144788
6	0x3daef8a0	0.08543515
7	0x3c7b25a0	0.015328795
8	0xbd9d9f16	-0.07696359
9	0x3da87238	0.082249105
10	0x3d05f23c	0.032701716
11	0xbded1588	-0.115763724
12	0x3d8be478	0.06830686
13	0xbdfd7f80	-0.12377834
14	0x3d9a2304	0.0752621
15	0x3d7e5534	0.062092975
16	0x3d9c6a50	0.07637465
17	0xbb690400	-0.0035555363
18	0x3de70992	0.11281122
19	0x3ded1ac0	0.11577368
20	0xbdd755d4	-0.10514417
21	0x3dbc9ec0	0.09209967
22	0x3cfd3958	0.030911133
23	0x3daaa4ae	0.083321914
24	0xbdb02d82	-0.0860243
25	0xbdabb90a	-0.08384903
26	0x3dcd1aaa	0.100148514
27	0xbd2e74fc	-0.042592034
28	0xbd903890	-0.070420384
29	0xbd8a0a74	-0.06740275
30	0x3dc475ec	0.09592804
31	0x3dd0d730	0.10197294
32	0xbc4567b0	-0.012048647
33	0x3dc3a53a	0.09552999
34	0xbd285934	-0.041100696
35	0xbde66294	-0.11249271
36	0x3c2c1c70	0.010504827
37	0x3d2178a4	0.039421692
38	0xbc0934a0	-0.008374363
39	0xbdbdfdb2	-0.09276904
40	0xbd0aa7a8	-0.033851296
41	0x3ca4a9b0	0.020100445
42	0xbde0d9c4	-0.109790355
43	0xbd1e1d70	-0.038602293
44	0x3dd03478	0.101662576
45	0xbb9cf940	-0.004790455
46	0xbdf10650	-0.11768782
47	0x3db988ca	0.090592936
48	0xbd80bfc4	-0.062865764
49	0xbd092b54	-0.033488587
50	0x3d42e014	0.04757698
51	0xbd8cb68c	-0.068707556
52	0x3d6ebea4	0.058287278
53	0xbdb5a6ee	-0.0886973
54	0xbdfcf94c	-0.12352237
55	0x39b5f800	0.00034707785
56	0xbda63990	-0.08116448
57	0x3d8214ae	0.063516006
58	0xbca74e40	-0.020423055
59	0x3d6f4b20	0.058421254
60	0xbdbe66ca	-0.09296949
61	0x3d47611c	0.048676595
62	0xbd915a64	-0.07097319
63	0x3dec762e	0.115459785
64	0xbc3acca0	-0.011401325
65	0xbc377250	-0.011196688
66	0x3d9fc938	0.07802051
67	0x3d1f07c8	0.03882578
68	0x3d0e5c30	0.034755886
69	0xbd279284	-0.040911213
70	0x3c8f4188	0.017487302
71	0x3d52a200	0.051424026
72	0xbdb5b338	-0.08872074
73	0xbd4d444c	-0.05011396
74	0x3b5aae80	0.003336817
75	0x3df037be	0.11729382
76	0xbda6bb28	-0.08141166
77	0x3c9208a8	0.017826393
78	0x3d9bc8a4	0.076066285
79	0x3decbe2e	0.115597114
80	0xbdc0523a	-0.093906835
81	0xbcdb8100	-0.02679491
82	0xbd5e63f4	-0.05429454
83	0x3d801bb0	0.06255281
84	0x3dd56364	0.10419348
85	0xbdaa187c	-0.08305451
86	0xbc817810	-0.01580432
87	0x3db95cde	0.09050916
88	0x3ce1d610	0.027567893
89	0x3cf91358	0.030404732
90	0x3dba549c	0.09098169
91	0x3d40b308	0.047045738
92	0xbd83902a	-0.064239815
93	0xbc9ac078	-0.018890604
94	0x3d9f986a	0.077927426
95	0xbd75f480	-0.060047626
96	0xbdb5289a	-0.08845635
97	0x3d07a838	0.03311941
98	0xbdc637b6	-0.09678595
99	0x3dc84cc0	0.09780264
100	0x3d9ddf28	0.07708579
101	0x3d6288c0	0.055306196
102	0xbda08fb6	-0.07839911
103	0x3dd0150c	0.101602644
104	0x3ca29a90	0.019849092
105	0xbd2e20a4	-0.042511597
106	0xbce07568	-0.027399734
107	0xbcd21d28	-0.025648668
108	0x3d8e0da4	0.069361955
109	0x3dae2260	0.0850265
110	0xbd01eb84	-0.031718746
111	0x3dc7acd8	0.09749764
112	0xbd511d20	-0.051053166
113	0xbd1e4e10	-0.038648665
114	0xbdb12c60	-0.08651042
115	0x3d6b61f4	0.057466462
116	0x3dda65de	0.10663961
117	0x3c61a560	0.013772339
118	0xb9047000	-0.00012630224
119	0x3d940888	0.0722819
120	0x3d8f36bc	0.06992862
121	0xbd9db444	-0.077003986
122	0xbd0ffdac	-0.03515403
123	0x3dbe73da	0.09299441
124	0x3d999eac	0.075009674
125	0xbd186e68	-0.037214667
126	0x3d310ab4	0.043223098
127	0xbdc07f14	-0.09399238
128	0xbdafdff2	-0.08587636
129	0xbcd824e0	-0.02638477
130	0xbd63c404	-0.055606857
131	0xbd4de5d8	-0.050268024
132	0xbdb51da8	-0.08843547
133	0x3de871e6	0.113498494
134	0xbc7e9cd0	-0.015540317
135	0xbda3d0b2	-0.0799879
136	0x3de9d190	0.11416924
137	0xbd09aac0	-0.033610106
138	0xbc4de9e0	-0.012567967
139	0xbd2f7914	-0.04284008
140	0xbd4888b4	-0.048958495
141	0xbc6c62e0	-0.0144278705
142	0xbdf95fd8	-0.12176484
143	0xbddbc0ca	-0.10730131
144	0xbdbc4b12	-0.09194006
145	0xbd9bbf2a	-0.07604821
146	0xbdfea04c	-0.12432918
147	0xbd2c95e4	-0.042135134
148	0xbd264f78	-0.04060313
149	0xbdc5015e	-0.096194014
150	0xbd94f29e	-0.07272838
151	0x3bfbd4a0	0.007685259
152	0x3c24a0f0	0.010048136
153	0x3d36d494	0.044636324
154	0xbcc47610	-0.023982078
155	0xbd17fb30	-0.037104785
156	0xbdacd194	-0.08438411
157	0xbcd084b0	-0.025453895
158	0xbcc76288	-0.024338976
159	0x3d3f3ccc	0.04668884
160	0xbd7b5ac4	-0.061365858
161	0x3d9530a4	0.07284668
162	0x3c5f4780	0.013627887
163	0x3d538134	0.05163689
164	0x3dd48306	0.10376553
165	0x3d613388	0.054980785
166	0x3dca0216	0.09863679
167	0xbd91b80e	-0.07115184
168	0xbd925aaa	-0.07146199
169	0x3dc01be4	0.0938032
170	0x3d945944	0.072435886
171	0xbda75cfe	-0.08172034
172	0x3d87c6fa	0.06629749
173	0xbdd28876	-0.10279934
174	0xbdacef24	-0.0844405
175	0x3d61389c	0.054985628
176	0x3dc112e4	0.09427431
177	0xbd36e038	-0.044647425
178	0xbdcde15a	-0.10052748
179	0xbd25d2e4	-0.040484324
180	0x3df441ee	0.119266376
181	0x3d656b24	0.05601038
182	0xbd5674f0	-0.052357614
183	0xbd971446	-0.07376914
184	0xbd7888e4	-0.060677424
185	0x3da851a6	0.08218698
186	0x3dc03578	0.09385198
187	0xbd280b28	-0.041026264
188	0x3d087bf4	0.033321336
189	0xbc105b40	-0.008810818
190	0x3d5ccfd4	0.053909138
191	0xbd884fde	-0.066558585
192	0xbd913438	-0.07090038
193	0x3de82bba	0.11336465
194	0xba88d800	-0.001044035
195	0x3d0a6588	0.033788234
196	0xbd4bf588	-0.049794704
197	0x3d960790	0.07325661
198	0xbbe01e40	-0.0068395436
199	0xbd6200ac	-0.055176422
200	0x3db5f016	0.088836834
201	0x3dae26ee	0.08503519
202	0xbd52c91c	-0.051461324
203	0xbd5ed6e8	-0.05440417
204	0x3bb5e280	0.0055506825
205	0x3d61b200	0.055101395
206	0x3d867de0	0.065669775
207	0xbd2b1ce0	-0.041775584
208	0x3db295d2	0.08719982
209	0xbcd55ad8	-0.026044294
210	0xbc479b70	-0.012183055
211	0x3cc1c748	0.023654595
212	0x3cc78268	0.024354175
213	0x3d556c18	0.05210504
214	0xbca64548	-0.020296708
215	0xbd2e7038	-0.04258749
216	0x3dd08e96	0.10183446
217	0xbd999bec	-0.07500443
218	0xbda317ce	-0.07963525
219	0x3d220dc4	0.03956391
220	0xbd46ac04	-0.04850389
221	0xbde215d8	-0.110393226
222	0xbc54f380	-0.012997508
223	0x3a4cf200	0.0007818043
224	0x3dda40b2	0.10656871
225	0xbc061830	-0.008184478
226	0x3de9d04c	0.114166826
227	0xbdfbf3c6	-0.123023555
228	0xbd8480a4	-0.06469849
229	0xbcf47350	-0.029840142
230	0x3c82f438	0.015985593
231	0x3d2de640	0.04245591
232	0xbdd55d1c	-0.1041815
233	0x3d4c2444	0.049839273
234	0x3d3ba348	0.045810014
235	0xbc20ea20	-0.009821445
236	0xbde58af2	-0.11208142
237	0x3d862518	0.06550044
238	0xbde8f520	-0.11374879
239	0xbd56b278	-0.052416295
240	0x3deb387c	0.11485383
241	0x3da0d500	0.078531265
242	0x3ded91d4	0.1160008
243	0xbdbeaf8e	-0.09310828
244	0xbd98f0a8	-0.074677765
245	0x3c859a20	0.016308844
246	0x3db0ae46	0.0862699
247	0xbcbd98e8	-0.0231442
248	0xbc0b34f0	-0.008496508
249	0x3de59f62	0.112120405
250	0xbcac01b0	-0.020996898
251	0xbdcb20d0	-0.09918368
252	0x3dc9938e	0.09842597
253	0x3dce5604	0.10075
254	0x3dd5b762	0.10435368
255	0xbcbd7638	-0.02312766

layers.6.bias f4 [64]
0	0x3d18c508	0.03729728
1	0x3d762580	0.060094357
2	0xbcd3c998	-0.025852963
3	0x3dad9a2e	0.08476673
4	0x3dd50896	0.10402028
5	0x3cea8520	0.028627932
6	0xbd65e908	-0.05613044
7	0x3db7cfca	0.089751795
8	0x3da4ceae	0.080472335
9	0xbd9ab4b2	-0.07553996
10	0xbd821650	-0.06351912
11	0xbd06f600	-0.032949448
12	0x3d871afa	0.06596942
13	0xbdbf9e50	-0.093563676
14	0xbad85e80	-0.0016507655
15	0x3d97d828	0.074142754
16	0x3cdc52d0	0.026894957
17	0xbd550494	-0.05200632
18	0xbda70354	-0.08154932
19	0xbd13bed0	-0.036070645
20	0x3d550830	0.05200976
21	0x3daeece6	0.085412785
22	0xbb9a3d20	-0.0047069937
23	0xbda8dd06	-0.08245282
24	0xbd9256e6	-0.07145481
25	0xbd7bfc60	-0.06151998
26	0x3dcda95a	0.10042067
27	0x3d50cbc8	0.05097559
28	0x3da2c6d6	0.07948081
29	0x3dea0358	0.11426419
30	0xbc8ea260	-0.01741141
31	0xbd4fbd30	-0.050717533
32	0xbca603b8	-0.020265445
33	0xbd27ef14	-0.040999487
34	0x3d9d1c40	0.07671404
35	0xbda4a7fe	-0.080398545
36	0x3d52b8e4	0.051445857
37	0x3d86dd5c	0.0658519
38	0xbdc42674	-0.09577647
39	0xbd6fc39c	-0.058536157
40	0xbd3dade4	-0.046308413
41	0x3df92fba	0.12167306
42	0xbd977bcc	-0.07396659
43	0x3a941a00	0.0011299253
44	0xbdf9d66e	-0.12199102
45	0x3d5b3954	0.05352147
46	0xbd0fbf18	-0.03509435
47	0xbb359e00	-0.0027712584
48	0x3cb71b88	0.022351995
49	0xbd88b78a	-0.06675632
50	0xbbb22200	-0.005436182
51	0xbd764a9c	-0.060129747
52	0xbbb42b20	-0.005498305
53	0x3dd01edc	0.10162136
54	0x3cc86c10	0.02446559
55	0xbd8ec3be	-0.069709286
56	0x3d0a144c	0.033710763
57	0xbda9c60e	-0.08289729
58	0xbd2e5064	-0.042557135
59	0xbd788ac0	-0.060679197
60	0xbaf07d80	-0.0018347949
61	0x3cb0cc70	0.021581858
62	0xbcc763a0	-0.024339497
63	0x3d5fcfe8	0.054641634

layers.8.weight f4 [1, 64]
0	0xbd78e318	-0.06076345
1	0x3d08a4b4	0.0333602
2	0x3c560bc0	0.013064325
3	0x3c811c18	0.015760466
4	0xbda02444	-0.07819417
5	0x3d5806a4	0.052740708
6	0x3b7f5f00	0.0038966537
7	0xbdd2e150	-0.10296881
8	0x3df68cec	0.120385975
9	0xbd4be320	-0.04977715
10	0x3dabb9e8	0.08385068
11	0xbd9c4ee2	-0.07632233
12	0x3ca9d250	0.020730168
13	0x3c3bc590	0.011460677
14	0x3dcc285a	0.09968634
15	0x3d3ee5b4	0.04660578
16	0x3da9a814	0.082840115
17	0x3d86768a	0.06565578
18	0x3d11f778	0.035636395
19	0x3c845948	0.016155854
20	0xbdb4cd8a	-0.08828266
21	0x3d44b01c	0.048019513
22	0x3ddd1c7e	0.1079645
23	0x3df90a2e	0.12160145
24	0xbddec236	-0.108768865
25	0x3dd9fca6	0.10643892
26	0xbd01403c	-0.0315554
27	0x3d53062c	0.051519558
28	0xbc4a6150	-0.012352303
29	0x3a892500	0.0010463297
30	0xbd376c20	-0.04478085
31	0x3ddab3a2	0.106787935
32	0x3d9e3c98	0.07726401
33	0x3da0c596	0.078501865
34	0xbd78badc	-0.060725078
35	0xbdc4f9e0	-0.096179724
36	0xbd95314c	-0.07284793
37	0xbd114410	-0.0354653
38	0xbcc2f1b0	-0.023796886
39	0xbd6b7bf4	-0.057491258
40	0xbc6c1380	-0.014408946
41	0x3d4b4ca8	0.049633652
42	0xbb80ce20	-0.003930822
43	0x3dfc6b9a	0.12325211
44	0xbd1454bc	-0.03621362
45	0x3dc42e1e	0.09579109
46	0xbd052e18	-0.03251466
47	0xbd3cd03c	-0.046097025
48	0xbdf50fc8	-0.11965901
49	0xbded1658	-0.11576527
50	0xbc94a950	-0.01814714
51	0x3dbdda3e	0.09270142
52	0x3d8b5820	0.06803918
53	0xbd756d50	-0.0599187
54	0x3d1b9834	0.03798695
55	0x3ddc71ae	0.1076387
56	0x3cb01d98	0.021498486
57	0x3d8f5c56	0.070000336
58	0xbd84b552	-0.064798966
59	0xbdf8e09e	-0.12152217
60	0xbd805348	-0.06265885
61	0xbdbc2a52	-0.091877595
62	0xbb889000	-0.0041675568
63	0xbdc78e60	-0.09743953
