GraphClustering/Network/GFlowNetForward.pt (torch, 4303 bytes, 3 tensors)

layers.0.weight f4 [32, 18]
000000 21 3a 4d be f6 6d cb 3d 90 bd 43 3c ab 69 4c 3e
       -0.20041706 0.09933083 0.011947051 0.19962184
000010 f8 6c c9 3c 8a fd 05 be 68 fb 09 be 8c 7d 4e 3d
       0.024588093 -0.13084999 -0.1347481 0.0504127
000020 56 1c d2 3d 20 0b 8a bb f8 2d a5 3c 58 2a a9 bc
       0.10259311 -0.004212752 0.020163521 -0.020650074
000030 6d b7 41 be cd 1a 1c 3e f4 cd 4d 3d 0b 30 1e 3e
       -0.18917628 0.15244599 0.05024524 0.15448014
000040 c8 30 05 bd 90 5e ed bc 6f e1 1f 3e 00 f9 ff bb
       -0.032517225 -0.028975755 0.1561334 -0.0078116655
000050 28 d6 bf bd 06 fe 4e be 60 26 1f bd b1 1a 0a be
       -0.09367019 -0.2021409 -0.038854957 -0.13486744
000060 e0 25 e9 bc 6b 0f 0a 3e 09 bf 3b 3e 17 12 49 3e
       -0.028460443 0.13482444 0.18334593 0.19635807
000070 be 4b af 3d fe 54 fd 3d 8a c8 b3 3d 8d 53 f8 bd
       0.085593686 0.123697266 0.08778484 -0.12125311
000080 62 f1 39 be a7 79 34 3e d0 bf 7e bd dd 0b 2f 3e
       -0.18158486 0.17624532 -0.062194645 0.17094369
000090 97 aa 4e 3e 2e 64 5a be ba 59 cd 3d dc 01 05 be
       0.20182262 -0.21327278 0.100268796 -0.1298899
0000a0 46 b2 fc 3d c4 1d 59 3d 04 cf 2b 3d a4 84 6b bd
       0.123386905 0.053006902 0.041945472 -0.057499543
0000b0 35 34 42 be 49 0c 46 3e 2d af 2b 3e d7 f8 3e 3e
       -0.18965228 0.19340624 0.16766043 0.18649612
0000c0 bc c9 1e be 40 ad 23 be b0 2b 55 bc a4 8b 9a bd
       -0.15506643 -0.15984058 -0.013010904 -0.075461656
0000d0 68 c3 b2 bd 5c 94 8c bd 10 38 59 bc 99 df 30 be
       -0.08728677 -0.06864235 -0.013257995 -0.17272796
0000e0 f4 3b 29 be 7a d1 d6 3d 8d 78 4c be ed bf 0d 3e
       -0.16526777 0.10489173 -0.19967861 0.13842745
0000f0 c8 c2 91 3c 40 f1 07 be aa 65 bc bd 0e e3 51 be
       0.017793074 -0.13275623 -0.091990784 -0.2049677
000100 72 c9 16 be ef 65 13 3e eb f5 63 3e 4e c7 c5 3d
       -0.14725283 0.14394353 0.22261779 0.09657155
000110 3f ce 31 3e 68 fa b0 bc 92 34 38 be 8f 23 2f 3e
       0.17363833 -0.021603778 -0.17988804 0.17103408
000120 a6 ff 92 bd 36 a7 9b 3d 8c db 3e bd 68 b4 e5 3c
       -0.07177667 0.07600252 -0.046596095 0.028040126
000130 3c 79 51 3d 5c b5 35 3d 40 82 69 bb 30 db c2 bc
       0.05114101 0.04436241 -0.0035630614 -0.023786157
000140 ff a2 43 be ac b5 78 3d 20 77 cd bc 28 0a 8d bc
       -0.19105147 0.06072013 -0.025081217 -0.017216757
000150 74 92 39 3d fc 56 59 3d 8a 99 e4 3d 99 fb 5c 3e
       0.045305684 0.05306147 0.11162098 0.21580352
000160 a3 dc 10 3e 32 2b be 3d 12 3a 82 3d 97 6a 20 be
       0.14146666 0.092855826 0.06358732 -0.15665661
000170 82 91 93 bd 4a 1a e9 bd f4 53 3f 3d 48 c7 f4 bc
       -0.07205488 -0.11381967 0.046710923 -0.029880181
000180 14 8a 98 bd d2 92 12 be 38 a6 fd 3c 00 b0 f6 ba
       -0.07448211 -0.1431382 0.030963048 -0.0018820763
000190 29 e3 43 3e 5c 14 23 3d 08 ec 84 3c 57 20 67 3e
       0.19129623 0.039814338 0.01622583 0.2257093
0001a0 c3 89 6b 3e 68 e8 c3 bd 4d a7 3a be 20 aa 10 bd
       0.2300177 -0.09565812 -0.18227883 -0.035318494
0001b0 46 29 ae 3d e4 39 40 be e2 99 a6 bd b6 3b 99 3d
       0.08503966 -0.18772084 -0.081348196 0.07482092
0001c0 00 3f 91 bb 5f 2f 2c 3e 3d 95 1b 3e 4d 1b 2c be
       -0.004432559 0.16814946 0.15193649 -0.1680729
0001d0 0e 9a f7 3d b0 67 39 be 6f dd 28 3e 78 53 62 bd
       0.120899305 -0.1810596 0.1649072 -0.055255383
0001e0 c7 54 37 be 81 8d 4e be 27 3c 56 be 3b f3 4d 3e
       -0.17903434 -0.20171167 -0.20921384 0.20112316
0001f0 02 2a df 3d 80 df c6 bd 3a 55 af 3d 23 16 4e be
       0.10896684 -0.09710598 0.085611776 -0.20125632
000200 3c e1 0a be 35 24 52 be 2a e7 96 3d 76 cf c8 bd
       -0.13562483 -0.20521624 0.0736831 -0.09805195
000210 e0 b5 35 be f3 f5 67 3e 50 90 bb bc fd 69 10 3e
       -0.17745161 0.22652416 -0.022895962 0.14102931
000220 14 48 3c bd 82 56 14 be e9 3f 4e 3e 0a 24 d6 3d
       -0.045967177 -0.14486125 0.20141567 0.10456093
000230 4c d9 38 be 72 8e 6d be 95 6d 26 3e 8c 25 c7 bd
       -0.18051642 -0.2319887 0.1625274 -0.097239584
000240 2c 43 e4 bd 80 15 8f bb 5e 6e 8f 3d dc c5 58 be
       -0.111456245 -0.0043665767 0.07003473 -0.21169227
000250 2d 0b 10 3e 1d 60 07 be 5c eb 46 bd f6 2a 2b be
       0.14066763 -0.13220258 -0.0485643 -0.16715607
000260 82 90 a8 3d fe e1 33 be 95 36 34 3e 64 ef 0a be
       0.08230688 -0.17566678 0.17598946 -0.13567883
000270 19 b2 0e 3e 00 c9 61 bc ba 26 61 be d0 5a 11 bc
       0.13935126 -0.013780832 -0.2198743 -0.008871749
000280 14 2e 6b be 3c e5 59 bd ad 33 68 3e dd 6f 1b 3e
       -0.22966796 -0.05319713 0.22675963 0.15179391
000290 10 95 11 be 8b f1 32 3e e2 f8 aa 3d 5c 2c 66 be
       -0.14217019 0.17474954 0.08348252 -0.2247786
0002a0 23 13 5f 3e e9 35 6f 3e 0e 08 84 bd b4 a0 58 bd
       0.21784644 0.23360409 -0.06446849 -0.052887633
0002b0 38 97 10 bd 24 12 4f be 04 89 38 be d6 af e2 3d
       -0.035300463 -0.20221764 -0.18021017 0.11068694
0002c0 4d 12 45 be eb cc 0d be 24 1e 1e 3d 0e 75 5e be
       -0.19245262 -0.13847701 0.038602963 -0.2172434
0002d0 5c 6a bb bd 88 ec ac bc 76 98 b9 bd 70 82 6d bc
       -0.09151146 -0.02110888 -0.09062283 -0.014496431
0002e0 0a ba f2 3d c3 da 14 3e 1e 78 d1 3d 50 14 6c be
       0.118518904 0.14536576 0.10227989 -0.23054624
0002f0 d6 40 cc 3d e0 87 3e bc 00 40 69 37 30 3f d1 bd
       0.09973304 -0.011629075 1.3902783e-05 -0.1021713
000300 43 2b f1 bd 42 68 d6 3d c6 e0 c5 bd 7f ac e8 bd
       -0.1177583 0.10469104 -0.09662013 -0.11361026
000310 80 48 e7 3a 3a b1 51 be 57 c7 6e be fc f2 e8 bd
       0.0017645508 -0.20477763 -0.2331823 -0.113744706
000320 9c 93 1e be 8e b7 12 be 1b cb 37 be 4a 5c 99 3d
       -0.15485996 -0.14327833 -0.17948572 0.07488306
000330 bb da 2d be b0 e1 79 bd e9 63 42 3e 00 43 5e ba
       -0.1697797 -0.061006248 0.18983425 -0.00084786117
000340 30 04 0b bc ed df 3c 3e 38 7a 94 bc 4a 23 87 bd
       -0.008484885 0.18444796 -0.018124685 -0.06598528
000350 1a 60 be 3d c8 a5 47 be 9e da aa bd db 5b 6a 3e
       0.09295674 -0.19496834 -0.08342479 0.22886603
000360 dc 8b 84 bd aa 1a c6 3d 45 ae 4a 3e c0 3a ac bb
       -0.064719886 0.096730545 0.19793041 -0.005256027
000370 8c 33 10 be 80 25 7a bd 78 23 9d bd 51 22 0e be
       -0.14082164 -0.06107092 -0.07672781 -0.13880278
000380 d8 07 71 bd 83 e9 21 3e 2c c8 39 3d b2 8b a8 3d
       -0.05884537 0.15811734 0.045356914 0.0822977
000390 00 d6 ba bc 40 3b df bb b6 73 24 be dd 93 34 be
       -0.022807121 -0.006812483 -0.16059765 -0.1763453
0003a0 40 e7 47 bb 50 ab 5b bd d0 05 28 bd f6 ec 84 3d
       -0.0030502826 -0.053630173 -0.04102117 0.06490509
0003b0 6b 10 41 3e 99 04 52 be cf ef 2d 3e b8 25 84 3c
       0.18853919 -0.20509566 0.16986011 0.016131267
0003c0 60 08 ef bb fb 4d 4a 3e 21 c8 fb bd 29 be fe bd
       -0.0072946995 0.1975631 -0.12294031 -0.12438614
0003d0 c7 a9 00 3e f6 28 91 3d 5c e6 44 be 34 e3 5f 3d
       0.12564765 0.07087891 -0.192285 0.054660037
0003e0 4c f7 4e be 69 5b 43 3e 02 11 12 be 98 c3 4d bd
       -0.20211524 0.19077839 -0.142643 -0.05023536
0003f0 2a d6 c1 3d aa 2e dd bd 81 33 59 3e 00 f6 2d bd
       0.09464677 -0.10799916 0.21211053 -0.042470932

layers.0.bias f4 [32]
000000 9c 2a 51 3d 21 8a 5a 3e 5f 28 37 3e 47 78 48 be
       0.051066026 0.21341754 0.17886494 -0.19577132
000010 1d 2c 10 3e 72 c4 29 be c6 9d f8 3d 93 62 19 be
       0.14079328 -0.16578844 0.12139468 -0.1497901
000020 47 6d 31 3e e6 ee e7 3d 84 b0 a9 bd 58 a7 c6 3c
       0.17326842 0.11324863 -0.08285621 0.024249718
000030 08 ae 83 3c 52 16 d3 bd 77 5d 5f 3e c0 1e e4 3b
       0.016074196 -0.10306992 0.21812998 0.0069616735
000040 78 fe 08 be d0 e9 29 bc f0 e4 9f bc 78 b4 8e 3c
       -0.13378322 -0.010370687 -0.019518346 0.017420039
000050 76 bd 86 bd 80 a6 18 be 25 8e 63 3e bf a4 18 3e
       -0.065791056 -0.14907265 0.22222193 0.14906596
000060 1e 10 b0 3d c4 16 70 3d c6 9e 8a bd bf 6a ed bd
       0.08596824 0.05861546 -0.06768565 -0.11592626
000070 67 97 4c 3e 72 ba c5 bd 81 a5 25 3e aa 1a bb 3d
       0.1997963 -0.09654702 0.16176416 0.09135945

layers.2.weight f4 [1, 32]
000000 8b ad 05 be d0 16 bd bc f8 99 1b bd 95 62 d7 bd
       -0.13054483 -0.023082167 -0.037988633 -0.1051685
000010 d8 1f b9 3c f2 59 c7 3d 10 ec 31 bd ee bb af 3d
       0.022598192 0.097339526 -0.043438017 0.085807666
000020 68 c6 29 3d 42 cf de 3d d4 98 52 bd 96 59 09 be
       0.04144898 0.10879375 -0.05141528 -0.1341308
000030 05 09 e7 bd 10 41 e3 bc 2c f7 4e bd a8 1b a2 bc
       -0.11281017 -0.027740985 -0.05052869 -0.019788578
000040 e8 da e3 bd 00 9d 59 bb 49 d3 1a 3e ec 5e 53 bd
       -0.111257374 -0.0033205152 0.15119661 -0.051604196
000050 36 bc e4 3d 05 22 ce bd 5d cd dc bd 53 85 2e 3e
       0.11168711 -0.100650825 -0.107813574 0.17043047
000060 38 78 7e bd 4b 6c b8 bd 7a be 6c bd 7c 6b 17 bd
       -0.06212637 -0.0900503 -0.05779884 -0.03696774
000070 64 a5 2e bd 2c 17 14 3d e8 a5 17 3d 54 d9 d8 bd
       -0.042638198 0.03615491 0.037023455 -0.10588327
