GraphClustering/LargeGraphs/Karate_0_100_1_o_Forward0.pt (torch, 298059 bytes, 3 tensors)

layers.0.weight f4 [32, 2312]
-0.008389159 -0.008646803 0.01650037 0.0027477778 0.012829656 -0.007357181 -0.019309426 -0.0040846393
-0.005864905 0.018480862 -0.018624963 -0.013699977 -0.005753573 -0.0068715103 0.009909857 -0.011323298
0.0039845463 -0.011486709 0.0032777209 -0.004107645 0.012840571 -0.008118162 0.0014835391 0.012733998
-0.00087849237 0.011541506 0.015001299 0.020749947 0.01134971 0.019013206 0.0009385608 -0.0043037888
-0.012765185 0.013027186 -0.0014493056 -0.0036048498 0.01884097 -0.012384356 0.005598737 -0.00024915487
0.017936384 0.0039804652 0.0016534608 -0.009214799 -0.010604997 -0.0019804016 -0.008948089 -0.008361595
0.006055832 -0.018941278 0.012756595 -0.012565215 0.020750893 0.019603798 0.00814206 -0.0013794415
-0.0097505795 0.0012949742 0.011032822 0.0021874085 -0.000746334 -0.0035819635 -0.0077535966 -0.020365657
-0.01184321 0.007658895 0.01759285 -0.018460158 0.00025436096 0.016044395 -0.008366856 0.0035324395
0.01905485 0.0016942434 -0.014427654 -0.010273547 -0.010157896 -0.0049376264 -0.014392747 -0.01349437
0.010647805 0.004525954 -0.004818069 0.011014143 0.0050833095 0.006090807 -0.01040419 -0.003904175
0.019511087 0.004805982 -0.018822368 0.013838837 -0.0025167055 0.0030167866 0.010387337 -0.008178115
0.009358287 -0.015418693 -0.014909366 0.018945413 -0.0010820907 -0.008125 -0.0121562965 0.011157306
-0.0006176289 0.014154622 0.00016107038 -0.0006934721 -0.015459631 0.013961548 0.009166626 0.0078056436
0.017936992 0.0002934914 0.0030104704 0.010081638 -0.014064976 -0.00548173 -0.0027507395 -0.014399332
-0.0064522214 0.007925307 -0.015416015 0.020684125 -0.013581663 -0.001120178 0.011843657 0.0044126287
0.005783884 -0.019130182 -0.01435875 0.0058115795 -0.0072078947 0.00427334 0.014937831 -0.015425324
-0.007402911 0.0014536902 -0.012059961 0.020627765 -0.01572095 0.01419354 -0.014352467 0.014996113
-0.014768016 0.016523754 -0.018326359 -0.014524965 0.0049697943 -0.017675128 -0.016981615 -0.0058992375
0.016805323 -0.016657516 0.010114051 -0.020263506 -0.0028523393 -0.009391369 -0.004862584 -0.0056267334
-0.0010539703 0.018974109 0.0010899045 -0.019635364 -0.0010250509 -0.007864341 0.0074932165 3.2594427e-05
0.018907653 -0.008599715 0.010696331 -0.012954044 0.0026704036 0.004246339 -0.00925409 -0.017071057
0.0048786383 0.015152829 -0.013144387 0.011599621 -0.0011978038 -0.016994229 -0.018171728 0.012083331
-0.0026166756 0.018629791 0.010122655 0.0031413008 0.012873935 6.890111e-05 -0.010920834 -0.017461106
0.0071103163 0.013256839 0.01086949 0.016686028 -0.01710069 0.01804656 -0.0004583057 -0.016940301
0.009503566 0.018681059 0.007567214 -0.01118265 0.018754212 0.0060066376 -0.018978486 -0.0145867765
0.014047159 -0.00913619 -0.008743545 0.0084076915 0.018863225 0.009313254 0.011518465 0.011682967
-0.012747515 0.02074852 -0.017184941 -0.016798094 0.014441611 -0.013638465 -0.00930205 -0.010624398
0.006166421 0.008784026 -0.00043258443 -0.0057434225 0.012727147 -0.01373902 -0.015429983 -0.01234207
-0.013979845 -0.0037753936 -0.017737506 -0.0020728707 -0.017840305 -0.005639647 -0.010285544 0.02052545
0.012446204 0.013782097 0.0026712548 0.009712832 0.006096272 -0.013912278 -0.01964482 0.020172114
-0.00863342 0.0049120337 -0.0020599868 -0.0039280336 0.0006394759 -0.0013459716 -0.018000113 0.020710966
00000000: af72 09bc 52ab 0dbc c92b 873c 1014 343b
00000010: 7a33 523c 8214 f1bb cd2e 9ebc 70d8 85bb
00000020: 642e c0bb 2d65 973c 6193 98bc de75 60bc
00000030: 7888 bcbb 682a e1bb f45c 223c 5b85 39bc
00000040: cc90 823b c032 3cbc 08cf 563b 6c99 86bb
00000050: 4261 523c 0a02 05bc 5073 c23a 42a2 503c
00000060: a04a 66ba 9618 3d3c 02c8 753c cbfb a93c
00000070: 22f4 393c 95c1 9b3c c009 763a cc06 8dbb
00000080: 1125 51bc fa6f 553c a0f6 bdba 583f 6cbb
00000090: 6158 9a3c c1e7 4abc 9c75 b73b 00a1 82b9
000000a0: 53ef 923c 906e 823b f0b8 d83a abf9 16bc
000000b0: 95c0 2dbc a0c9 01bb 019b 12bc 12ff 08bc
000000c0: 0070 c63b bd2a 9bbc 0a01 513c 55de 4dbc
000000d0: c7fd a93c 2598 a03c 4666 053c 60ce b4ba
000000e0: e5c0 1fbc 20bc a93a 02c3 343c a05a 0f3b
000000f0: a0a5 43ba 60bf 6abb e211 febb e1d5 a6bc
00000100: 060a 42bc 78f7 fa3b e11e 903c c239 97bc
00000110: c05b 8539 896f 833c 2315 09bc 8080 673b
00000120: eb18 9c3c 6011 de3a f861 6cbc 6152 28bc
00000130: 4e6d 26bc d0cb a1bb 8ecf 6bbc 7d17 5dbc
00000140: 2274 2e3c 744e 943b e4e0 9dbb aa74 343c
00000150: e491 a63b 6495 c73b 5676 2abc 30dd 7fbb
00000160: b7d5 9f3c 807b 9d3b 5e31 9abc 4abc 623c
00000170: 50ef 24bb 48b5 453b a62f 2a3c 80fd 05bc
00000180: 8053 193c b09e 7cbc 6a46 74bc 6933 9b3c
00000190: f0d4 8dba b81e 05bc 342b 47bc 22cd 363c
000001a0: 60e8 21ba cae8 673c 00e5 2839 20ca 35ba
000001b0: 644a 7dbc fabe 643c 9e2f 163c 7cc6 ff3b
000001c0: 99f0 923c c0df 9939 504b 453b 742d 253c
000001d0: c970 66bc 16a0 b3bb c045 34bb 2deb 6bbc
000001e0: 286d d3bb 26d9 013c 7493 7cbc c171 a93c
000001f0: a085 5ebc f0d2 92ba e60b 423c d097 903b
00000200: bc86 bd3b e6b6 9cbc f640 6bbc 106f be3b
00000210: 3430 ecbb 6007 8c3b cebd 743c 80ba 7cbc
00000220: 1e94 f2bb c089 be3a 2597 45bc 8ffb a83c
00000230: 39c9 80bc 068c 683c 9c26 6bbc 42b2 753c
00000240: 8cf5 71bc d35c 873c 2921 96bc 1efa 6dbc
00000250: a8d9 a23b 6ecb 90bc 071d 8bbc 644e c1bb
00000260: 51ab 893c 5875 88bc 68b5 253c a7ff a5bc
00000270: 50ee 3abb 42de 19bc 5056 9fbb 7660 b8bb
00000280: 6025 8aba 976f 9b3c 20db 8e3a 58da a0bc
00000290: 005b 86ba 70d9 00bc a889 f53b 00b6 0838
000002a0: 39e4 9a3c d2e5 0cbc aa3f 2f3c 333d 54bc
000002b0: f001 2f3b e024 8b3b 779e 17bc 9ad8 8bbc
000002c0: fcdc 9f3b 9243 783c 8e5b 57bc 560c 3e3c
000002d0: a0ff 9cba 7b37 8bbc e0dc 94bc 2af9 453c
000002e0: 887c 2bbb 819d 983c 7ed9 253c 48de 4d3b
000002f0: 32ed 523c 007f 9038 4ced 32bc 980a 8fbc
00000300: a8fd e83b 3633 593c f215 323c 23b1 883c
00000310: bf16 8cbc 61d6 933c c048 f0b9 63c6 8abc
00000320: d8b4 1b3c 0509 993c 64f6 f73b 6f37 37bc
00000330: 6fa2 993c 54d3 c43b c578 9bbc 60fd 6ebc
00000340: 0e26 663c f5af 15bc 1641 0fbc 6ac0 093c
00000350: 0d87 9a3c 9e96 183c f2b7 3c3c ea69 3f3c
00000360: f4da 50bc cdf8 a93c 6fc7 8cbc 289c 89bc
00000370: 829c 6c3c de73 5fbc a067 18bc f411 2ebc
00000380: b00f ca3b e0ea 0f3c 80cc e2b9 5233 bcbb
00000390: 8685 503c a019 61bc 0ace 7cbc 6536 4abc
000003a0: b80b 65bc 986c 77bb 3f4e 91bc 00d9 07bb
000003b0: d525 92bc cacc b8bb b384 28bc fd24 a83c
000003c0: 2aeb 4b3c 4ece 613c 3810 2f3b 9222 1f3c
000003d0: 3cc3 c73b 53f0 63bc 2cee a0bc fd3f a53c
000003e0: 3073 0dbc 20f5 a03b d800 07bb bcb6 80bb
000003f0: 80a2 273a 506b b0ba f974 93bc 0baa a93c

layers.0.bias f4 [32]
-0.02033499 0.018631404 0.0021956153 -0.0077217417 -0.005292042 0.0012263376 0.009522378 -0.017265912
0.009993099 -0.015689854 -0.0008807443 0.0016410127 0.006189823 -0.010674058 -0.010559471 0.0031318646
0.017891278 0.01732205 -0.016767254 0.0052759927 -0.02009196 0.014243556 -0.011200743 -0.003606001
0.0062904377 0.00926752 -0.00868593 -0.01436693 -0.01912329 -0.019520449 0.01140268 -0.018074773
00000000: 9195 a6bc e3a0 983c 50e4 0f3b aa06 fdbb
00000010: de68 adbb 10bd a03a c003 1c3c 3e71 8dbc
00000020: 18ba 233c 0288 80bc c0e1 66ba 4017 d73a
00000030: 00d4 ca3b 3fe2 2ebc a201 2dbc f83f 4d3b
00000040: bb90 923c f9e6 8d3c 7b5b 89bc 3ce2 ac3b
00000050: e597 a4bc ce5d 693c 5283 37bc a852 6cbb
00000060: 0420 ce3b ccd6 173c 6e4f 0ebc 4663 6bbc
00000070: 72a8 9cbc 59e9 9fbc 4ed2 3a3c 8c11 94bc

layers.2.weight f4 [1, 32]
0.13692094 0.12203853 -0.1566611 0.035368606 0.07611938 0.021408528 -0.0257622 0.034091175
0.0612711 0.13845257 -0.08222363 -0.15966383 0.14826925 0.05973275 -0.0122861415 0.10174365
-0.13821776 -0.120038375 -0.0020906776 0.16237085 -0.021268353 -0.024867773 0.14658655 -0.028269783
-0.04517348 -0.091941684 -0.06440622 0.16943146 -0.14712965 0.03583023 0.009377062 -0.03711112
00000000: 0135 0c3e 56ef f93d c46b 20be acde 103d
00000010: 7ae4 9b3d f060 af3c 400b d3bc 30a3 0b3d
00000020: 68f7 7a3d 83c6 0d3e dd64 a8bd ea7e 23be
00000030: e5d3 173e 54aa 743d d04b 49bc fa5e d03d
00000040: f588 0dbe aed6 f5bd c003 09bb 8b44 263e
00000050: f83a aebc 80b7 cbbc c91a 163e 0896 e7bc
00000060: d407 39bd ec4b bcbd 69e7 83bd 717f 2d3e
00000070: 28a9 16be b8c2 123d 40a2 193c d401 18bd
