GraphClustering/LargeGraphs/Karate_0_500_1_o_Forward0.pt (torch, 298059 bytes, 3 tensors)

layers.0.weight f4 [32, 2312]
0	0x3bdd3464	0.00675063
1	0xbbaa1fea	-0.0051917927
2	0x3a14cae0	0.00056759827
3	0xbba45a80	-0.0050156713
4	0xbc806bfe	-0.015676495
5	0x3b935a80	0.0044968724
6	0xbc847898	-0.016170785
7	0x3c8cfdd5	0.01721088
8	0x3c135b18	0.008993886
9	0xbc838e9f	-0.016059218
10	0xbbc608a4	-0.0060435105
11	0x3c8d7365	0.017266938
12	0x3c13bb86	0.009016877
13	0x3b839c20	0.0040164143
14	0x3b19d4d0	0.0023472793
15	0xbc7d6ecc	-0.015468311
16	0x3b9afa94	0.0047295783
17	0x3b45c3f0	0.0030176602
18	0xbc1ba2ee	-0.009499295
19	0x3c9a6eab	0.018851599
20	0xbc92b459	-0.017908262
21	0xbaebf7b0	-0.0018002894
22	0x3ca8ffb5	0.020629743
23	0x3aa098f0	0.001225261
24	0xbc1ec305	-0.009690051
25	0x3b983fe4	0.004646288
26	0xbbc2e9be	-0.0059482744
27	0xbc8ec750	-0.017429024
28	0x3b8de2f8	0.0043300353
29	0x3b9b10a4	0.0047322083
30	0xb8c4f700	-9.3920156e-05
31	0x3b734fe8	0.0037126485
32	0xbc5e2048	-0.013557501
33	0x3c5330c6	0.012890046
34	0xbc35d1f3	-0.011097419
35	0xbca15deb	-0.019698104
36	0x3b75db90	0.0037514903
37	0xbbd40a82	-0.006470979
38	0xbc3b6a9c	-0.011438992
39	0xbb9c4b8c	-0.004769748
40	0xbc8cc13f	-0.01718199
41	0x3b90939c	0.0044121277
42	0x3c0a024a	0.008423397
43	0x3b991bbc	0.0046724956
44	0xbba162d4	-0.0049251113
45	0x3c0b7b7e	0.00851333
46	0x3b9ee5cc	0.0048491713
47	0xbb95d77c	-0.004572807
48	0x3c828439	0.01593219
49	0x3bfe20e0	0.007755384
50	0x3c97b13f	0.018517135
51	0x3ca6dc45	0.020368705
52	0xbc8e2ca8	-0.017355278
53	0xbbb73a12	-0.0055916393
54	0x3beed014	0.0072879884
55	0x3ba2a148	0.004963074
56	0x3bf81cbc	0.007571785
57	0x3c2d129e	0.010563521
58	0xbc36758a	-0.011136422
59	0x3c70b182	0.014690759
60	0x3bdc1f70	0.006717615
61	0xbbb1b730	-0.005423449
62	0x3bc348f8	0.0059596263
63	0x3c207692	0.009793894
64	0xbc75b53a	-0.014996821
65	0x3bcc0304	0.0062259454
66	0x3c955bdb	0.018232277
67	0x3c4d4dce	0.012530757
68	0xbc407b47	-0.011748142
69	0x3b9d3cd8	0.004798513
70	0xbba7d374	-0.0051216427
71	0x3c242a28	0.010019816
72	0x3c94b383	0.018152004
73	0xbc9ce8cb	-0.019153973
74	0x3c2757c8	0.0102138
75	0x3c544dee	0.012958033
76	0x3be8a254	0.007099429
77	0xbc1e05a9	-0.009644904
78	0xbca2c218	-0.019867942
79	0xbbd8e8be	-0.006619542
80	0x3c039968	0.00803218
81	0xbb0b7568	-0.0021279696
82	0xbc0f88fe	-0.008760689
83	0x3c51edb2	0.012813019
84	0x3c32fc66	0.010924434
85	0x3c942013	0.0180817
86	0xbb8da520	-0.004322663
87	0xbca5a8c5	-0.020222077
88	0x3baffbec	0.0053706076
89	0xbba8b340	-0.0051483214
90	0xbbfed700	-0.007777095
91	0x3b4aebe8	0.0030963365
92	0x3b8cde6c	0.0042989757
93	0xbc7bd910	-0.015371576
94	0x3c7b0412	0.015320795
95	0xbc2b6be6	-0.010462737
96	0x3ba43c00	0.0050120354
97	0xbc74a290	-0.014931336
98	0x3c148ba2	0.009066494
99	0xbb4f1ce8	-0.0031602923
100	0xbc91c1c8	-0.017792597
101	0xbc4f9869	-0.012670615
102	0xbc3b1943	-0.011419597
103	0x3ca004db	0.019533565
104	0x3bba1ddc	0.005679829
105	0x3bff2024	0.007785814
106	0xbbfcae66	-0.0077112196
107	0x3c6d92c2	0.014500322
108	0x3b9e42b0	0.004829727
109	0xbc0287ff	-0.007966994
110	0x3c3044de	0.010758607
111	0xbca51382	-0.020150904
112	0x39908a40	0.00027568825
113	0x3c6fe67a	0.014642352
114	0x3c65ee62	0.014033886
115	0x3bbd276c	0.0057725217
116	0xbc8766fc	-0.016528599
117	0x3c3ea65e	0.011636345
118	0x3aeaabf0	0.0017904025
119	0x3c244414	0.010025997
120	0xb9b723c0	-0.00034931116
121	0xbc0dfe5a	-0.008666599
122	0xbc84ebfa	-0.016225804
123	0xbb5519d8	-0.0032516625
124	0x3c8eba8d	0.017422939
125	0xbc412693	-0.011788982
126	0x3c9f2fb9	0.019431936
127	0x3c38197e	0.011236547
128	0x3c1aa656	0.009439072
129	0xbca2bb22	-0.019864623
130	0x3c9a8baf	0.018865434
131	0xbca356b5	-0.019938806
132	0x3ca4c327	0.020112587
133	0xbc49cd19	-0.0123169655
134	0x3c7b1c62	0.015326591
135	0xbc19e5c1	-0.0093931565
136	0xbc95dee8	-0.018294767
137	0x3b165fb0	0.0022945218
138	0x3c52d962	0.012869211
139	0xbc86de5b	-0.01646345
140	0xbbb1cd0c	-0.005426055
141	0x3c19c268	0.009384729
142	0x3c6f4096	0.014602801
143	0xbcaa02e5	-0.020753333
144	0xbc728b16	-0.0148036685
145	0x3be8e2a0	0.007107094
146	0x3b2b2250	0.002611298
147	0x3b629710	0.0034574904
148	0x3bd017d8	0.0063504986
149	0xbca828c4	-0.020527251
150	0x3c20d480	0.009816289
151	0x3c08b790	0.008344546
152	0x3c22df14	0.009940881
153	0x3c68cf42	0.01420957
154	0xbb5983b0	-0.0033190064
155	0x3ca7406b	0.020416459
156	0x3bdc8450	0.00672964
157	0x3c7d5f62	0.015464636
158	0x3c0bea82	0.008539798
159	0x3ca09035	0.019600013
160	0xbc777c94	-0.015105385
161	0xbbc3ebd6	-0.0059790416
162	0xbb126080	-0.002233535
163	0x3c9c0d6d	0.01904937
164	0x3c848655	0.016177336
165	0x3b07a408	0.0020697135
166	0xbc1d62ef	-0.009606107
167	0x3c907df5	0.017638186
168	0xbc3dcfd6	-0.0115851965
169	0xbca6f548	-0.020380631
170	0xbbdbc6d2	-0.006707051
171	0x3b500bf0	0.0031745397
172	0x3b343860	0.0027499422
173	0x3c88b5dd	0.016688282
174	0x3c301cd2	0.010749059
175	0xbb33b830	-0.0027423017
176	0xbc4f9e29	-0.012671986
177	0x3ac90d50	0.001533905
178	0x3c0d8dda	0.008639777
179	0x3ca2635f	0.019822774
180	0x3c9cf90f	0.01916173
181	0xbc80abd0	-0.015706927
182	0x3c921c1b	0.017835667
183	0xbbb5ec4c	-0.0055518504
184	0x3c21372a	0.009839812
185	0x3c9cb575	0.019129494
186	0xbbb433e0	-0.005499348
187	0xbc28941c	-0.010289218
188	0xbc4b451f	-0.0124066165
189	0xb8a08e00	-7.655844e-05
190	0xbb3b0f18	-0.0028542932
191	0xbb9b3eec	-0.0047377255
192	0xbc8c6615	-0.01713852
193	0x3c2e156e	0.010625226
194	0x3c777f0e	0.015105976
195	0xbbe78406	-0.007065299
196	0xbbc66f68	-0.006055761
197	0x3c276b0e	0.010218395
198	0xbb06a338	-0.0020544063
199	0x3c9f1541	0.019419314
200	0x3c6ecd42	0.014575304
201	0xbca5831b	-0.020204118
202	0xbc0b60d4	-0.008506972
203	0xbb1fc138	-0.0024376642
204	0xbca05be8	-0.019575074
205	0x3c52f89e	0.012876658
206	0xbac27b60	-0.0014837794
207	0x3b895fa4	0.0041923095
208	0x3b49e228	0.0030804966
209	0xbb4ad750	-0.003095109
210	0xbbb9640c	-0.0056576785
211	0x3c563186	0.013073331
212	0xbc5b8300	-0.013397932
213	0x3b20eda8	0.0024555717
214	0x3c5e5bf6	0.01357173
215	0xbc88a396	-0.016679566
216	0xbc4aab31	-0.012369917
217	0x3c573906	0.013136154
218	0x3ab175c0	0.001353912
219	0xbc8bb1b1	-0.017052503
220	0xbca7d814	-0.020488776
221	0xbbd62e44	-0.006536277
222	0xbb1573e0	-0.0022804663
223	0xbbf0191c	-0.007327212
224	0x3aaf9220	0.0013394989
225	0xbb968cb0	-0.004594408
226	0x3c0c43ea	0.008561114
227	0xbc595c0e	-0.013266576
228	0x3c0eb070	0.008709058
229	0xbae28f80	-0.0017285198
230	0x3c3ef436	0.011654904
231	0xbb25f7b8	-0.0025324654
232	0xbc0a086d	-0.00842486
233	0x3c7996d2	0.015233712
234	0x3c612e82	0.0137439985
235	0xbc815080	-0.015785456
236	0xbc287ad7	-0.010283194
237	0xbc894094	-0.016754426
238	0x3ba91844	0.0051603634
239	0xbb8a08f8	-0.004212495
240	0xbc5af456	-0.013363918
241	0x3c73c4f2	0.014878498
242	0x3ba48e74	0.0050218645
243	0x3c5c4a26	0.013445413
244	0xbc56049c	-0.013062622
245	0x3b3cdd60	0.0028818473
246	0x3b8cabf4	0.0042929593
247	0xbb841e30	-0.004031919
248	0x3ca341a3	0.019928759
249	0x3bb4c9f8	0.0055172406
250	0x3c9ec3cb	0.01938047
251	0xbbbd7010	-0.005781181
252	0x3c0c3eee	0.0085599255
253	0x3c60957a	0.013707513
254	0x3c7e0f8a	0.0155066345
255	0xbb99b514	-0.0046907756

layers.0.bias f4 [32]
0	0xbc9f23e4	-0.019426294
1	0x3bfa4928	0.0076381154
2	0xbb583300	-0.0032989383
3	0x3b95a788	0.0045670904
4	0xba933550	-0.0011231098
5	0xbb9c4730	-0.0047692284
6	0xbc72f2cb	-0.014828394
7	0x3b96b68c	0.004599398
8	0x3b0e74b0	0.0021737032
9	0xbc18734e	-0.0093048345
10	0xbc8dd2aa	-0.017312367
11	0xbc864119	-0.016388463
12	0x3ca0e1c5	0.019638905
13	0xbc94a35e	-0.018144306
14	0x3b3765d8	0.0027984288
15	0xbb858864	-0.004075097
16	0xbca9171f	-0.020640908
17	0x3c300d36	0.010745337
18	0x3b510178	0.0031891745
19	0xbc79f290	-0.015255585
20	0x3b348450	0.0027544685
21	0x3bfa9600	0.007647276
22	0xbc426cdf	-0.011866777
23	0x3c7d0382	0.015442731
24	0x3c5de862	0.013544174
25	0x3c640bd6	0.0139188375
26	0xbc8f8725	-0.017520497
27	0x3c58b06a	0.013225654
28	0xbc93722c	-0.017998777
29	0xbc9fc401	-0.019502642
30	0x3b13a5f8	0.0022529345
31	0xbbceb4a0	-0.0063081533

layers.2.weight f4 [1, 32]
0	0xbd0a3e4c	-0.033750817
1	0xbd04ef38	-0.0324547
2	0xbd9ff940	-0.078112125
3	0x3d66534c	0.05623178
4	0x3e1d6c61	0.15373375
5	0x3d677764	0.056510344
6	0x3d178850	0.036995232
7	0x3982e800	0.00024968386
8	0x3de39102	0.111116424
9	0xbcc5ce18	-0.024146125
10	0xbd48e37c	-0.04904507
11	0xbe0f6434	-0.14003068
12	0x3e29f8e9	0.16598858
13	0xbc6fbd70	-0.014632568
14	0x3e2271c1	0.15863706
15	0x3de8924a	0.113560274
16	0x3c09d9d0	0.008413747
17	0x3e323825	0.1740423
18	0xbe056bf7	-0.13029467
19	0xbe1773d7	-0.14790283
20	0x3da4c822	0.08045985
21	0xbe2ce3f5	-0.16883834
22	0x3e2bb8bd	0.16769691
23	0x3dbee56a	0.09321101
24	0xbe077468	-0.13227999
25	0xbdd7bf48	-0.10534531
26	0xbdf42dc9	-0.11922795
27	0x3aed6200	0.0018110871
28	0x3e218bb3	0.15775947
29	0xbc0e40d0	-0.008682445
30	0x3dc2d38e	0.09513007
31	0x3db2a0ee	0.08722101
