GraphClustering/LargeGraphs/Karate_0_400_1_Forward0.pt (torch, 298047 bytes, 3 tensors)

layers.0.weight f4 [32, 2312]
00000000: d8d2 5ebb bd22 5abc 0007 003c 3a64 6c3c
00000010: 902b e83a 51ac 2dbc 1cd9 09bc b86d 7cbc
00000020: 0c4a 42bc 193b 973c 89e5 913c 9c36 2b3c
00000030: a09d 73bc f04d a7bb a17d 813c c01b 03bb
00000040: 80f4 2a3c 3020 aaba ff79 a1bc 0197 23bc
00000050: 12fb 433c 5c56 2abc 6097 7dbb 599f 9a3c
00000060: 7c04 d33b d8ea e53b 6b5d a23c ec75 1a3c
00000070: c0e5 e73b 01ac 833c fa21 d2bb bd2e 823c
00000080: 8af4 31bc 4b1a 5fbc ca1a b2bb 043b 10bc
00000090: a06c a73a b6ae d9bb 25f3 a7bc 5a40 543c
000000a0: c423 ed3b 8070 8139 901b 2f3b bff0 37bc
000000b0: 8c8e 6fbc 8078 813a af54 65bc c44c 873b
000000c0: c84d 40bc 366c 653c 4865 6d3b 1eb6 97bc
000000d0: 0899 21bc b894 763b 86ed 363c 9b5f 943c
000000e0: 880e 51bb d085 0c3b 8e3c f9bb 6a7e aebb
000000f0: 82c4 793c 3cd3 a8bc f23f 563c 9c25 eb3b
00000100: 6073 fcba 938f 8f3c 42dc 5b3c 101e f93b
00000110: 596d 72bc 9024 b1ba 80ac 7dba 5892 d6bb
00000120: 5f39 a3bc 5437 e3bb cc96 f03b 0460 6cbc
00000130: c6da 583c cda4 873c ae1e 1e3c e0d3 80bb
00000140: fefe 2c3c 863c 6b3c 8033 86bc c740 833c
00000150: 5744 a33c 3f18 92bc dda1 3abc ded1 3ebc
00000160: a3b9 4bbc a5d4 56bc 4ccb 28bc 2b11 993c
00000170: 6246 9abc d41c 2ebc 3a09 123c 73ba a53c
00000180: 0072 a338 38ec 85bc d790 8c3c e02d b0ba
00000190: 9fce 873c 56c3 cdbb c856 103b e848 6bbb
000001a0: 1a4b 0e3c 400c 2b3a c5e8 823c 6b10 55bc
000001b0: fe85 2d3c a803 233c d46c 06bc 6bdf a13c
000001c0: d093 3fbb bbc2 2ebc 0293 18bc 2ac9 e9bb
000001d0: e183 9f3c 30c7 38bb 0858 a6bc a62f 33bc
000001e0: db26 8c3c 36fb c2bb 6433 933b 8446 73bc
000001f0: c04c 7bbb 2d1e a43c 51d1 66bc 6c28 bd3b
00000200: 928a 5b3c 88d4 873b 2c9f b93b c8bd 65bb
00000210: 4207 193c 3575 3ebc 38c1 a4bc d6b0 9cbc
00000220: 7c4e e13b 1c66 c83b 8078 f2ba 3ae5 7c3c
00000230: 2f6b 973c 644c 0a3c b4fc f8bb 4e64 4c3c
00000240: d117 8b3c 55aa 4ebc 8253 693c 000c 743a
00000250: 79eb 9b3c 9634 2dbc 884f 1abb 78a6 62bc
00000260: 4dc0 1abc 0abe 543c c0cc 9039 d07c f03a
00000270: 479e 8abc ceb0 493c fcd7 d4bb 34e9 9abb
00000280: ae07 7c3c e083 96bb d00c 4c3b 7f6d a83c
00000290: 201b 2d3a 6ad7 033c 002a 69bb 10cc 88bc
000002a0: a0fd c4bb e834 75bc 7b8d 8f3c 4ef9 97bc
000002b0: 7c1a 5dbc 8087 cf3a ce54 18bc ab74 34bc
000002c0: 1095 a53b 4804 dcbb deca 70bc 215e 853c
000002d0: 4f63 50bc ce42 26bc 128c 58bc b057 393b
000002e0: 088d f93b b8dd a5bc 9f60 9c3c 599b 943c
000002f0: 7d3a 99bc 7a62 22bc f39c 3bbc 0140 58bc
00000300: d5bc 9fbc c437 62bc b9b1 9d3c de38 243c
00000310: 4013 c3bb e879 603b ef49 923c e606 77bc
00000320: 08fd d9bb cc54 903b 406b f239 ac64 903b
00000330: 8057 ca39 c0ad 55ba 4aee 753c eea5 17bc
00000340: 31c7 9b3c 3a03 5d3c 403e 413a 1de4 8f3c
00000350: def3 323c 660a 56bc d186 813c 9ea4 513c
00000360: d773 97bc 64a3 bb3b e275 95bc 807e 71bc
00000370: 49cb 2bbc 2473 973b a0ae 4fba e81c 043c
00000380: 4275 773c 29ce a63c 34f7 fd3b a877 93bc
00000390: ce27 013c 6866 f73b 90ea 253b 732b 8e3c
000003a0: 0cdb a63b 2ae6 683c 3488 a1bb 1ab3 3b3c
000003b0: 6d27 0ebc 2426 09bc effb 8bbc 748a e7bb
000003c0: 2a76 383c c092 203b 080b 57bc 40e9 0fbc
000003d0: b8e7 753b 2488 f13b a88e c4bb 6823 6abb
000003e0: 5420 b0bb a291 dabb e788 9ebc 41ff a93c
000003f0: 0041 d1ba 2e63 73bc bd12 aabc d0c9 1e3c
-0.0034000184 -0.013313946 0.007814169 0.014428193 0.0017713178 -0.010600165 -0.008413579 -0.015407018
-0.011858474 0.018460797 0.017809646 0.010450032 -0.014869124 -0.0051057264 0.015806975 -0.0020005554
0.01043427 -0.0012979563 -0.019711493 -0.009984733 0.011961715 -0.010396566 -0.0038694963 0.018874811
0.0064397436 0.007016521 0.019819936 0.009427529 0.007076949 0.016073229 -0.0064127417 0.015891427
-0.010861525 -0.013617109 -0.0054353224 -0.008803133 0.0012773462 -0.0066431416 -0.020501683 0.012954796
0.0072369296 0.00024688616 0.002671931 -0.011226832 -0.014621388 0.0009877831 -0.013997241 0.004129024
-0.0117372945 0.01400285 0.0036223698 -0.018519457 -0.009863146 0.0037625264 0.011165028 0.018111994
-0.003189953 0.0021442063 -0.0076060956 -0.0053251283 0.015244605 -0.020608537 0.013076769 0.0071761142
-0.0019260459 0.017524516 0.013419213 0.0076024607 -0.014796578 -0.0013514925 -0.00096768886 -0.0065482073
-0.019924818 -0.006934086 0.007342195 -0.014427189 0.013235753 0.016558075 0.009650869 -0.0039315075
0.010558842 0.014357692 -0.016381979 0.0160221 0.019930048 -0.017833827 -0.01139113 -0.011646716
-0.012434396 -0.013112222 -0.010302376 0.018684944 -0.01883239 -0.01062699 0.008913333 0.020230507
7.79368e-05 -0.01634799 0.017158909 -0.0013441406 0.016578017 -0.0062793894 0.0022024382 -0.003590161
0.008684898 0.0006524958 0.015980134 -0.013004403 0.010591028 0.009949602 -0.008204658 0.019759854
-0.002923239 -0.010666545 -0.009312393 -0.0071345763 0.019472064 -0.0028194897 -0.020305648 -0.010936653
0.017108371 -0.005950357 0.00449221 -0.014848355 -0.0038345307 0.02003392 -0.014087991 0.005772641
0.013399737 0.0041452087 0.0056647267 -0.0035055745 0.009340109 -0.011624624 -0.020111665 -0.01912729
0.006875811 0.006115688 -0.0018499047 0.015435511 0.018483726 0.0084410645 -0.007598484 0.012475086
0.01697913 -0.0126138525 0.014241101 0.00093096495 0.01903318 -0.0105716195 -0.002354594 -0.013833635
-0.009445262 0.012984762 0.0002761837 0.0018347744 -0.016921176 0.01231022 -0.006495474 -0.004727507
0.01538269 -0.0045933574 0.0031135567 0.020560024 0.0006603468 0.008046964 -0.0035578012 -0.016698867
-0.00601168 -0.014966227 0.017523518 -0.018551495 -0.013495084 0.0015833229 -0.009297563 -0.011014144
0.00505317 -0.0067143776 -0.014696805 0.016280236 -0.0127189895 -0.010147763 -0.013216989 0.0028281026
0.007615689 -0.020247325 0.019089041 0.018140482 -0.018704647 -0.009911174 -0.011450994 -0.0131988535
-0.019499222 -0.013807241 0.019249784 0.010023324 -0.0059532225 0.003425235 0.01785752 -0.015077328
-0.006652478 0.00440464 0.00046237744 0.0044065323 0.00038593635 -0.0008151196 0.015010426 -0.009255869
0.01901588 0.013489539 0.00073716417 0.017564828 0.0109224 -0.013064003 0.015811356 0.012795595
-0.018487854 0.005726265 -0.018244687 -0.014739633 -0.010485479 0.00462188 -0.00079224445 0.008063532
0.01510364 0.020361977 0.007750416 -0.018001392 0.007883025 0.0075500496 0.0025316812 0.017354703
0.0050920304 0.014215032 -0.0049295668 0.011456275 -0.008676392 -0.00837091 -0.017087905 -0.0070660654
0.011258641 0.0024501532 -0.013125189 -0.0087836385 0.0037522148 0.0073709656 -0.0059984513 -0.003572667
-0.0053749476 -0.006670193 -0.01935239 0.020751597 -0.0015964806 -0.014855189 -0.020760888 0.009691671

layers.0.bias f4 [32]
00000000: 20f6 ca3a 140b b03b f241 e8bb 0bee a1bc
00000010: 30a1 b73a 35e4 a93c c001 bdb9 ff37 a93c
00000020: d81c 7fbb 64a5 86bc 33fc a73c ce31 103c
00000030: e0eb a7ba 8027 9dbb dc3b 98bc 60f7 643b
00000040: ea8b ddbb 8ab9 303c 404c 903a 199f 933c
00000050: 22db 603c 9ee0 24bc 606f 3aba 2a77 6d3c
00000060: d294 303c 8c0c 5abc f0fb b63a 20b0 dcbb
00000070: 046f 93bb 002f b3b9 7e7d 703c 500a acbb
0.0015484728 0.0053724144 -0.0070879394 -0.019766828 0.001400983 0.0207387 -0.00036050193 0.020656584
-0.0038927104 -0.016436286 0.020506 0.008800937 -0.0012811385 -0.0047959685 -0.01858323 0.0034937486
-0.006761064 0.010786423 0.0011009052 0.0180202 0.01372412 -0.010063319 -0.0007111933 0.014493743
0.010777669 -0.0133086555 0.0013960581 -0.006734863 -0.004499318 -0.00034176558 0.014678357 -0.005250253

layers.2.weight f4 [1, 32]
00000000: c044 693d a007 5abc 2452 28be e7e2 22be
00000010: da63 a3bd a9b7 31be 2118 183e 300b 1b3d
00000020: eac9 1abe 05e8 2a3e 20c8 cb3c 08ec 8b3d
00000030: cbee 21be ced9 0dbe 00b8 b7b9 dea3 f93d
00000040: 4157 263e 1076 803c e077 fc3b fe02 18be
00000050: f0d9 7d3d ba90 a23d 3500 04be 8332 253e
00000060: ab1d dcbd c48a 3fbd c4a3 6bbd 1cac 923d
00000070: e0eb fc3c b1ac 06be 1464 23be 3852 e2bc
0.05695033 -0.013307482 -0.16437584 -0.15906869 -0.079780295 -0.17355217 0.14852954 0.037852466
-0.15116087 0.16690071 0.0248757 0.06832129 -0.15813749 -0.13852617 -0.0003504157 0.12189458
0.16244222 0.015681297 0.00770472 -0.14844891 0.06197542 0.07937761 -0.12890704 0.1613255
-0.10747846 -0.046763197 -0.057529226 0.071617335 0.030874193 -0.13151814 -0.15956146 -0.027627096
