GraphClustering/LargeGraphs/Karate_0_500_1_o_Forward30.pt (torch, 298065 bytes, 3 tensors)

layers.0.weight f4 [32, 2312]
00000000: d040 943a 3204 31bc 621b 2c3c 3c84 8dbc
00000010: d6bf 2f3c 38ff b3bb 8cbb 58bc 09fa 58bc
00000020: 704a 42bb a417 b03b 506a 8cba 6a5c 50bc
00000030: da39 5d3c c9cc 9b3c 8080 37b9 8b1e 86bc
00000040: f6b5 533c f09e 47bb a89a fa3b 7ec4 2b3c
00000050: ed43 933c ca1a d4bb b8ce d23b 14da 88bc
00000060: 4e31 6c3c 167d 7c3c 3aa9 1abc ea15 433c
00000070: 009b 83b8 48a0 3a3b 10d6 083b 611a 9a3c
00000080: bbed 7dbc 1cf8 ef3b 0a3e 91bc a440 f83b
00000090: eea6 9bbc efa3 83bc 404c b839 9d1f a63c
000000a0: d100 1ebc 8d83 9dbc cf79 853c 2ce0 163c
000000b0: 3d9e 18bc db56 8c3c 4c95 093c 6888 37bb
000000c0: dfc3 8a3c 486a 853b 2c98 45bc 6181 933c
000000d0: a0e7 65bb a207 95bc b2d8 60bc d6e5 fdbb
000000e0: a632 033c 901d 9cba e97c 9b3c 1aad 6e3c
000000f0: 5050 ddba caa5 71bc 5438 a43b 04d0 2dbc
00000100: 10fe 833a 34ac 123c 4fef 26bc 50ea daba
00000110: 09fc a53c 94fa f9bb 745e b23b bd89 3abc
00000120: 5d9e 8b3c be1f 2c3c e240 513c 7cbe 98bc
00000130: ca17 4a3c f957 a2bc a598 8b3c 52ae a7bc
00000140: 40ad a9ba 115e 02bc c903 a9bc 8a39 313c
00000150: e829 42bb 730e 26bc 60b9 983b eb71 48bc
00000160: 2fa5 983c 3296 84bc 7014 66bc c07d b13a
00000170: b064 d8ba 907a 6abc 9939 953c afd8 8c3c
00000180: 38a1 643b e04b 6abc 1040 ae3b 304e e83a
00000190: aed2 703c 4441 cebb 8054 9b3b 3055 4ebc
000001a0: c0d7 b939 50d5 053b f8c8 cbbb 34bb b4bb
000001b0: 4dd6 a33c abe6 93bc 38ca 4fbc 0cb4 06bc
000001c0: 9f9b 9f3c 6bee 5dbc d984 883c c3e1 a3bc
000001d0: 04b5 e8bb 62cc a3bc 9029 df3a 8a10 1b3c
000001e0: 5642 343c 2c87 76bc 2b72 9f3c 3062 ce3a
000001f0: 1764 a73c e8fb f9bb c70d 22bc c043 0b3c
00000200: 6c6f 66bc 2ac1 393c a9f5 18bc 78d5 84bb
00000210: 9ec1 723c 82a1 e2bb 0552 a13c 3e7d 2b3c
00000220: eefd 423c 5286 2f3c d4a5 203c bb3c 963c
00000230: d2b2 323c 46e0 91bc 7066 263b 3805 8e3b
00000240: 74ea 95bb 163a 733c b0d2 223b e04b 26bc
00000250: 50d7 983b 74b0 b1bb 0028 6bbb 9865 a53b
00000260: 1a5a 2cbc 78c3 7e3b 59f1 a13c 1305 873c
00000270: ee54 563c 4d85 a03c 403e 923a d8c3 ef3b
00000280: cc8a 59bc e8ed 9f3b a3c1 a0bc 1a4f 543c
00000290: 008f 47ba 4011 88ba 004c 66b8 d0eb 1fbb
000002a0: b6c1 1e3c 7b41 a33c 70e4 c03a 65e5 a73c
000002b0: d56c a43c 826b 793c b426 2dbc 4ce8 913b
000002c0: 6412 87bc 49c9 8d3c bb27 aa3c f29c 2e3c
000002d0: c005 8439 ca2e 4d3c 7cb2 b8bb 22f4 9ebc
000002e0: 6840 0cbc e202 99bc 9d97 943c 36ab 393c
000002f0: a095 9bbb d4a5 1b3c 27dd 883c 63f3 853c
00000300: 1a1d 92bc 68a7 083b 88bc 17bb 9881 21bc
00000310: e047 5cba 0248 80bc 1ee4 553c 9174 9cbc
00000320: 3fbf 8d3c acf2 a6bb 9c0c 8fbb 40fc ae39
00000330: 1092 a53a c153 913c 08e2 7dbc 1557 74bc
00000340: da99 9bbc 3653 a2bc afe1 a43c 8535 09bc
00000350: 3e17 9cbc a04b b83b b06a 043c 5a50 2b3c
00000360: 447b 283c a1f9 8e3c b65b 7e3c eee5 363c
00000370: eaae 773c d589 9bbc 2c41 97bc 2480 8d3b
00000380: f420 aabb bef3 533c ccc6 a53b a09c 7c3b
00000390: 5e5b 113c be4b b8bb 50af 123b cce3 54bc
000003a0: 3134 2dbc d65b 4e3c 3c87 a6bc 74d0 8ebc
000003b0: c054 473b d3f0 79bc 7cbe f4bb 3d29 0ebc
000003c0: 1651 393c 0004 563a 00c3 5aba 0a6f 4a3c
000003d0: c49e 9bbc 7020 77bb 2aa2 493c 3f70 9e3c
000003e0: 0039 88b8 fa53 2cbc f9da 52bc 80d9 a3ba
000003f0: 5208 aebb 5077 adba ba77 64bc 0fe7 833c
0.001131082 -0.010804223 0.010504575 -0.017274968 0.01072689 -0.005493071 -0.013228308 -0.013243207
-0.002964642 0.005373912 -0.0010712836 -0.012717346 0.013502562 0.019018548 -0.0001750011 -0.016371986
0.012921801 -0.0030459724 0.007647831 0.010483859 0.017976725 -0.00647292 0.006433334 -0.01670555
0.014416052 0.015410682 -0.009439761 0.01190708 -6.275438e-05 0.0028476883 0.0020879544 0.018811407
-0.015498574 0.007323278 -0.017729778 0.007576065 -0.019000497 -0.01606938 0.00035152026 0.020278746
-0.009643749 -0.019227767 0.016293434 0.00920872 -0.009315071 0.01713126 0.008397412 -0.0028004888
0.016939102 0.0040715076 -0.012060206 0.018006029 -0.0035080686 -0.018192116 -0.013723539 -0.007748346
0.008007681 -0.0011910666 0.01898046 0.014567638 -0.0016884897 -0.014749 0.0050115976 -0.010608677
0.0010070223 0.008952189 -0.010188892 -0.0016701911 0.020261781 -0.007628748 0.0054433886 -0.011385378
0.017043287 0.010505615 0.012771817 -0.018645518 0.012334773 -0.01981734 0.01704056 -0.020468865
-0.0012945309 -0.0079569975 -0.020631688 0.010816941 -0.002962703 -0.010135281 0.0046607703 -0.012234191
0.018633453 -0.0161849 -0.014042959 0.0013541505 -0.0016509499 -0.014311448 0.018215941 0.017193167
0.0034886133 -0.014300317 0.0053176954 0.0017723497 0.014698667 -0.0062944014 0.004740298 -0.0125935525
0.00035446696 0.0020421334 -0.0062190257 -0.0055154804 0.019999648 -0.018054327 -0.01268249 -0.008221637
0.019483386 -0.013545613 0.01666491 -0.020005113 -0.007101657 -0.019994918 0.0017025936 0.009464392
0.011002144 -0.015046876 0.01946362 0.0015745815 0.020433469 -0.0076289065 -0.00989098 0.00850004
-0.014064651 0.011337558 -0.009335914 -0.004053768 0.01481667 -0.006916226 0.01969243 0.010466872
0.011901362 0.010713177 0.0098051615 0.018339505 0.010906892 -0.017807137 0.0025390647 0.004334118
-0.004575068 0.014845392 0.0024844818 -0.010149926 0.004664339 -0.005422646 -0.0035881996 0.0050475113
-0.010519529 0.0038873833 0.019768404 0.016481912 0.013081772 0.019594813 0.0011157468 0.0073170476
-0.013277721 0.0048806556 -0.019623583 0.012958312 -0.0007612556 -0.0010381117 -5.4907054e-05 -0.002440203
0.009689739 0.019928684 0.0014716517 0.020495126 0.020071426 0.015223386 -0.01056831 0.004452741
-0.016488262 0.017307894 0.020770898 0.010657536 0.00025181286 0.012523362 -0.0056365114 -0.019403521
-0.0085602775 -0.018678132 0.018138701 0.011332324 -0.0047480613 0.009499986 0.016707016 0.016351407
-0.017836142 0.0020851735 -0.0023153145 -0.009857558 -0.0008403044 -0.015659336 0.013054876 -0.019098552
0.017303107 -0.0050948467 -0.004365517 0.00033375807 0.0012632031 0.017740132 -0.015495785 -0.01491334
-0.01899426 -0.019815069 0.020127146 -0.008374576 -0.019054051 0.0056242496 0.008082077 0.010456169
0.010283295 0.017453017 0.015524795 0.011163218 0.015117386 -0.018986622 -0.018463694 0.004318254
-0.0051919166 0.012936531 0.005059099 0.0038545504 0.008871881 -0.0056242635 0.0022382326 -0.012993764
-0.010571525 0.012595138 -0.020328157 -0.017433383 0.0030415505 -0.015255171 -0.0074689966 -0.008676824
0.011310836 0.0008164048 -0.00083450973 0.012355575 -0.018996604 -0.0037708543 0.012306729 0.019340632
-6.4956024e-05 -0.010518068 -0.01286959 -0.0012500733 -0.0053110505 -0.001323441 -0.013944561 0.016101388

layers.0.bias f4 [32]
00000000: 809b d739 c5bf 1e3e a06a d13d fc84 3abd
00000010: 24f2 343e 44fc 1e3e fffb 3cbc 8439 91bc
00000020: 56b8 833d 1ecc 15bd 9a65 0e3e 5410 833b
00000030: fadb 283e 0586 6ebc 30ec 253e 5a32 2fbb
00000040: 8394 323e 5450 2f3e eac4 12bd f658 61bc
00000050: 28c3 2a3e caa6 343e 32d6 13bc d60c 4b3c
00000060: 36ca 12bc 681c e43b 3239 debc 33d2 5abc
00000070: b03d f53d 0f0f 70bb 04f3 94bc 8284 c93d
0.00041123852 0.15502842 0.10225415 -0.04553698 0.17670494 0.15525919 -0.01153469 -0.01772762
0.06431644 -0.036571614 0.13905945 0.003999749 0.16490164 -0.01455832 0.1620338 -0.0026732893
0.17439465 0.17120486 -0.035832323 -0.01375412 0.16676009 0.1764175 -0.009023236 0.012393197
-0.008959344 0.006961394 -0.027126882 -0.013355779 0.119746566 -0.003663007 -0.018182285 0.09839727

layers.2.weight f4 [1, 32]
00000000: c686 983d 2fab 46be 331a 32be c1b3 8f3d
00000010: b6a3 a8be 7dbb aabe 0095 693c 149e 15be
00000020: 763f 84bd ecb6 803d 3719 9cbe 64b6 5fbd
00000030: c749 55be 11a9 b63d cafc 56be c0eb f03c
00000040: 7ea1 86be 385d 97be 44df 023e 414f 80bd
00000050: 76c8 40be 1ebe a3be c0c6 48bd fec5 f93d
00000060: 9109 943d 81fd cdbd e402 9f3d 690d cb3d
00000070: 35db 0dbe e4d3 f43b 4ce8 1dbd 117c 61be
0.07447581 -0.19401239 -0.17392807 0.07016707 -0.32937402 -0.33346167 0.014256716 -0.14611083
-0.06457417 0.062848896 -0.30487987 -0.0546173 -0.20828925 0.089189656 -0.20994869 0.02940929
-0.26295084 -0.29563308 0.12780482 -0.062651165 -0.1882647 -0.31980985 -0.049017668 0.12195967
0.07228387 -0.10058118 0.07764223 0.09914667 -0.13853152 0.0074715484 -0.038551614 -0.22019984
