GraphClustering/LargeGraphs/Karate_0_500_1_o_Forward140.pt (torch, 298071 bytes, 3 tensors)

layers.0.weight f4 [32, 2312]
0.001131082 -0.045991547 -0.024682725 -0.052462287 -0.02446041 -0.040680394 -0.04841563 -0.048430525
-0.038151965 0.005373912 -0.036258608 -0.04790467 -0.021684738 -0.016168756 -0.0001750011 -0.016371986
0.012921801 -0.038233295 0.007647831 -0.024703441 0.017976725 -0.04166024 0.006433334 -0.01670555
0.014416052 0.015410682 -0.009439761 0.01190708 -6.275438e-05 0.0028476883 0.0020879544 -0.016375896
-0.015498574 0.007323278 -0.052917093 0.007576065 -0.054187812 -0.0512567 0.00035152026 0.020278746
-0.009643749 -0.054415084 0.016293434 0.00920872 -0.009315071 0.01713126 0.008397412 -0.037987813
0.016939102 0.0040715076 -0.012060206 -0.01718127 -0.0035080686 -0.05337943 -0.013723539 -0.04293567
0.008007681 -0.0011910666 0.01898046 0.014567638 -0.0016884897 -0.014749 0.0050115976 -0.010608677
-0.034180302 0.008952189 -0.010188892 -0.0016701911 -0.014925527 -0.042816073 0.0054433886 -0.0465727
0.017043287 0.010505615 0.012771817 -0.053832836 -0.022852529 -0.055004656 0.01704056 -0.020468865
-0.0012945309 -0.04314432 -0.020631688 0.010816941 -0.002962703 -0.010135281 0.0046607703 -0.012234191
0.018633453 -0.0161849 -0.014042959 0.0013541505 -0.0016509499 -0.014311448 0.018215941 -0.017994134
-0.031698704 -0.014300317 0.0053176954 0.0017723497 -0.020488631 -0.0062944014 -0.030447003 -0.04778087
-0.034832858 0.0020421334 -0.0062190257 -0.0055154804 0.019999648 -0.053241648 -0.01268249 -0.008221637
0.019483386 -0.013545613 -0.018522391 -0.055192433 -0.007101657 -0.019994918 0.0017025936 0.009464392
0.011002144 -0.015046876 0.01946362 0.0015745815 0.020433469 -0.0076289065 -0.00989098 0.00850004
-0.014064651 0.011337558 -0.009335914 -0.004053768 0.01481667 -0.006916226 0.01969243 0.010466872
-0.023285938 0.010713177 0.0098051615 0.018339505 0.010906892 -0.017807137 -0.032648265 0.004334118
-0.004575068 0.014845392 -0.03270285 -0.010149926 0.004664339 -0.005422646 -0.0035881996 0.0050475113
-0.010519529 0.0038873833 0.019768404 0.016481912 0.013081772 0.019594813 0.0011157468 0.0073170476
-0.013277721 0.0048806556 -0.019623583 0.012958312 -0.0007612556 -0.0010381117 -5.4907054e-05 -0.002440203
0.009689739 0.019928684 -0.033715677 0.020495126 0.020071426 0.015223386 -0.01056831 0.004452741
-0.05167558 0.017307894 0.020770898 0.010657536 -0.03493551 0.012523362 -0.0056365114 -0.019403521
-0.0085602775 -0.018678132 -0.0170486 0.011332324 -0.0047480613 0.009499986 0.016707016 0.016351407
-0.017836142 0.0020851735 -0.0023153145 -0.009857558 -0.0008403044 -0.015659336 0.013054876 -0.019098552
0.017303107 -0.0050948467 -0.004365517 0.00033375807 -0.033924125 0.017740132 -0.015495785 -0.01491334
-0.054181576 -0.055002384 0.020127146 -0.008374576 -0.019054051 0.0056242496 0.008082077 0.010456169
0.010283295 0.017453017 0.015524795 0.011163218 -0.020069914 -0.018986622 -0.018463694 0.004318254
-0.0051919166 0.012936531 0.005059099 0.0038545504 0.008871881 -0.0056242635 0.0022382326 -0.012993764
-0.010571525 0.012595138 -0.020328157 -0.017433383 0.0030415505 -0.015255171 -0.04265632 -0.043864146
-0.023876464 -0.03437092 -0.00083450973 0.012355575 -0.018996604 -0.0037708543 0.012306729 0.019340632
-6.4956024e-05 -0.010518068 -0.01286959 -0.0012500733 -0.0053110505 -0.001323441 -0.013944561 0.016101388
00000000: d040 943a a261 3cbd 6d33 cabc b2e2 56bd
00000010: 3361 c8bc 7ca0 26bd 784f 46bd 165f 46bd
00000020: 3c45 1cbd a417 b03b e883 14bd b037 44bd
00000030: 31a4 b1bc 5774 84bc 8080 37b9 8b1e 86bc
00000040: f6b5 533c 849a 1cbd a89a fa3b df5e cabc
00000050: ed43 933c eea3 2abd b8ce d23b 14da 88bc
00000060: 4e31 6c3c 167d 7c3c 3aa9 1abc ea15 433c
00000070: 009b 83b8 48a0 3a3b 10d6 083b be26 86bc
00000080: bbed 7dbc 1cf8 ef3b 98bf 58bd a440 f83b
00000090: 0af4 5dbd 8cf2 51bd 404c b839 9d1f a63c
000000a0: d100 1ebc 5ae2 5ebd cf79 853c 2ce0 163c
000000b0: 3d9e 18bc db56 8c3c 4c95 093c 1c99 1bbd
000000c0: dfc3 8a3c 486a 853b 2c98 45bc bcbf 8cbc
000000d0: a0e7 65bb 64a4 5abd b2d8 60bc 50dd 2fbd
000000e0: a632 033c 901d 9cba e97c 9b3c 1aad 6e3c
000000f0: 5050 ddba caa5 71bc 5438 a43b 04d0 2dbc
00000100: a500 0cbd 34ac 123c 4fef 26bc 50ea daba
00000110: 338a 74bc e85f 2fbd 745e b23b 04c3 3ebd
00000120: 5d9e 8b3c be1f 2c3c e240 513c d27f 5cbd
00000130: 3a35 bbbc 904c 61bd a598 8b3c 52ae a7bc
00000140: 40ad a9ba 19b8 30bd c903 a9bc 8a39 313c
00000150: e829 42bb 730e 26bc 60b9 983b eb71 48bc
00000160: 2fa5 983c 3296 84bc 7014 66bc c07d b13a
00000170: b064 d8ba 907a 6abc 9939 953c 6f68 93bc
00000180: 80d6 01bd e04b 6abc 1040 ae3b 304e e83a
00000190: c6d7 a7bc 4441 cebb fe6b f9bc e0b5 43bd
000001a0: e6ac 0ebd 50d5 053b f8c8 cbbb 34bb b4bb
000001b0: 4dd6 a33c ea13 5abd 38ca 4fbc 0cb4 06bc
000001c0: 9f9b 9f3c 6bee 5dbc 45bc 97bc 7611 62bd
000001d0: 04b5 e8bb 62cc a3bc 9029 df3a 8a10 1b3c
000001e0: 5642 343c 2c87 76bc 2b72 9f3c 3062 ce3a
000001f0: 1764 a73c e8fb f9bb c70d 22bc c043 0b3c
00000200: 6c6f 66bc 2ac1 393c a9f5 18bc 78d5 84bb
00000210: 9ec1 723c 82a1 e2bb 0552 a13c 3e7d 2b3c
00000220: 27c2 bebc 5286 2f3c d4a5 203c bb3c 963c
00000230: d2b2 323c 46e0 91bc 30ba 05bd 3805 8e3b
00000240: 74ea 95bb 163a 733c 6cf3 05bd e04b 26bc
00000250: 50d7 983b 74b0 b1bb 0028 6bbb 9865 a53b
00000260: 1a5a 2cbc 78c3 7e3b 59f1 a13c 1305 873c
00000270: ee54 563c 4d85 a03c 403e 923a d8c3 ef3b
00000280: cc8a 59bc e8ed 9f3b a3c1 a0bc 1a4f 543c
00000290: 008f 47ba 4011 88ba 004c 66b8 d0eb 1fbb
000002a0: b6c1 1e3c 7b41 a33c 7319 0abd 65e5 a73c
000002b0: d56c a43c 826b 793c b426 2dbc 4ce8 913b
000002c0: c6a9 53bd 49c9 8d3c bb27 aa3c f29c 2e3c
000002d0: 8a18 0fbd ca2e 4d3c 7cb2 b8bb 22f4 9ebc
000002e0: 6840 0cbc e202 99bc 81a9 8bbc 36ab 393c
000002f0: a095 9bbb d4a5 1b3c 27dd 883c 63f3 853c
00000300: 1a1d 92bc 68a7 083b 88bc 17bb 9881 21bc
00000310: e047 5cba 0248 80bc 1ee4 553c 9174 9cbc
00000320: 3fbf 8d3c acf2 a6bb 9c0c 8fbb 40fc ae39
00000330: 06f4 0abd c153 913c 08e2 7dbc 1557 74bc
00000340: 80ed 5dbd 2e4a 61bd afe1 a43c 8535 09bc
00000350: 3e17 9cbc a04b b83b b06a 043c 5a50 2b3c
00000360: 447b 283c a1f9 8e3c b65b 7e3c eee5 363c
00000370: a969 a4bc d589 9bbc 2c41 97bc 2480 8d3b
00000380: f420 aabb bef3 533c ccc6 a53b a09c 7c3b
00000390: 5e5b 113c be4b b8bb 50af 123b cce3 54bc
000003a0: 3134 2dbc d65b 4e3c 3c87 a6bc 74d0 8ebc
000003b0: c054 473b d3f0 79bc 65b8 2ebd e4aa 33bd
000003c0: 9398 c3bc 86c8 0cbd 00c3 5aba 0a6f 4a3c
000003d0: c49e 9bbc 7020 77bb 2aa2 493c 3f70 9e3c
000003e0: 0039 88b8 fa53 2cbc f9da 52bc 80d9 a3ba
000003f0: 5208 aebb 5077 adba ba77 64bc 0fe7 833c

layers.0.bias f4 [32]
-0.034776088 0.45944956 0.4201856 -0.04690901 0.43820265 0.41589004 -0.049857948 -0.01772762
0.4357722 -0.040486917 0.40602508 -0.0570613 0.4630117 -0.015930345 0.45950988 -0.013846271
0.45268792 0.44042987 -0.03720435 -0.01375412 0.47384334 0.43997017 -0.009023236 0.012393197
-0.010331379 0.0739257 -0.028498907 -0.014727816 0.4541784 -0.0075783194 -0.018182285 0.39984456
00000000: 5f71 0ebd f93c eb3e 9122 d73e a923 40bd
00000010: 195c e03e 8aef d43e d937 4cbd 8439 91bc
00000020: 891d df3e 9cd5 25bd 85e2 cf3e 1cb9 69bd
00000030: df0f ed3e 5b80 82bc e144 eb3e 78db 62bc
00000040: b6c6 e73e 0680 e13e 9763 18bd f658 61bc
00000050: 989b f23e c543 e13e 32d6 13bc d60c 4b3c
00000060: f244 29bc 5b66 973d 8a76 e9bc f04c 71bc
00000070: 128a e83e 8d53 f8bb 04f3 94bc 6db8 cc3e

layers.2.weight f4 [1, 32]
0.03928851 -0.49772954 -0.5131928 0.06879505 -0.62856567 -0.6325698 -0.024066562 -0.14611083
-0.4325939 0.05893359 -0.6049342 0.03770697 -0.51125944 0.08781763 -0.51341283 0.018236306
-0.5641798 -0.59562725 0.12643284 -0.062651165 -0.4923384 -0.6190569 -0.049017668 0.12195967
0.07091185 -0.11268879 0.07627021 0.09777465 -0.47848016 0.0035562357 -0.038551614 -0.5567158
00000000: fdec 203d 68d6 febe 9a60 03bf 6be4 8c3d
00000010: aee9 20bf 18f0 21bf 3d27 c5bc 149e 15be
00000020: f37c ddbe 5964 713d f8dc 1abf a072 1a3d
00000030: e6e1 02bf bbd9 b33d 066f 03bf 4e64 953c
00000040: 166e 10bf 077b 18bf 9c77 013e 414f 80bd
00000050: c713 fcbe 837a 1ebf c0c6 48bd fec5 f93d
00000060: 3b3a 913d 61c9 e6bd 8e33 9c3d 133e c83d
00000070: 5afb f4be bc0f 693b 4ce8 1dbd ed84 0ebf
