GraphClustering/GraphsLarge/Data/Karate_0_500_1000_o_Forward320.pt (torch, 298089 bytes, 3 tensors)

layers.0.weight f4 [32, 2312]
-0.011597856 0.8489876 0.8661194 0.88470256 0.8609234 0.8533958 0.8499367 0.8790115
0.8615639 0.0018882606 0.86965466 0.86969054 0.87253726 0.8670362 0.0032055827 0.0033441442
0.0058421656 0.8471708 -0.016634539 0.850572 -0.00638406 0.8633909 0.0082564065 0.008287518
-0.007879158 0.015051507 0.013139605 0.0036539657 0.019460512 0.007971286 0.009127383 0.8720499
-0.00864298 0.017805725 0.8620182 0.008689416 0.8692671 0.8740833 -0.018405482 0.0057896157
-0.007692484 0.8736292 -0.0017263299 0.015693577 0.010557431 0.010645139 0.003478387 0.886032
-0.012188248 -0.004584169 0.0009959152 0.87409437 0.017797226 0.8549361 0.014212344 0.8587637
-0.007141895 -0.0056575155 0.00037960924 -0.007982187 0.011120768 0.0016884573 -0.019647554 0.0139683755
0.8727492 0.0072140354 0.012912012 -0.007956698 0.8524705 0.8690909 0.0028753672 0.88606715
0.009080325 0.010812202 0.008476892 0.86452377 0.87139904 0.8534194 0.004026978 0.008590433
-0.0049260044 0.88300216 0.007729288 -0.01714308 -0.01912191 0.01805725 -0.009897052 -0.017278042
0.009039267 -0.009633076 -0.017336514 0.019627715 0.010133619 0.009609471 -0.007574944 0.84692705
0.8666066 0.0163282 -0.0189678 -0.018943593 0.8524078 0.009721832 0.86327934 0.8771039
0.8530481 -0.020031098 0.01030783 -0.0078027104 -0.004210708 0.8487878 -0.011082343 0.020237032
-0.009664622 -0.014489053 0.8617313 0.87917495 0.012335829 -0.020499863 0.0063089863 -0.019209681
-0.018414 0.0063227043 -0.0070869206 0.017286325 0.0059312764 0.014347085 0.018402899 0.01559341
0.0071854475 0.01750893 -0.008649698 -0.0146791125 -0.015452529 -0.013466235 0.0025024815 -0.0070795426
0.84776926 -0.01643266 0.016101157 -0.0010824178 0.0040093204 0.0148017695 0.8880966 0.013664879
0.01099169 -0.006868429 0.8712069 -0.009144527 0.014232535 0.002132586 0.008911101 0.00055601855
0.013081963 0.015370663 -0.0057649724 0.01216935 0.0060085985 0.008242761 0.020645754 0.016129028
-0.020246198 -0.008165431 -0.014907715 0.020650163 0.013478012 -0.017817074 -0.008766996 0.013590839
0.0025695 -0.01629498 0.8823707 0.013718403 -0.013464817 0.0066244532 0.018656062 0.017645782
0.8728398 0.015536385 0.00019241772 0.0018683574 0.86278653 -0.017752439 0.0140443 -0.008232009
0.020537596 0.01943305 0.86416614 0.019969147 -0.009734432 0.016799295 -0.0074029975 -0.011186657
0.0062343124 0.012430807 0.0032000192 0.01836419 -0.0035818424 -0.0047794897 -0.012120179 -0.019743165
-0.013564891 -0.013209318 0.013037354 -0.012489869 0.88706183 -0.015578236 -0.018674215 -0.008731184
0.85015917 0.88340306 -0.006095959 -0.00031254368 -0.019991701 -0.011743604 0.009300094 -0.017207572
0.017536912 -0.0062300903 0.0011741145 -0.017599557 0.85844886 0.016624564 -0.0067105764 0.015789855
-0.0014969222 -0.019982347 0.012845241 0.001430045 -0.019369433 0.0063379887 0.01672064 0.0019790153
-0.014852623 0.00712784 -0.01402597 -0.016903194 0.0013647373 0.016000763 0.85863113 0.85874915
0.8772831 0.8882979 0.0042272597 -0.019872556 0.016737139 -0.011219503 0.019348187 0.004451389
-0.018132862 0.005380841 0.0006564942 0.016868558 0.0048414557 -0.004562736 -0.009165038 -0.009228117
00000000: ef04 3ebc 4057 593f 00ba 5d3f de7b 623f
00000010: 7a65 5c3f 2678 5a3f 7495 593f e606 613f
00000020: 748f 5c3f 837f f73a b0a1 5e3f 0aa4 5e3f
00000030: 9a5e 5f3f 16f6 5d3f c114 523b 6e29 5b3b
00000040: a36f bf3b 30e0 583f 2845 88bc 16bf 593f
00000050: 6031 d1bb 3007 5d3f e145 073c 5fc8 073c
00000060: 9517 01bc 999a 763c 7f47 573c 5f77 6f3b
00000070: a76b 9f3c ff99 023c 058b 153c aa3e 5f3f
00000080: 499b 0dbc 50dd 913c 3aad 5c3f 0d5e 0e3c
00000090: 4a88 5e3f ecc3 5f3f 18c7 96bc d1b6 bd3b
000000a0: 3c11 fcbb 2aa6 5f3f 0546 e2ba d18f 803c
000000b0: 13f9 2c3c f368 2e3c a6f5 633b fed2 623f
000000c0: 38b1 47bc cc36 96bb 5e89 823a a6c4 5f3f
000000d0: 7dcb 913c 18dd 5a3f e4da 683c f0d7 5b3f
000000e0: 8f06 eabb ae62 b9bb 4a06 c739 b8c7 02bc
000000f0: e233 363c 3a4f dd3a e8f3 a0bc 9ddb 643c
00000100: 7e6c 5f3f b763 ec3b e78c 533c cf5c 02bc
00000110: 823b 5a3f be7c 5e3f a870 3c3b 4cd5 623f
00000120: a5c5 143c a925 313c a9e2 0a3c 6e51 5d3f
00000130: 0214 5f3f b279 5a3f bdf4 833b e3be 0c3c
00000140: 526a a1bb 6e0c 623f f845 fd3b a56f 8cbc
00000150: 8da5 9cbc ccec 933c 3f27 22bc ae8a 8dbc
00000160: 6f19 143c 0dd4 1dbc 4e05 8ebc 4dca a03c
00000170: 7b07 263c 0b71 1d3c 3c37 f8bb 36d0 583f
00000180: eed9 5d3f b8c2 853c 5c62 9bbc 982f 9bbc
00000190: 6637 5a3f 5248 1f3c e0ff 5c3f e289 603f
000001a0: 5c61 5a3f 4218 a4bc 2ce2 283c e1ad ffbb
000001b0: fbf9 89bb 284a 593f b792 35bc 22c8 a53c
000001c0: 5d58 1ebc 7e63 6dbc 6c9a 5c3f 9c11 613f
000001d0: 381c 4a3c 54ef a7bc 9dbb ce3b 9f5d 9dbc
000001e0: f5d8 96bc b02e cf3b 6639 e8bb 0d9c 8d3c
000001f0: 275b c23b 0910 6b3c adc1 963c 807b 7f3c
00000200: e773 eb3b e36e 8f3c 77b7 0dbc a980 70bc
00000210: 9b2c 7dbc 7ca1 5cbc ac00 243b 82fb e7bb
00000220: 6807 593f c99d 86bc 93e6 833c eadf 8dba
00000230: 9e60 833b 1f83 723c 4c5a 633f a8e2 5f3c
00000240: 7d16 343c 8f10 e1bb 6a07 5f3f edd2 15bc
00000250: 942f 693c dbc2 0b3b deff 113c c6c1 113a
00000260: bb55 563c 3cd5 7b3c 18e8 bcbb f461 473c
00000270: c7e3 c43b a50c 073c 4921 a93c 0621 843c
00000280: 5bdb a5bc 4dc8 05bc 7d3f 74bc 882a a93c
00000290: e1d2 5c3c 1df5 91bc 72a3 0fbc 1cac 5e3c
000002a0: 0e65 283b 0d7d 85bc 0ce3 613f 27c3 603c
000002b0: 899b 5cbc f111 d93b 99d4 983c e38d 903c
000002c0: 6e72 5f3f 528c 7e3c bdc3 4939 ace3 f43a
000002d0: 94df 5c3f 906d 91bc 101a 663c 8cdf 06bc
000002e0: 763e a83c 0f32 9f3c fe39 5d3f 5696 a33c
000002f0: 2b7d 1fbc ad9e 893c d894 f2bb 3d48 37bc
00000300: 3449 cc3b 95aa 4b3c 6ab7 513b 7f70 963c
00000310: 58bd 6abb 449d 9cbb b793 46bc 6bbc a1bc
00000320: 473f 5ebc e56b 58bc a09a 553c 4fa2 4cbc
00000330: 7c16 633f dc3b 7fbc abfa 98bc 3d0d 0fbc
00000340: 08a4 593f b426 623f 9cc0 c7bb e7dc a3b9
00000350: a3c5 a3bc 3f68 40bc 6c5f 183c e5f6 8cbc
00000360: 92a9 8f3c c925 ccbb bfe4 993a f22c 90bc
00000370: 4ec3 5b3f 3d30 883c 65e4 dbbb ba59 813c
00000380: 6034 c4ba 05b2 a3bc d974 523c 5970 bb3a
00000390: a5ac 9ebc e7ae cf3b b9f9 883c 5eb2 013b
000003a0: 6b58 73bc a890 e93b 2fcd 65bc 9178 8abc
000003b0: fce0 b23a 0814 833c 40cf 5b3f fcd6 5b3f
000003c0: a095 603f 7e67 633f d384 8a3b c5cb a2bc
000003d0: 531c 893c 02d2 37bc 1780 9e3c f5dc 913b
000003e0: 5e8b 94bc c451 b03b 9418 2c3a ee2f 8a3c
000003f0: 13a5 9e3b 0183 95bb f528 16bc 8731 17bc

layers.0.bias f4 [32]
0.87983143 0.78982323 0.89125407 0.8474036 0.80893594 0.7224103 0.30062032 0.64465064
0.8573065 0.8503015 -0.03483848 -0.025770353 0.83210766 0.8880806 0.7872578 0.6706145
-0.022476263 0.32586816 0.82490224 0.7278539 -0.040698584 -0.038443025 -0.018135484 -0.028472017
0.8474884 0.7358846 0.79888237 0.4995892 0.85516244 -0.028514108 0.90190387 -0.031154701
00000000: a23c 613f db31 4a3f 3a29 643f 71ef 583f
00000010: 6d16 4f3f e2ef 383f e8ea 993e d307 253f
00000020: 7078 5b3f 5cad 593f cbb2 0ebd 591c d3bc
00000030: 0205 553f 4059 633f ba89 493f 64ad 2b3f
00000040: 2420 b8bc 31d8 a63e cb2c 533f a254 3a3f
00000050: 8fb3 26bd 6f76 1dbd de90 94bc 263e e9bc
00000060: 00f5 583f ef62 3c3f 8e83 4c3f 28ca ff3e
00000070: edeb 5a3f 6b96 e9bc 2ce3 663f 2538 ffbc

layers.2.weight f4 [1, 32]
-0.17334068 -0.14693984 -0.34349778 -0.25102 -0.2034078 -0.047409285 -0.25350404 -0.09211316
-0.23988324 -0.25271136 -0.005981721 -0.00036000798 -0.11485369 -0.31894067 -0.1658329 -0.045896374
0.11052037 -0.043965943 -0.17729379 -0.06311828 0.04221102 0.108748615 0.1436496 0.0011371763
-0.23384464 -0.051419925 -0.13657233 -0.061581273 -0.30264825 0.14281794 -0.2052342 0.033530828
00000000: 3880 31be 6677 16be f1de afbe b285 80be
00000010: 224a 50be 3d30 42bd 48cb 81be d3a5 bcbd
00000020: f4a3 75be 6263 81be 5002 c4bb 74bf bcb9
00000030: 6938 ebbd 314c a3be 1ad0 29be d6fd 3bbd
00000040: 8158 e23d a215 34bd 818c 35be 2844 81bd
00000050: 76e5 2c3d 98b7 de3d e118 133e 4e0d 953a
00000060: f874 6fbe b39d 52bd 9ed9 0bbe a53c 7cbd
00000070: b6f4 9abe de3e 123e ea28 52be 9f57 093d
