GraphClustering/GraphsLarge/Data/Karate_0_500_1000_o_Forward360.pt (torch, 298089 bytes, 3 tensors)

layers.0.weight f4 [32, 2312]
000000 ef 04 3e bc 19 f4 61 3f d9 56 66 3f b7 18 6b 3f
       -0.011597856 0.8826309 0.8997627 0.91834587
000010 53 02 65 3f ff 14 63 3f 4d 32 62 3f bf a3 69 3f
       0.8945667 0.8870391 0.88358 0.9126548
000020 4d 2c 65 3f 83 7f f7 3a 89 3e 67 3f e3 40 67 3f
       0.8952072 0.0018882606 0.90329796 0.90333384
000030 73 fb 67 3f ef 92 66 3f c1 14 52 3b 6e 29 5b 3b
       0.90618056 0.9006795 0.0032055827 0.0033441442
000040 a3 6f bf 3b 09 7d 61 3f 28 45 88 bc ef 5b 62 3f
       0.0058421656 0.88081414 -0.016634539 0.8842153
000050 60 31 d1 bb 09 a4 65 3f e1 45 07 3c 5f c8 07 3c
       -0.00638406 0.8970342 0.0082564065 0.008287518
000060 95 17 01 bc 99 9a 76 3c 7f 47 57 3c 5f 77 6f 3b
       -0.007879158 0.015051507 0.013139605 0.0036539657
000070 a7 6b 9f 3c ff 99 02 3c 05 8b 15 3c 83 db 67 3f
       0.019460512 0.007971286 0.009127383 0.90569323
000080 49 9b 0d bc 50 dd 91 3c 13 4a 65 3f 0d 5e 0e 3c
       -0.00864298 0.017805725 0.89566153 0.008689416
000090 23 25 67 3f c5 60 68 3f 18 c7 96 bc d1 b6 bd 3b
       0.9029104 0.9077266 -0.018405482 0.0057896157
0000a0 3c 11 fc bb 03 43 68 3f 05 46 e2 ba d1 8f 80 3c
       -0.007692484 0.9072725 -0.0017263299 0.015693577
0000b0 13 f9 2c 3c f3 68 2e 3c a6 f5 63 3b d7 6f 6b 3f
       0.010557431 0.010645139 0.003478387 0.9196753
0000c0 38 b1 47 bc cc 36 96 bb 5e 89 82 3a 7f 61 68 3f
       -0.012188248 -0.004584169 0.0009959152 0.9077377
0000d0 7d cb 91 3c f1 79 63 3f e4 da 68 3c c9 74 64 3f
       0.017797226 0.8885794 0.014212344 0.892407
0000e0 8f 06 ea bb ae 62 b9 bb 4a 06 c7 39 b8 c7 02 bc
       -0.007141895 -0.0056575155 0.00037960924 -0.007982187
0000f0 e2 33 36 3c 3a 4f dd 3a e8 f3 a0 bc 9d db 64 3c
       0.011120768 0.0016884573 -0.019647554 0.0139683755
000100 57 09 68 3f b7 63 ec 3b e7 8c 53 3c cf 5c 02 bc
       0.9063925 0.0072140354 0.012912012 -0.007956698
000110 5b d8 62 3f 97 19 67 3f a8 70 3c 3b 25 72 6b 3f
       0.8861138 0.9027342 0.0028753672 0.91971046
000120 a5 c5 14 3c a9 25 31 3c a9 e2 0a 3c 47 ee 65 3f
       0.009080325 0.010812202 0.008476892 0.8981671
000130 db b0 67 3f 8b 16 63 3f bd f4 83 3b e3 be 0c 3c
       0.90504235 0.8870627 0.004026978 0.008590433
000140 52 6a a1 bb 47 a9 6a 3f f8 45 fd 3b a5 6f 8c bc
       -0.0049260044 0.91664547 0.007729288 -0.01714308
000150 8d a5 9c bc cc ec 93 3c 3f 27 22 bc ae 8a 8d bc
       -0.01912191 0.01805725 -0.009897052 -0.017278042
000160 6f 19 14 3c 0d d4 1d bc 4e 05 8e bc 4d ca a0 3c
       0.009039267 -0.009633076 -0.017336514 0.019627715
000170 7b 07 26 3c 0b 71 1d 3c 3c 37 f8 bb 0f 6d 61 3f
       0.010133619 0.009609471 -0.007574944 0.88057035
000180 c7 76 66 3f b8 c2 85 3c 5c 62 9b bc 98 2f 9b bc
       0.9002499 0.0163282 -0.0189678 -0.018943593
000190 3f d4 62 3f 52 48 1f 3c b9 9c 65 3f bb 26 69 3f
       0.8860511 0.009721832 0.89692265 0.91074723
0001a0 35 fe 62 3f 42 18 a4 bc 2c e2 28 3c e1 ad ff bb
       0.8866914 -0.020031098 0.01030783 -0.0078027104
0001b0 fb f9 89 bb 01 e7 61 3f b7 92 35 bc 22 c8 a5 3c
       -0.004210708 0.8824311 -0.011082343 0.020237032
0001c0 5d 58 1e bc 7e 63 6d bc 45 37 65 3f 75 ae 69 3f
       -0.009664622 -0.014489053 0.8953746 0.91281825
0001d0 38 1c 4a 3c 54 ef a7 bc 9d bb ce 3b 9f 5d 9d bc
       0.012335829 -0.020499863 0.0063089863 -0.019209681
0001e0 f5 d8 96 bc b0 2e cf 3b 66 39 e8 bb 0d 9c 8d 3c
       -0.018414 0.0063227043 -0.0070869206 0.017286325
0001f0 27 5b c2 3b 09 10 6b 3c ad c1 96 3c 80 7b 7f 3c
       0.0059312764 0.014347085 0.018402899 0.01559341
000200 e7 73 eb 3b e3 6e 8f 3c 77 b7 0d bc a9 80 70 bc
       0.0071854475 0.01750893 -0.008649698 -0.0146791125
000210 9b 2c 7d bc 7c a1 5c bc ac 00 24 3b 82 fb e7 bb
       -0.015452529 -0.013466235 0.0025024815 -0.0070795426
000220 41 a4 61 3f c9 9d 86 bc 93 e6 83 3c ea df 8d ba
       0.88141257 -0.01643266 0.016101157 -0.0010824178
000230 9e 60 83 3b 1f 83 72 3c 25 f7 6b 3f a8 e2 5f 3c
       0.0040093204 0.0148017695 0.9217399 0.013664879
000240 7d 16 34 3c 8f 10 e1 bb 43 a4 67 3f ed d2 15 bc
       0.01099169 -0.006868429 0.9048502 -0.009144527
000250 94 2f 69 3c db c2 0b 3b de ff 11 3c c6 c1 11 3a
       0.014232535 0.002132586 0.008911101 0.00055601855
000260 bb 55 56 3c 3c d5 7b 3c 18 e8 bc bb f4 61 47 3c
       0.013081963 0.015370663 -0.0057649724 0.01216935
000270 c7 e3 c4 3b a5 0c 07 3c 49 21 a9 3c 06 21 84 3c
       0.0060085985 0.008242761 0.020645754 0.016129028
000280 5b db a5 bc 4d c8 05 bc 7d 3f 74 bc 88 2a a9 3c
       -0.020246198 -0.008165431 -0.014907715 0.020650163
000290 e1 d2 5c 3c 1d f5 91 bc 72 a3 0f bc 1c ac 5e 3c
       0.013478012 -0.017817074 -0.008766996 0.013590839
0002a0 0e 65 28 3b 0d 7d 85 bc e5 7f 6a 3f 27 c3 60 3c
       0.0025695 -0.01629498 0.916014 0.013718403
0002b0 89 9b 5c bc f1 11 d9 3b 99 d4 98 3c e3 8d 90 3c
       -0.013464817 0.0066244532 0.018656062 0.017645782
0002c0 47 0f 68 3f 52 8c 7e 3c bd c3 49 39 ac e3 f4 3a
       0.9064831 0.015536385 0.00019241772 0.0018683574
0002d0 6d 7c 65 3f 90 6d 91 bc 10 1a 66 3c 8c df 06 bc
       0.89642984 -0.017752439 0.0140443 -0.008232009
0002e0 76 3e a8 3c 0f 32 9f 3c d7 d6 65 3f 56 96 a3 3c
       0.020537596 0.01943305 0.89780945 0.019969147
0002f0 2b 7d 1f bc ad 9e 89 3c d8 94 f2 bb 3d 48 37 bc
       -0.009734432 0.016799295 -0.0074029975 -0.011186657
000300 34 49 cc 3b 95 aa 4b 3c 6a b7 51 3b 7f 70 96 3c
       0.0062343124 0.012430807 0.0032000192 0.01836419
000310 58 bd 6a bb 44 9d 9c bb b7 93 46 bc 6b bc a1 bc
       -0.0035818424 -0.0047794897 -0.012120179 -0.019743165
000320 47 3f 5e bc e5 6b 58 bc a0 9a 55 3c 4f a2 4c bc
       -0.013564891 -0.013209318 0.013037354 -0.012489869
000330 55 b3 6b 3f dc 3b 7f bc ab fa 98 bc 3d 0d 0f bc
       0.92070514 -0.015578236 -0.018674215 -0.008731184
000340 e1 40 62 3f 8d c3 6a 3f 9c c0 c7 bb e7 dc a3 b9
       0.8838025 0.91704637 -0.006095959 -0.00031254368
000350 a3 c5 a3 bc 3f 68 40 bc 6c 5f 18 3c e5 f6 8c bc
       -0.019991701 -0.011743604 0.009300094 -0.017207572
000360 92 a9 8f 3c c9 25 cc bb bf e4 99 3a f2 2c 90 bc
       0.017536912 -0.0062300903 0.0011741145 -0.017599557
000370 27 60 64 3f 3d 30 88 3c 65 e4 db bb ba 59 81 3c
       0.89209217 0.016624564 -0.0067105764 0.015789855
000380 60 34 c4 ba 05 b2 a3 bc d9 74 52 3c 59 70 bb 3a
       -0.0014969222 -0.019982347 0.012845241 0.001430045
000390 a5 ac 9e bc e7 ae cf 3b b9 f9 88 3c 5e b2 01 3b
       -0.019369433 0.0063379887 0.01672064 0.0019790153
0003a0 6b 58 73 bc a8 90 e9 3b 2f cd 65 bc 91 78 8a bc
       -0.014852623 0.00712784 -0.01402597 -0.016903194
0003b0 fc e0 b2 3a 08 14 83 3c 19 6c 64 3f d5 73 64 3f
       0.0013647373 0.016000763 0.89227444 0.89239246
0003c0 79 32 69 3f 57 04 6c 3f d3 84 8a 3b c5 cb a2 bc
       0.9109264 0.9219412 0.0042272597 -0.019872556
0003d0 53 1c 89 3c 02 d2 37 bc 17 80 9e 3c f5 dc 91 3b
       0.016737139 -0.011219503 0.019348187 0.004451389
0003e0 5e 8b 94 bc c4 51 b0 3b 94 18 2c 3a ee 2f 8a 3c
       -0.018132862 0.005380841 0.0006564942 0.016868558
0003f0 13 a5 9e 3b 01 83 95 bb f5 28 16 bc 87 31 17 bc
       0.0048414557 -0.004562736 -0.009165038 -0.009228117

layers.0.bias f4 [32]
000000 7b d9 69 3f ea c6 4f 3f 0d 52 73 3f c9 5d 65 3f
       0.91347474 0.81162894 0.95047075 0.8959623
000010 1f 1d 59 3f ca 47 21 3f e8 ea 99 3e 87 b7 25 3f
       0.8481006 0.63000166 0.30062032 0.64733166
000020 94 6d 67 3f 31 2e 66 3f cb b2 0e bd 59 1c d3 bc
       0.9040158 0.8991423 -0.03483848 -0.025770353
000030 40 07 5b 3f 54 f1 71 3f 64 ef 50 3f 23 87 0f 3f
       0.8555794 0.9450886 0.8161528 0.5606558
000040 24 20 b8 bc 31 d8 a6 3e 0b 77 5b 3f 1d f2 3d 3f
       -0.022476263 0.32586816 0.8572852 0.7419756
000050 8f b3 26 bd 6f 76 1d bd de 90 94 bc 26 3e e9 bc
       -0.040698584 -0.038443025 -0.018135484 -0.028472017
000060 00 a3 64 3f f4 ec 3a 3f 32 bd 4d 3f a6 7e fe 3e
       0.8931122 0.7301781 0.80366814 0.49706
000070 57 18 69 3f 6b 96 e9 bc f0 81 71 3f 25 38 ff bc
       0.91052765 -0.028514108 0.94338894 -0.031154701

layers.2.weight f4 [1, 32]
000000 68 f2 23 be d1 5c e1 bd 96 7c b6 be fa d4 80 be
       -0.1601044 -0.110040314 -0.35641927 -0.25162488
000010 af 88 43 be 7c d6 e7 bd 48 cb 81 be d4 b4 5e be
       -0.1909511 -0.113202065 -0.25350404 -0.21748668
000020 06 a9 73 be e3 01 82 be 50 02 c4 bb 74 bf bc b9
       -0.23794946 -0.25392064 -0.005981721 -0.00036000798
000030 ba 2f b9 bd 15 9d a8 be e7 2d 0e be 80 b4 1a be
       -0.09042306 -0.32932344 -0.13884698 -0.15107918
000040 81 58 e2 3d a2 15 34 bd 44 af 1f be 3b ec aa bd
       0.11052037 -0.043965943 -0.15594202 -0.08345839
000050 76 e5 2c 3d 98 b7 de 3d e1 18 13 3e 4e 0d 95 3a
       0.04221102 0.108748615 0.1436496 0.0011371763
000060 76 1c 6c be bc e7 aa bd 7e b7 ca bd a8 f0 bc bd
       -0.23057732 -0.08344981 -0.098982796 -0.09225589
000070 42 87 9f be de 3e 12 3e 08 0f 50 be 9f 57 09 3d
       -0.3115788 0.14281794 -0.20318234 0.033530828
