GraphClustering/GraphsLarge/Data/NewKarate_0_500_1_o_Forward0.pt (torch, 646019 bytes, 9 tensors)

layers.0.weight f4 [64, 2312]
000000 3a 32 15 bc fd 4d a5 3c 1b bd 3c bc 70 06 e2 3a
       -0.009106213 0.02017879 -0.011519696 0.001724435
000010 78 04 3c bb c0 14 aa b9 98 d0 9f 3b 10 08 c8 ba
       -0.0028689187 -0.00032440387 0.0048771612 -0.0015261192
000020 67 1d 9d bc c0 ca c4 ba 00 ea f3 b9 1a dd 13 3c
       -0.01917906 -0.0015014037 -0.00046522915 0.009024883
000030 93 7f a6 3c 50 bc 6e 3b 21 d4 34 bc 3a 86 1b 3c
       0.020324504 0.003642816 -0.011036904 0.009492451
000040 d9 bc 86 3c 0c 5c d2 bb 3c a9 01 bc 05 b7 2e bc
       0.016447471 -0.0064196642 -0.007913884 -0.010663752
000050 50 af 68 3b f6 18 72 bc 92 75 d8 bb b6 13 60 3c
       0.0035504885 -0.014776459 -0.0066058123 0.013676574
000060 54 5b b6 3b 38 4c c2 bb 7b 4a 96 3c f0 55 3a 3b
       0.0055650864 -0.005929496 0.018346062 0.002843257
000070 80 81 ed b9 13 a2 95 bc 74 72 fb 3b 48 40 51 bb
       -0.00045300648 -0.01826576 0.007673556 -0.0031929184
000080 4a 06 5e 3c 93 49 8d 3c b4 f5 77 bc 7c 33 b0 3b
       0.013551304 0.017246997 -0.015134264 0.005377231
000090 0b 3e 96 bc 55 d2 97 bc d0 23 86 bb 1e 75 73 3c
       -0.018340131 -0.018532911 -0.0040936247 0.014859466
0000a0 09 d9 83 bc 5e fa 75 bc a0 a5 e2 3b 44 5c b1 bb
       -0.016094701 -0.0150133055 0.0069167167 -0.0054126102
0000b0 5a 8c 7f 3c f0 08 11 3b 91 c0 90 bc 67 d0 74 bc
       0.015597427 0.0022130571 -0.017669948 -0.014942265
0000c0 00 65 47 3a 3e 8d 7b 3c 3a ac 33 bc e5 bc 74 bc
       0.0007606298 0.015353499 -0.010966355 -0.014937614
0000d0 9a c1 3c 3c d8 05 1c 3b 7a 85 52 3c 60 b3 83 bb
       0.011520768 0.0023807194 0.012849206 -0.004019186
0000e0 f5 13 12 bc f4 f4 94 bc 31 e4 9a 3c 41 3a a3 3c
       -0.008915891 -0.018183209 0.018907638 0.019925239
0000f0 36 8e 58 3c 14 ef f6 3b a8 f0 97 3b f7 f9 a9 3c
       0.0132174995 0.0075358246 0.0046368428 0.020749075
000100 13 7b 96 3c b9 4e 88 bc b7 17 93 bc 16 cc 15 3c
       0.018369233 -0.0166391 -0.017955644 0.009142896
000110 b2 c1 5a 3c 67 4b 9b 3c c4 c3 dd 3b a6 66 4d 3c
       0.013351845 0.018956853 0.006767722 0.01253668
000120 9b 49 a5 3c c8 33 32 3b 38 03 6f bc b0 13 cf 3b
       0.0201767 0.0027191509 -0.01458817 0.0063194856
000130 27 f3 98 3c 06 96 12 3c 80 bb 29 3c 12 9c 4f bc
       0.018670632 0.008946901 0.010359645 -0.012671487
000140 9e 7b 30 3c 10 98 84 bb fc 03 c6 bb 34 84 93 3b
       0.01077166 -0.0040464476 -0.0060429554 0.004501844
000150 2e 39 2f 3c 5d 0f 97 bc f7 fb 8f 3c 14 09 70 bc
       0.010694785 -0.018439943 0.0175762 -0.014650602
000160 a1 57 95 3c 4a 07 75 bc 20 68 e9 ba 5c 06 b5 3b
       0.018230261 -0.014955351 -0.0017807521 0.0055244397
000170 e0 9d 15 bc 49 0a 6b bc 36 aa 52 bc ea 6d 73 3c
       -0.009131879 -0.014345714 -0.012857964 0.0148577485
000180 c0 71 59 3a 18 c3 90 3b e0 b2 d2 bb 24 d1 cd 3b
       0.0008294843 0.0044177882 -0.006430015 0.006281035
000190 d3 cd 82 3c 7f fb 89 3c 30 d7 9e 3a 19 fc 90 bc
       0.015967285 0.016843555 0.0012118574 -0.017698335
0001a0 8e e6 38 3c 80 b8 40 39 22 51 74 3c 3e c8 77 bc
       0.011285437 0.00018379278 0.014911922 -0.015123425
0001b0 72 17 ea bb 34 b6 cc 3b a2 c1 6b 3c 76 54 6f 3c
       -0.007143908 0.0062473062 0.014389427 0.014607539
0001c0 a4 a2 0b bc 57 a4 48 bc d4 d2 05 3c 70 98 e4 3a
       -0.008522663 -0.012246213 0.008167941 0.001744045
0001d0 ab 7d 83 bc c9 20 8b 3c f0 3a 35 3b fc 61 3d bc
       -0.016051134 0.016983407 0.0027653538 -0.011559006
0001e0 9b 5a 95 bc b0 ba f3 3b b0 6e 96 ba 83 7f a9 3c
       -0.01823168 0.0074380264 -0.0011477079 0.020690685
0001f0 e4 d4 c1 3b f8 c2 af 3b f0 48 83 ba d0 6a 84 bc
       0.005915271 0.0053638183 -0.0010016244 -0.016164213
000200 71 75 a2 bc 91 05 9f bc 10 1f 95 bc db 45 a4 bc
       -0.019831391 -0.019411834 -0.018203288 -0.020052841
000210 68 05 0a 3b 5a b8 ce bb b6 7d 69 bc 16 b9 59 3c
       0.0021060351 -0.0063085975 -0.014251163 0.013288757
000220 66 24 10 3c 20 bd 8e ba e3 81 04 bc d8 8c 36 bc
       0.008797741 -0.0010890104 -0.008087608 -0.011141978
000230 70 77 c2 3b f6 02 9f bc b0 e1 fd ba 28 5d db 3b
       0.005934648 -0.019410592 -0.0019369628 0.0066944547
000240 0a 52 03 bc 70 9e 8e bb dc 31 b4 3b 35 33 a8 3c
       -0.008015165 -0.0043523833 0.0054991078 0.02053223
000250 d0 bb 10 3c 60 7c e7 3a bb b9 81 3c 60 90 8a 3a
       0.0088338405 0.0017660968 0.015835634 0.0010571592
000260 62 21 15 3c aa 6f 9c bc 90 77 a0 bb 5d de 88 3c
       0.009102197 -0.019096214 -0.0048970655 0.016707594
000270 90 cb 93 3a cd 08 89 3c 2e 69 39 3c fa 94 e1 bb
       0.0011275876 0.01672783 0.011316581 -0.0068842145
000280 2d 62 a8 bc 96 bc 7f bc c1 b1 97 bc c9 c6 a8 3c
       -0.020554626 -0.015608927 -0.018517377 0.0206026
000290 cf a5 0a bc f8 5b 18 3c 83 9a 9d 3c 46 a5 22 3c
       -0.008462383 0.009299271 0.019238716 0.0099271
0002a0 68 29 7f bb 81 03 99 3c 71 4c 8d 3c 68 60 97 bc
       -0.0038934592 0.018678429 0.017248364 -0.018478587
0002b0 64 55 a3 bb ae f2 5a bc 4a f0 7f 3c a0 92 36 bc
       -0.0049845446 -0.013363523 0.015621254 -0.011143357
0002c0 28 1a 26 bc 48 e5 16 3c 50 5a 70 3b 35 6c 9c 3c
       -0.010138072 0.009209938 0.0036674924 0.019094566
0002d0 09 44 8b 3c e8 ca 27 3c 01 4f 5f bc b2 ec 68 bc
       0.017000215 0.010241248 -0.013629676 -0.014216589
0002e0 3a 99 73 3c a2 a0 55 3c 06 8f 3d 3c b0 a8 1a 3b
       0.014868075 0.013038786 0.011569744 0.002359908
0002f0 d6 13 36 3c b3 dc a0 bc f9 56 a2 bc d4 97 21 bc
       0.011113128 -0.019636488 -0.019816862 -0.009862859
000300 00 28 a5 3a 70 ed f0 3a 61 1e 98 3c 7a b1 9d bc
       0.0012600422 0.0018381309 0.018569173 -0.019249666
000310 0c 2f f5 3b 26 b4 75 3c 36 8b 7f bc 22 8b f8 bb
       0.007482415 0.014996564 -0.015597155 -0.0075849453
000320 03 32 84 3c 97 20 02 bc 90 f6 88 bb 32 a8 12 3c
       0.016137129 -0.00794234 -0.004179783 0.008951234
000330 e8 11 54 3b 5e 2c 32 3c 50 27 c3 3b 24 04 e5 3b
       0.0032359306 0.010874836 0.005955614 0.006989019
000340 00 32 51 3a 07 ab 0a bc 2e 4f 70 3c 34 e4 8c 3b
       0.0007980168 -0.008463628 0.014667315 0.004299665
000350 fd 3c 85 3c 48 6c 54 3b a0 8b ec 3b 63 15 9c 3c
       0.016264433 0.0032413173 0.007218793 0.019053167
000360 54 e4 34 bc bd 95 9d 3c b2 40 6f bc 23 c9 0e bc
       -0.011040766 0.01923644 -0.014602827 -0.008714947
000370 da d6 32 3c 60 5c a2 bb 68 3f 24 bb ae 2d 29 3c
       0.010915482 -0.0049548596 -0.0025062207 0.010325832
000380 6b 52 a4 3c 21 08 88 3c 70 bd 42 bb 69 36 96 bc
       0.020058831 0.016605439 -0.0029714964 -0.018336492
000390 96 b8 d3 bb 33 61 80 bc 20 a5 34 3b 80 ae 65 3b
       -0.0064612133 -0.015671348 0.0027564242 0.0035046637
0003a0 8a 31 7c 3c c3 22 91 3c 80 23 52 b9 70 e4 15 bc
       0.01539267 0.017716771 -0.00020040385 -0.009148702
0003b0 cc 87 b3 bb 34 9a 99 bb 78 de 9b bc 7a 1e 82 bc
       -0.0054788347 -0.004687572 -0.01902698 -0.015883673
0003c0 df 9a 7f bc 80 2d fa b9 16 7e 96 bc a0 b8 a0 ba
       -0.015600889 -0.00047717616 -0.01837067 -0.0012262054
0003d0 6f 22 3b bc 75 55 12 bc bb c9 98 3c 40 94 a7 39
       -0.011421784 -0.008931507 0.01865088 0.00031963177
0003e0 b7 2a 80 3c 53 15 8c bc 55 e5 25 bc 95 1b 13 bc
       0.015645368 -0.017100012 -0.010125478 -0.008978744
0003f0 a9 08 8f 3c 54 99 d4 3b 9c cb 97 bb 4b c3 3c bc
       0.017460184 0.0064880047 -0.0046324264 -0.011521171

layers.0.bias f4 [64]
000000 62 b9 48 3c e2 c9 7f 3c 54 80 60 bc d2 50 77 3c
       0.01225123 0.015612097 -0.013702471 0.015094953
000010 f9 2f 9b 3c e8 74 06 bb 03 26 85 3c 0a 11 ca bb
       0.018943774 -0.002051646 0.016253477 -0.006166582
000020 b8 4e 4e bb e0 95 60 ba 17 9a 9d bc 5d 31 92 bc
       -0.0031480026 -0.0008567255 -0.019238515 -0.017845804
000030 ad b6 8a 3c 65 b0 91 3c 7a 79 14 bc d0 df 84 bb
       0.01693281 0.017784307 -0.009062165 -0.004055001
000040 0c 78 84 3b 6e 3e 71 3c 23 92 4c bc d4 52 e9 bb
       0.004042631 0.014724357 -0.012486014 -0.0071204696
000050 c5 3c 02 bc a6 c3 64 3c 16 c2 c4 bb 00 6e 87 ba
       -0.007949059 0.013962662 -0.006004582 -0.0010332465
000060 de 3e 2c 3c 08 c0 90 3b 91 1a a6 3c 3c a0 e2 3b
       0.010513036 0.004417423 0.02027634 0.006916074
000070 2e a8 ff bb 96 c9 42 3c 7c f8 9f bb c8 d2 bf 3b
       -0.007802031 0.011888882 -0.0048819166 0.0058539845
000080 d8 4f 82 bb 40 5a be ba dc 4c e6 bb 50 e3 0c bb
       -0.0039768033 -0.0014522746 -0.0070282053 -0.0021497793
000090 9b f5 8a 3c b6 2e 52 3c 76 20 a8 bc b8 b4 96 bb
       0.016962817 0.01282852 -0.020523291 -0.00459918
0000a0 a3 ce 77 bc 9a 7b 50 3c 20 c7 ac 3b 31 d6 9d bc
       -0.01512495 0.012724781 0.005272761 -0.019267173
0000b0 c3 81 2c bc 24 28 0f 3c 70 5a 08 3c 20 4b 9d bc
       -0.0105289845 0.008737598 0.008322343 -0.019200861
0000c0 38 98 ed 3b 32 13 25 bc 39 0f 90 3c 08 2a d9 3b
       0.007250812 -0.010075377 0.017585384 0.006627325
0000d0 1c 50 e4 3b 00 8d b9 ba e0 a6 ce ba 65 2e 09 bc
       0.0069675576 -0.0014156401 -0.0015766285 -0.008372878
0000e0 20 3f 2b ba e3 78 8c bc 78 05 2a 3b d0 09 d8 bb
       -0.00065325387 -0.017147487 0.00259432 -0.0065929666
0000f0 10 5f c0 3b 86 f4 9b bc d8 61 c2 3b e8 3b 8e 3b
       0.0058707073 -0.019037496 0.005932074 0.0043406375

layers.2.weight f4 [64, 64]
000000 9c 6b 43 bd ec 4c a0 bd c0 b7 ee bc 3a 30 f5 bd
       -0.047710046 -0.07827172 -0.029140353 -0.11972089
000010 b8 0b b8 bc cc ff b4 3d b8 06 04 bd 54 fb 30 bd
       -0.022466525 0.08837852 -0.03223297 -0.043208435
000020 94 62 57 bd 9e 14 bd bd a0 51 4f 3c 04 1c 5c 3d
       -0.052584246 -0.09232448 0.012653738 0.053737655
000030 20 12 5b 3c 1c 7e 83 bd d8 e0 e9 bd 1e 3c a9 3d
       0.013371021 -0.06420538 -0.11419839 0.082634196
000040 e0 da c8 bd d6 18 ad 3d 74 06 79 bd 3e 96 f0 3d
       -0.09807372 0.08452003 -0.06079717 0.117474064
000050 c8 e9 1e 3d b8 ef 9f 3d dc 4f bf 3d e0 9a 18 bd
       0.03879717 0.078093946 0.09341404 -0.037257075
000060 b4 25 2c 3d 4a df f4 bd e4 d4 f1 bd d4 be 62 bd
       0.042028144 -0.119566515 -0.11808184 -0.05535777
000070 e8 7c c7 3c b6 4c 98 3d 00 b4 ee bd c0 b7 9e bc
       0.024351552 0.074365065 -0.11655426 -0.019374728
000080 d0 c8 49 3d 68 53 ee bd c6 2c c0 3d 10 a3 99 bc
       0.049263775 -0.11637002 0.0938354 -0.018754512
000090 50 44 25 bc 06 2f 8c 3d 36 62 e9 3d 96 9b ba bd
       -0.010087088 0.068449065 0.113956854 -0.09111707
0000a0 5c 84 5f 3d e0 17 66 bc 8a 03 fe bd 30 44 8a 3d
       0.054569587 -0.014043778 -0.12403019 0.06751287
0000b0 92 de c3 3d dc 93 0b bd c0 4e 83 bc ba 18 bd 3d
       0.09563936 -0.034076557 -0.016028762 0.09233232
0000c0 64 fa ab bd 20 ba 8e 3d 7c ff d9 bd 20 6b f6 bc
       -0.083973676 0.06969094 -0.10644433 -0.030080378
0000d0 94 a1 85 3d 00 37 f1 bc 76 94 ad bd 98 88 80 bc
       0.06524959 -0.029445171 -0.08475582 -0.015690133
0000e0 84 e5 79 bd 92 df 8a bd fc cf e7 bd 6a 6b ea bd
       -0.0610099 -0.06780924 -0.11318967 -0.11446269
0000f0 f0 23 7f bd 20 91 38 bd c0 f3 2a 3c 80 4b 64 bd
       -0.062290132 -0.045060277 0.010434091 -0.055736065
000100 9e 2f 8a 3d d0 49 98 bd a6 24 e4 3d c4 03 4e bd
       0.067473635 -0.074359536 0.11139803 -0.05029656
000110 00 47 5c ba 1c 0e 81 bd d6 11 87 bd 58 1a e9 3c
       -0.0008402914 -0.06301519 -0.06595199 0.028454944
000120 5a 96 b0 3d 3c 1d 0c 3d 1e 9f dd bd a6 14 f0 3d
       0.08622427 0.034207568 -0.10821365 0.117226884
000130 4c eb c1 3d 50 4d bb bc e0 ab d5 bc 30 c4 01 3c
       0.094687074 -0.022864014 -0.026082933 0.00792031
000140 1c 35 ec 3d 20 06 b3 3d 10 e3 ee 3d 34 6f 1e 3d
       0.11533567 0.087414026 0.116644025 0.03868027
000150 d0 10 f9 3d 70 d9 17 3c 40 5c c5 3d 28 e7 94 bd
       0.1216141 0.00926815 0.09636736 -0.07270652
000160 f2 41 a8 bd 18 f5 8d bc ec 7c 2d 3d a8 87 ff bc
       -0.08215703 -0.017328784 0.042355463 -0.031192616
000170 ae e2 8a bd 38 f2 7e bd ee e4 89 3d 0e 39 96 bd
       -0.06781517 -0.062242717 0.06733118 -0.07335101
000180 c6 56 c2 bd 8a ca a4 3d 40 cc 8b 3b b0 ae 3b bd
       -0.09489207 0.08046444 0.004266292 -0.04582089
000190 68 a4 f5 3c c6 55 d2 bd 16 95 84 bd 18 26 e7 3d
       0.029985622 -0.10270266 -0.064737484 0.11286563
0001a0 9e 10 a6 bd 32 aa ea 3d 50 e7 0b 3d 14 d3 77 3d
       -0.08108638 0.114582434 0.034156144 0.060504034
0001b0 80 8a 4c 3c 98 f9 f1 3d f0 b4 cd 3c 64 13 1f bd
       0.012484193 0.11815184 0.025110692 -0.03883685
0001c0 02 d4 8e bd 50 c6 39 bc 60 eb 7b 3c 1a df ef bd
       -0.06974031 -0.011338785 0.015375942 -0.11712475
0001d0 0a 65 88 bd f2 0a c9 3d 94 e1 45 bd 12 28 90 bd
       -0.06659897 0.09816541 -0.04831083 -0.07038893
0001e0 5a e7 cf 3d 30 09 e7 bd 0e 07 e0 3d 48 18 e6 3d
       0.10151549 -0.11281049 0.109388456 0.112351
0001f0 2a 1c 9c bd 9c 99 7b bd 80 2c d4 ba 68 ab ce 3c
       -0.07622559 -0.06142579 -0.0016187578 0.025228217
000200 48 b9 e9 3c d8 d3 c4 bc ec 0c 58 3d 60 de 91 bb
       0.028530732 -0.024026796 0.0527467 -0.004451558
000210 30 d7 f9 3c f0 71 9e 3d 9a 87 d5 bd 20 41 8f bc
       0.030498117 0.077365756 -0.104262546 -0.017487109
000220 80 5c 41 bc a0 fc 47 bd 60 28 bb 3c 22 da f6 3d
       -0.011801839 -0.048824906 0.0228464 0.12053324
000230 40 d3 de bc 60 c8 bd 3b f4 da 55 3d a4 26 ad bd
       -0.027200341 0.005791709 0.052210763 -0.08454636
000240 4c 80 f5 bd 04 ce 99 bd 2c 49 8f 3d 20 e5 c5 3b
       -0.11987361 -0.075099975 0.06996378 0.0060392767
000250 98 52 fc 3c c0 46 cd bc 0e c6 e7 3d b4 05 f6 3d
       0.030801103 -0.02505815 0.11317073 0.120128065
000260 c0 f1 2f bb 5c c6 a4 3d 4a 67 d6 bd da bc 83 bd
       -0.0026846975 0.080456465 -0.104689196 -0.06432505
000270 0c 8b 25 3d 68 c9 a9 3d fa 7d ed 3d 80 5c 28 bd
       0.04041581 0.08290368 0.11596294 -0.04110384
000280 a8 b4 45 3d 70 5e 70 bd b8 6c 66 bd 32 08 c5 bd
       0.04826799 -0.058683813 -0.056256026 -0.09620704
000290 bc 9f a7 bd c0 95 86 bc fc 4b 1a 3d a8 61 e2 bd
       -0.08184764 -0.016428828 0.03767012 -0.11053783
0002a0 3a 39 cb 3d 88 c8 77 bd c0 c5 32 3b 98 e4 8e 3d
       0.099230245 -0.060493976 0.0027278513 0.069771945
0002b0 3c a9 01 3d 26 87 c0 bd 8c 3d bd bd e0 42 52 3c
       0.031655535 -0.094007775 -0.09240255 0.012833327
0002c0 c6 ff 9c 3d 58 d2 bd bc 70 db f5 3d 00 6c e0 bd
       0.076659724 -0.023171589 0.12004745 -0.10958099
0002d0 d8 af e2 3c 8e 5c bb 3d 8c ae fe 3d 3c e9 06 bd
       0.02767174 0.09148513 0.12435636 -0.032937273
0002e0 84 e1 64 3d 34 85 66 bd 20 f2 9e 3c 70 c0 ed bd
       0.05587913 -0.056279376 0.019402564 -0.1160897
0002f0 58 87 99 3c 18 1f e2 bc 60 46 19 bd 00 39 4b bd
       0.018741295 -0.027602717 -0.03742063 -0.049614906
000300 d8 8a e6 bc dc 5e bb bd 08 fd 38 3d d2 6e c1 3d
       -0.028142378 -0.09148952 0.045163184 0.094449654
000310 50 61 c3 3c e6 00 e5 3d 16 27 9c bd aa d2 9e 3d
       0.023850113 0.11181812 -0.076246426 0.07755025
000320 a0 12 e8 bb ec 03 69 bd 28 a6 5e bd 00 2e 90 bc
       -0.0070822984 -0.056888506 -0.054357678 -0.01760006
000330 40 ff f5 3c 98 d7 ee bc 52 55 e2 3d b0 f9 74 bc
       0.03002894 -0.029155537 0.1105143 -0.014952108
000340 a8 ae 90 bc 7e a1 ab 3d 4a ba f5 3d 50 7e 16 bd
       -0.017661408 0.083804116 0.119984224 -0.036741555
000350 68 24 e1 3d 16 61 f0 3d 50 b3 8c bd b8 ac 77 3d
       0.10993272 0.11737268 -0.06870139 0.06046745
000360 30 a7 b5 3d 98 c2 8f bc a8 44 4e 3d 58 c5 07 bd
       0.08869779 -0.017548844 0.050358444 -0.033147186
000370 3c 76 a8 bd ae e6 a8 3d a4 11 9d 3d 40 ec 0c bc
       -0.082256764 0.08247124 0.0766938 -0.008601248
000380 80 a7 ef bd 40 de d2 bc 24 32 2f bd 6c 89 8c 3d
       -0.1170187 -0.025740743 -0.042772427 0.06862149
000390 3c ce 5c bd e0 06 04 bc f8 4b c2 3c 1c 59 15 bd
       -0.053907618 -0.00805828 0.023717865 -0.036461934
0003a0 42 91 f0 3d 54 e1 57 3d 2c 62 18 bd 18 01 9d bc
       0.11746456 0.052705124 -0.037203 -0.01916556
0003b0 b2 f8 eb 3d c4 7e bd bd a4 ac cf 3d 90 5d 0d bd
       0.11522044 -0.09252694 0.101403505 -0.034513056
0003c0 f0 a7 2d bc e0 85 da bc 44 df e8 3d 54 f6 41 bd
       -0.010599121 -0.026675165 0.113707095 -0.047354057
0003d0 20 e9 92 bc 44 d8 dd 3d 84 8c c7 3d 04 6d e2 3d
       -0.017933428 0.10832265 0.09743598 0.11055949
0003e0 bc 04 74 bd 2a 04 cb 3d d6 db 9a 3d 66 1d b1 3d
       -0.059574828 0.099129036 0.07561462 0.086481854
0003f0 00 3d 43 3a 58 55 86 3d 12 a1 d4 bd da f2 e6 bd
       0.00074477494 0.06559247 -0.10382284 -0.11276789

layers.2.bias f4 [64]
000000 b0 0a d6 3c 20 99 8a bc 30 d2 63 bd 70 fb 0e 3c
       0.026128143 -0.016918719 -0.055620372 0.00872694
000010 7c ed bf 3d 5c 50 a9 3d 84 89 d8 bd fc 93 9b bd
       0.093714684 0.082672805 -0.10573104 -0.07596585
000020 e0 22 fc 3c 10 7c f4 3d 54 07 e9 bd cc 9f 4c 3d
       0.030778348 0.119377255 -0.11378351 0.04995708
000030 80 78 d2 3a 70 33 59 3c 5a 9c 93 3d 44 3b e1 bd
       0.001605764 0.013256893 0.07207556 -0.10997632
000040 50 11 14 3c 04 45 07 bd 48 97 e9 3d 14 3b 38 bd
       0.009037331 -0.033024803 0.11405808 -0.044978216
000050 80 8e 35 3c 90 40 77 3c f8 f5 dd 3c 10 b1 78 bd
       0.011081338 0.0150910765 0.027094826 -0.060715735
000060 0c be 60 bd 86 24 9f 3d a8 8c 7d 3d b2 8f a6 bd
       -0.054868743 0.07770638 0.06190172 -0.081328765
000070 98 c1 7a 3d f4 2d fd bd b8 01 7e bd de 82 96 3d
       0.06121978 -0.123622805 -0.062013358 0.0734918
000080 40 07 f5 3d b4 5d 98 bd d2 af fd bd c0 ee 67 bc
       0.119642735 -0.074397475 -0.12387051 -0.0141560435
000090 18 9e 9e bd 4a d0 90 3d 12 ee a5 bd a6 3f d6 3d
       -0.07744998 0.07070978 -0.08102049 0.10461359
0000a0 00 87 1b bb e2 37 ad 3d 58 b9 f2 3c ea c8 d6 bd
       -0.002373159 0.084579244 0.029629394 -0.1048754
0000b0 00 84 f5 bd 6c e9 c0 bd 74 27 e0 3d 40 1c ae bc
       -0.119880676 -0.09419522 0.10945025 -0.021253705
0000c0 ac 88 af bd c4 6c 72 3d 46 93 f7 3d 44 b7 68 3d
       -0.0857099 0.05918576 0.12088637 0.0568154
0000d0 dc d2 dc 3d a4 10 b9 3d 1a e2 df bd 46 97 ae 3d
       0.10782406 0.09036377 -0.10931797 0.08524947
0000e0 a4 ee 62 3d dc b0 d9 3d 58 0f a3 3d c0 70 3d bd
       0.055403367 0.106294364 0.07961911 -0.046250105
0000f0 b0 7a 86 bd c0 2e ac bc 2e 0b f7 3d ec 79 62 3d
       -0.065663695 -0.021018386 0.12062679 0.055292055

layers.4.weight f4 [64, 64]
000000 ec 1c 04 bd 42 05 c1 3d c6 6e ca 3d b4 8f ec 3d
       -0.032254145 0.09424831 0.098844096 0.11550847
000010 2c 16 12 3d d4 14 b9 bd ae b7 ce 3d 04 0f fe bd
       0.035665676 -0.09037176 0.10093628 -0.12405208
000020 86 27 83 3d 7c 4f 7a bd d2 e5 87 bd 52 f8 d3 3d
       0.06404023 -0.06111096 -0.066356316 0.10350098
000030 04 b5 29 3d b8 dd 8f 3c 18 56 54 bd b8 c1 4c bd
       0.041432396 0.017561778 -0.051839918 -0.049989432
000040 40 bf 4f bc 90 3a dd 3c 18 a0 ca bc 02 10 88 3d
       -0.012679875 0.027005464 -0.024734542 0.06643678
000050 9e fc f3 3d 84 8a cc 3d 50 84 a9 3c b4 b2 3e 3d
       0.11913417 0.09987357 0.020692974 0.046557143
000060 60 49 ec bb 32 d5 a6 3d e8 39 85 3c 98 71 1f 3d
       -0.0072108954 0.081461325 0.016262963 0.03892669
000070 a8 4a da bd 64 71 f9 bd 38 9e ab 3d 20 1a 96 3b
       -0.10658771 -0.12179831 0.08379787 0.004580751
000080 be db cf bd 4c 8b 83 bd 06 3d fa bd f4 5c aa bd
       -0.10149334 -0.06423053 -0.122186705 -0.08318511
000090 4e a8 c9 bd 08 71 ec bc 98 b0 cc bc 0e c9 fe bd
       -0.09846555 -0.028862491 -0.02498655 -0.12440692
0000a0 b8 f5 a7 3d 5c f2 82 3d 42 c0 e0 bd 9a b3 89 3d
       0.08201164 0.06393883 -0.1097417 0.067237094
0000b0 d0 c9 01 bc 4a ce fc 3d 68 bf 85 bd 6a a0 e8 3d
       -0.007921651 0.12344034 -0.065306485 0.113587216
0000c0 6c e3 d6 bd dc 1f 26 bd e8 4d b8 3c fc 6d ef bd
       -0.10492596 -0.040557727 0.022498086 -0.116909
0000d0 d8 24 91 3d a0 d7 20 bc 80 f9 ca bb a2 21 dc bd
       0.070871055 -0.009817034 -0.0061942935 -0.107486024
0000e0 30 52 6c bc f0 b9 f0 bd 7a fb fc bd ac 84 84 3d
       -0.014423892 -0.11754215 -0.12352653 0.06470618
0000f0 98 17 7d bd a4 b7 38 bd 9c cc 70 3d 5c 66 86 bd
       -0.06179008 -0.04509701 0.05878888 -0.06562492
000100 96 09 86 3d d2 14 98 3d e4 19 4d 3d d8 7c 72 3d
       0.06544797 0.07425846 0.05007352 0.05920109
000110 c4 f4 bb 3d 86 75 89 3d 20 45 2b 3c d0 d9 08 bc
       0.09177545 0.06711869 0.010453492 -0.008352712
000120 e8 be f9 3d e0 27 c5 3b 2e 74 df bd fc db 31 bd
       0.121946156 0.0060167164 -0.109108314 -0.043422684
000130 78 8c 26 bd bc 31 f8 3d 52 05 94 bd ac ed 6f 3d
       -0.040661305 0.12118861 -0.07227577 0.05857627
000140 04 8d ba 3d e4 b1 a1 3d e0 fe fa 3c 68 37 ee bc
       0.09108928 0.07895258 0.030639112 -0.029079154
000150 c4 47 c6 3d 90 95 3e bd 86 fc 8f 3d 40 d7 dc bd
       0.09681657 -0.046529353 0.07030587 -0.10783243
000160 b0 35 93 3d d0 49 30 bc 40 87 b1 bb a0 06 74 bc
       0.071879745 -0.010759786 -0.0054177344 -0.014894158
000170 68 49 d9 3c 48 6d d7 bd 20 c5 2e 3c 60 8e ee bd
       0.02652426 -0.105188906 0.010667115 -0.116482496
000180 e4 3d d1 bd 6e be 8f bd 98 a0 df bc 22 02 e2 3d
       -0.10216883 -0.070187435 -0.027298257 0.11035563
000190 0e 40 e3 bd 60 56 82 bc 00 df 25 3a 5c e3 f0 bd
       -0.11096202 -0.015910327 0.000632748 -0.11762115
0001a0 a6 e2 f9 3d 10 21 27 3c 60 bd 84 bb 5c 6b 29 bd
       0.12201433 0.010200754 -0.0040508956 -0.04136215
0001b0 30 29 11 bd 3e 0c c7 bd 26 3b f9 bd b4 a3 6f bd
       -0.03543967 -0.09719132 -0.12169485 -0.05850573
0001c0 f4 bc a9 bd b2 15 f7 3d d0 da 57 bd 58 d9 9e bd
       -0.08287993 0.12064685 -0.05269891 -0.07756299
0001d0 9e c3 a7 bd 62 b0 95 3d 74 ea 66 bd 56 c6 88 bd
       -0.08191608 0.07309033 -0.056375936 -0.066784546
0001e0 80 30 01 bd 7a 16 b6 bd bc 04 f9 3d d6 8d f3 3d
       -0.031540394 -0.08891006 0.12159106 0.118922874
0001f0 98 2a 2b 3d 00 10 2c bd f0 66 6d 3c d8 e7 e2 3c
       0.041788667 -0.042007446 0.014489874 0.027698442
000200 04 7f 16 bd cc 53 27 bd 14 c1 89 3d 80 dd c5 3c
       -0.036742225 -0.0408514 0.0672628 0.024153471
000210 f0 34 0f 3c c0 3c 92 bb ac 46 2f bd be f4 9b 3d
       0.008740649 -0.0044628084 -0.042792007 0.0761504
000220 c6 5e cf bd 54 05 2a bd 18 3f db bc 00 4f 27 3d
       -0.101254985 -0.041508988 -0.026763484 0.040846825
000230 b8 2f 9f 3c 82 f8 fe bd 48 e2 e4 bd 5c a0 5c 3d
       0.019431934 -0.12449743 -0.11175972 0.053863868
000240 7e 16 f3 bd 46 e3 b7 bd 60 03 ac 3b 00 a9 39 3d
       -0.118695244 -0.08978896 0.005249426 0.045327187
000250 a8 a7 d6 3d c0 6f bf 3b aa 6f e1 3d 18 05 f0 3d
       0.10481197 0.005842179 0.11007626 0.117197216
000260 ec e9 55 3d 0a 56 ca 3d 70 c2 73 3d 44 9a 39 bd
       0.05222504 0.09879692 0.059511602 -0.045313135
000270 fe fd 87 bd 98 92 bd 3c c4 2a ac bd 40 f6 65 bd
       -0.06640242 0.02314119 -0.084065944 -0.056143045
000280 fe c2 ce 3d 80 8d 8b 3a 70 70 1a bc f0 33 d0 3d
       0.100957856 0.0010647029 -0.009426221 0.10166156
000290 da ec 8d 3d 06 97 b1 3d 7c 7a 78 bd 10 98 ee bc
       0.069299415 0.086713836 -0.060663685 -0.029125243
0002a0 80 4b fc bc 4c 5e 7f bd 94 e5 36 bd d0 79 73 bc
       -0.03079772 -0.062345788 -0.044652537 -0.014860585
0002b0 70 84 f7 bc 98 22 ab bc 8c 03 a0 3d 70 85 fe bc
       -0.030214518 -0.020890519 0.078131765 -0.031069487
0002c0 4e fa b7 3d 06 d9 84 3d 98 67 e7 3d 68 c9 65 bd
       0.08983289 0.064867064 0.11299056 -0.05610028
0002d0 70 de 17 3c 28 3d 48 bd 36 90 bb 3d c2 00 ac bd
       0.009269342 -0.04888645 0.091583654 -0.08398582
0002e0 dc 99 25 bd 7e 64 9f 3d 14 7d 1d 3d e4 d9 f1 bd
       -0.040429935 0.07782839 0.038449362 -0.118091375
0002f0 24 63 1f 3d b4 20 84 3d ba 22 a3 bd 7a 15 f3 3d
       0.038912907 0.0645155 -0.07965608 0.11869331
000300 10 6b 5c bd 6e cd 8c bd 4c b9 7c bd 34 0b c8 bd
       -0.05381304 -0.0687512 -0.06170015 -0.09767762
000310 e4 1a 8e bd 82 1e 81 3d e4 35 f6 bd aa 7c a8 bd
       -0.06938723 0.06304647 -0.120219976 -0.08226903
000320 f0 5d b8 bd 0c 1c aa bd b8 3b 8f 3d 3c 9a a0 bd
       -0.09002292 -0.08306131 0.06993812 -0.07841918
000330 f8 98 73 bd 80 65 49 bb 78 09 27 3d 6c df 1e 3d
       -0.059472054 -0.0030730665 0.040780514 0.03878729
000340 28 e4 c1 3d 90 a6 fe bd 28 67 a0 bc 60 d2 e2 3b
       0.094673455 -0.12434113 -0.019580439 0.0069220513
000350 7c fb a8 3d 18 0a a5 bc 6a c4 9a bd 1c 45 45 3d
       0.08251092 -0.020146415 -0.07556994 0.04816161
000360 04 55 40 bd c2 92 e8 bd 92 04 bb 3d 58 8e 92 3d
       -0.046956077 -0.11356117 0.09131731 0.07156056
000370 4c db 44 3d 5e ff e3 3d 50 26 97 bd 60 8f 91 3c
       0.0480607 0.11132692 -0.073803544 0.017768562
000380 d8 89 42 3d fe 27 f2 3d ea fc f0 bd 34 a2 1a 3d
       0.04749474 0.11824034 -0.117669895 0.037752345
000390 c2 c7 ec 3d 1e 42 dc 3d a8 5f 77 bd 5c c7 a0 bd
       0.11561538 0.10754798 -0.06039396 -0.07850525
0003a0 40 27 f0 3b a8 5f a1 bd 00 40 1c b8 f0 61 f0 bc
       0.0073288977 -0.07879573 -3.7252903e-05 -0.029343575
0003b0 40 b5 f9 bc 74 3b 15 bd 28 32 88 3d 60 32 6a bc
       -0.030481935 -0.036433652 0.066501915 -0.014294237
0003c0 f6 6b a4 3d e8 23 04 bd 3c 85 40 3d e0 17 9b 3b
       0.080284044 -0.032260805 0.047002062 0.0047330707
0003d0 50 ba 2b 3d 00 8a 73 bd 6c 37 a7 3d 6a 66 9c bd
       0.04192573 -0.05945778 0.08164868 -0.076367214
0003e0 0e 09 ae 3d 98 84 af 3c 82 ad fe 3d ca 6c fb 3d
       0.08497821 0.02142553 0.12435438 0.12276609
0003f0 8a 79 97 bd fc 83 e8 bd 18 f9 80 3d 50 3c 17 3d
       -0.073962286 -0.11353299 0.06297511 0.036922753

layers.4.bias f4 [64]
000000 a0 ac dd bd 6a 45 8e bd 00 7c 48 bb c4 cf ae 3d
       -0.10823941 -0.069468334 -0.0030591488 0.08535722
000010 68 05 f9 3d de 03 98 3d fe 72 f3 bd 4a 4a eb 3d
       0.12159234 0.074226126 -0.118871674 0.11488779
000020 ac bc 99 bd 04 19 3b 3d 42 b3 9c bd 00 7c c3 bd
       -0.075066894 0.045678154 -0.07651378 -0.095451355
000030 d8 6e f9 3c e0 4b 5b bc f6 bd cb bd a8 61 fb bd
       0.030448362 -0.013384789 -0.099483415 -0.12274486
000040 88 08 8a 3c f0 04 b5 bc 40 6b 6f bc 50 5b 90 3d
       0.016849771 -0.022097081 -0.014612973 0.070486665
000050 e4 fc 20 bd 78 eb e7 bd 8c d0 3d bd 7c a0 60 bd
       -0.039303675 -0.11324209 -0.046341464 -0.05484055
000060 fc 20 72 3d 16 f9 91 3d 7a b3 fb bd b0 d3 65 bd
       0.059113488 0.071275875 -0.12290092 -0.056110084
000070 4e 45 f6 bd d8 7a ee 3c 58 09 b3 3c 24 20 22 3d
       -0.120249376 0.02911131 0.021855041 0.039581433
000080 8e 6f d6 bd 5c 8f c4 bd 50 a8 24 bc e4 c5 4c 3d
       -0.10470496 -0.09597656 -0.010049894 0.04999341
000090 88 a0 0e bd 20 ca f2 3b 78 4c 8e bd a0 15 16 3c
       -0.034821063 0.007409349 -0.06948179 0.009160429
0000a0 10 ad 97 bc 4e 82 a4 bd 04 05 14 3d 70 4b 8e bd
       -0.01851514 -0.08032666 0.036137596 -0.06947982
0000b0 ac 21 c2 bd 80 a0 88 3a 78 80 d2 bc 3a 0f ae bd
       -0.09479079 0.0010423809 -0.025696024 -0.08498998
0000c0 a4 e0 ab 3d 00 13 fa 3d 68 2e a8 3c ee 98 ac bd
       0.08392456 0.12210655 0.02052994 -0.084276065
0000d0 14 ee 86 3d 90 d2 91 bd 00 1c 9d bc b0 99 84 bd
       0.065883785 -0.0712024 -0.01917839 -0.06474626
0000e0 bc 8c 88 bd 78 dd ef bd 48 3b a3 3d cc 23 3a bd
       -0.06667468 -0.11712164 0.079702914 -0.045444295
0000f0 f8 d4 ad bc 26 f4 da bd e0 a0 c4 bb 1c ed 28 3d
       -0.021219715 -0.10691099 -0.006000623 0.04124175

layers.6.weight f4 [64, 64]
000000 e8 38 9a bc 3e 5d a1 bd 14 c4 d7 3d 00 b4 4e 3c
       -0.018825963 -0.07879113 0.10535446 0.0126161575
000010 30 0a 48 bc 3c 02 48 bd ba 56 c4 3d 80 b2 67 bb
       -0.01220946 -0.048830256 0.09586854 -0.0035354197
000020 00 b0 56 39 58 b3 5d 3d a0 50 f6 bc 94 ed 5e 3d
       0.00020474195 0.054126114 -0.030067742 0.05442579
000030 e0 ee a8 bc c0 11 2d bc d6 1f de 3d 38 20 be bd
       -0.020621717 -0.010563314 0.10845916 -0.09283489
000040 50 b3 2b 3c 00 1d ee 3a e8 3f 55 3d 80 c8 93 3c
       0.010479763 0.0018166602 0.0520629 0.018039942
000050 ba fd 87 3d 00 bd 97 bd 8e 6b eb 3d e0 50 cb 3b
       0.066401914 -0.07409096 0.11495124 0.0062047094
000060 1c 2d 6e 3d ea 1a c5 bd 28 63 67 3d b4 4e 38 3d
       0.05814849 -0.09624274 0.056491047 0.044996932
000070 24 d8 a1 3d a8 14 68 bd 50 3d 46 3d a2 90 e7 3d
       0.07902554 -0.056660324 0.048398316 0.113068834
000080 d0 bf 8c bc 18 af 08 3d 1e 30 ba 3d 92 5d d4 3d
       -0.017181307 0.033370107 0.09091209 0.103694096
000090 c0 67 a4 3b c4 39 61 bd 60 4e 38 bd 08 0f c9 3c
       0.005017251 -0.05498673 -0.04499662 0.0245433
0000a0 38 36 e1 3d 8a 77 d5 bd 70 be 55 bd 68 2a 6f 3d
       0.109966695 -0.10423191 -0.05218357 0.05839005
0000b0 3a db cb bd 0c c2 cc 3d b8 a9 81 3c 46 44 84 3d
       -0.099539235 0.09997949 0.015827999 0.064583346
0000c0 38 19 a7 3d 9a 9d ed bd 7c 62 8b bd d4 66 04 bd
       0.08159107 -0.11602326 -0.06805894 -0.032324627
0000d0 20 e1 9d bd 0c cb 56 bd c4 2b b7 bd 44 5c 82 3d
       -0.07708955 -0.052439734 -0.089438945 0.063652545
0000e0 38 e1 85 bd e8 f2 17 bd f0 f9 e0 3c da 30 a3 3d
       -0.06537098 -0.037096888 0.02746293 0.07968302
0000f0 58 48 9c 3d bc db ce 3d bc 6e 8a bd 90 81 fc 3d
       0.07630986 0.10100505 -0.06759402 0.123293996
000100 b4 ad 86 3d 00 22 66 bc 58 57 c3 bd 34 eb 1a bd
       0.065761 -0.014046192 -0.09538144 -0.037821963
000110 48 12 9f 3c e4 59 2e 3d 46 00 e1 bd b0 b6 b1 3d
       0.019417897 0.042566195 -0.1098638 0.08677423
000120 a0 ac 4e 3d 30 a7 ea bd e2 d5 d0 bd 08 c3 a3 bd
       0.050457597 -0.1145767 -0.10197045 -0.07996184
000130 d0 2e 5e 3d bc 40 ad 3d 5c f5 aa 3d 14 ad d4 3d
       0.054243863 0.08459613 0.0834758 0.103845745
000140 fa 36 de bd 34 8e 28 3d 02 16 e3 3d 36 ff 80 3d
       -0.1085033 0.04115124 0.11088182 0.062986776
000150 d8 19 9a bd c0 ca 2e 3b 14 c8 6d bd 24 ac 75 3d
       -0.075244606 0.0026671141 -0.058052137 0.05997862
000160 e0 06 4f 3c 6e 63 b9 bd 58 c5 f2 bd 56 c8 f3 3d
       0.0126359165 -0.09052168 -0.118540466 0.119034454
000170 78 94 ba 3d b0 61 a6 bc 00 64 31 3d 64 1f 67 bd
       0.091103494 -0.020310253 0.043308258 -0.05642642
000180 ea 4d be 3d 60 7e ad bb c0 10 54 3d a2 92 bb 3d
       0.09292205 -0.005294606 0.051773787 0.09158827
000190 4a a5 ce 3d 98 00 59 bd 50 f6 92 bc 4c 78 64 3d
       0.1009012 -0.052979082 -0.017939717 0.055778787
0001a0 9a fb 90 3d 50 27 91 bc 0a 40 c6 bd 3a 4f aa bd
       0.07079239 -0.017718941 -0.09680183 -0.083158925
0001b0 18 c2 1a 3d cc 97 c9 bd e0 a0 84 bc e0 d4 b8 bd
       0.03778276 -0.09843406 -0.016189992 -0.09024978
0001c0 f0 d5 56 bc 28 fe 89 3c 90 3c 3e bc f8 2c 06 bd
       -0.01311253 0.016844824 -0.011611119 -0.03275773
0001d0 0c 80 79 bd 50 f1 78 bd 7a e7 cf bd 6c 3c d2 bd
       -0.06091313 -0.06077701 -0.101515725 -0.10265431
0001e0 84 12 fc bd 84 28 5b 3d 40 98 c1 3b 68 e2 7c bd
       -0.12308219 0.053505436 0.005908042 -0.061739355
0001f0 00 98 c3 38 fe 59 91 3d 22 ae f7 bd b8 c1 7b 3d
       9.326637e-05 0.07097243 -0.1209376 0.06146404
000200 aa bb 94 bd 50 f2 d0 3d 28 19 39 3d 08 4a 72 bd
       -0.072623566 0.102024674 0.045190006 -0.059152633
000210 c4 87 71 3d ac 4a 85 bd 3c c8 a0 bd 9a 69 e4 bd
       0.058967367 -0.06508383 -0.07850692 -0.111529544
000220 94 9c 6c 3d 80 5f 45 3b 78 60 78 3d 2c 53 f5 3d
       0.057766512 0.0030116737 0.060638875 0.119787544
000230 3c 02 15 bd f0 64 f8 bc 50 cf 31 3c 46 c0 d4 bd
       -0.036379084 -0.030321568 0.01085265 -0.10388236
000240 20 ff 20 bc 70 5c b9 bd 80 63 f6 bd 18 5d ea 3d
       -0.009826452 -0.09050834 -0.12030697 0.114435375
000250 ec ac 2f 3d 40 df 22 bc 46 36 d1 3d 70 30 2f bd
       0.04288952 -0.009940922 0.1021543 -0.042770803
000260 5c 82 0e 3d 8e 11 fc bd 0c 34 28 bd ae 0c e2 3d
       0.03479229 -0.12308036 -0.04106526 0.11037575
000270 50 0c 6a 3d fe bf 84 bd a0 b7 8e bd ee db ca 3d
       0.05714065 -0.06481932 -0.069686174 0.099052295
000280 b4 b7 1a bd c4 b5 f4 bd 48 78 92 bd e6 09 a5 3d
       -0.03777285 -0.119487315 -0.07151848 0.080585286
000290 f0 10 ba 3c 6c 89 10 3d f6 97 c1 bd 90 f6 51 bc
       0.022713155 0.035287306 -0.094528124 -0.012815133
0002a0 6e 2a fd 3d dc e5 a9 3d ea 24 93 bd b0 2a d7 bd
       0.123616084 0.08295795 -0.07184775 -0.10506189
0002b0 44 e1 b8 3d b8 cd 6c 3d c0 73 27 bb 10 2a 25 bc
       0.09027341 0.057813376 -0.002555117 -0.010080829
0002c0 54 81 87 3d 02 ee 98 3d e4 76 ad 3d 48 41 df bc
       0.06616464 0.074672714 0.08469942 -0.027252808
0002d0 38 55 92 bc e4 c9 a7 3d 08 02 f2 3d 38 4d 38 3d
       -0.017862901 0.081928045 0.11816794 0.044995517
0002e0 e4 ad 1f bd 92 ac f8 3d fc 24 54 3d b8 8e dc 3d
       -0.038984194 0.1214229 0.051793084 0.10769409
0002f0 8a 6f 98 bd e8 17 e4 3d 20 37 b2 bb 26 80 e8 3d
       -0.074431494 0.11137372 -0.0054387003 0.113525674
000300 48 0a 5a 3d 6e d5 a9 bd e0 c7 ad bb a0 45 8d bb
       0.05323246 -0.082926616 -0.005303368 -0.0043112785
000310 a4 30 0d 3d 00 b0 08 38 2c a3 31 3d 1c 0d ce bd
       0.034470215 3.258884e-05 0.043368503 -0.10061094
000320 a0 3b 60 bd 8c 81 d0 3d 26 0e 93 bd 10 34 c7 3d
       -0.054744363 0.10180959 -0.07180433 0.09726727
000330 70 58 8a bd 14 f3 8d 3d 58 85 a1 bd 34 39 51 bd
       -0.06755149 0.06931129 -0.078867614 -0.051079944
000340 0c 80 b0 3d 28 c5 ad 3d 80 a2 c5 bc 28 99 99 bd
       0.08618173 0.0848487 -0.024125338 -0.07499915
000350 0c 50 29 bd 18 61 99 bd 2c 5d 42 bd 4c 00 8d bd
       -0.041336104 -0.07489222 -0.047452137 -0.06884822
000360 00 aa 3c 3b 98 79 76 bd f8 cb e2 bd 4c 9f 7d 3d
       0.0028787851 -0.060174555 -0.1107406 0.061919495
000370 54 76 bb 3d 9a 14 c6 3d 4a 05 ec bd cc ff 19 bd
       0.09153429 0.09671898 -0.11524446 -0.037597463
000380 64 fc 7d 3d c8 ba fe 3d f8 41 bc 3d 10 ff ec bc
       0.062008277 0.124379694 0.0919227 -0.028930217
000390 60 24 8a 3c 60 66 50 bd 62 10 ae bd 84 05 70 bd
       0.016863048 -0.050878882 -0.084992185 -0.05859901
0003a0 3c 8f 28 bd c8 37 ed bd f8 b0 0f 3d dc 3c 14 3d
       -0.041152224 -0.11582905 0.03508088 0.036190853
0003b0 5a c2 ee 3d 40 5c c9 3d 80 bc dc bd 0a be f8 bd
       0.11658163 0.098320484 -0.10778141 -0.12145622
0003c0 20 18 11 bd a0 52 1c 3d 58 b8 e6 bd 3c 0f fe bd
       -0.035423398 0.038164735 -0.112656295 -0.124052495
0003d0 40 69 67 bb 30 92 a1 bc 88 10 37 bd a0 81 d9 3d
       -0.0035310537 -0.019723028 -0.0446935 0.10620427
0003e0 fe 38 fd bd 16 ee e9 bd 60 a7 a9 3b 82 82 9c bd
       -0.12364386 -0.114223644 0.0051774234 -0.0764208
0003f0 dc 87 a5 bd bc c8 48 3d cc 99 33 3d 96 ef 88 bd
       -0.08082554 0.04901956 0.043847844 -0.066863224

layers.6.bias f4 [64]
000000 60 a0 fd 3b 12 2d 80 3d 94 0f 48 3d d8 61 a7 3c
       0.0077400655 0.062585965 0.04884298 0.020432398
000010 b0 c7 de bc c0 36 62 3c 88 ad c6 bc e0 d7 98 bc
       -0.027194828 0.013806999 -0.024252668 -0.018657625
000020 d6 06 f1 bd e0 82 66 3c 40 56 f9 bb 1c 9d 81 bd
       -0.11768882 0.014069289 -0.0076091588 -0.06328794
000030 5a b6 dd bd fe e1 b2 3d 04 22 1b 3d 38 c8 c1 3c
       -0.108257964 0.08734511 0.037874237 0.023655042
000040 70 bc 5b bc ac bf 1d 3d 30 d8 ec bc ac f6 8f bd
       -0.013411626 0.03851287 -0.02891168 -0.07029471
000050 c0 e5 2d 3c f0 3c 22 3d e2 8d 8e 3d 18 3d 2a bd
       0.010613859 0.039608896 0.06960656 -0.04156217
000060 10 56 d9 3d 80 41 b4 bd e8 ae a3 3c 80 89 5f 3d
       0.10612118 -0.08801556 0.019980863 0.05457449
000070 04 a8 7b bd d8 19 79 bd 34 e4 6d bd 48 61 60 bd
       -0.06143953 -0.060815662 -0.05807896 -0.054780275
000080 0e c9 f5 3d 42 62 f1 3d fa 58 e2 3d 40 fe cb 3b
       0.12001239 0.11786319 0.11052127 0.0062253773
000090 7a e8 f2 3d 08 f1 74 3d 80 34 88 bb d2 1d e3 3d
       0.11860748 0.059800178 -0.004156649 0.11089672
0000a0 a6 74 d2 bd 72 d5 ec bd 6c 4e 3a bd 94 30 da 3d
       -0.10276155 -0.11564149 -0.045484945 0.10653797
0000b0 10 4b 76 bc 00 9a ec 3d f0 6e 73 bc 70 12 f5 3c
       -0.015032545 0.11552811 -0.0148579925 0.029916018
0000c0 aa a3 e2 bd 58 1d 1a 3d 30 45 27 bc 40 82 d4 3d
       -0.11066373 0.03762564 -0.010209367 0.10376406
0000d0 54 2f b5 3d 20 e8 ed 3d de e6 bd 3d 28 c0 54 3d
       0.08846918 0.1161654 0.0927255 0.051941067
0000e0 58 20 dc bd 90 5a 5b bd 10 d9 f6 3d e0 93 c5 bb
       -0.107483566 -0.053553164 0.1205312 -0.006029591
0000f0 70 53 82 bd 80 06 30 bc 90 9f 0c 3c ae 68 8f 3d
       -0.06363571 -0.010743737 0.008582965 0.07002388

layers.8.weight f4 [1, 64]
000000 f8 b5 e7 3c a8 82 28 bd 74 9c 5b 3d 48 32 de bc
       0.028285012 -0.04114023 0.053616002 -0.027123585
000010 be 33 a1 3d 84 41 25 3d 16 77 94 bd 12 00 ee 3d
       0.07871197 0.040345684 -0.07249276 0.11621107
000020 62 66 9d bd fc a0 c1 bd a0 79 8f bc 6e 0c d8 3d
       -0.076855436 -0.094545335 -0.01751405 0.10549246
000030 8c cd 95 bd 50 b4 db bc 68 a1 7b bd 60 4d c7 3b
       -0.073145956 -0.026819378 -0.061433226 0.006082222
000040 42 0c bf bd 00 2b 05 3a cc f5 72 3d 48 63 ec 3c
       -0.0932851 0.0005079955 0.05931644 0.028855935
000050 e8 bb e1 bd c2 8e d0 bd 48 54 31 3d 82 dc a4 3d
       -0.110221684 -0.10183479 0.043293267 0.08049871
000060 9c a9 22 bd bc eb c1 bd 30 48 ec 3c 6c 5e 70 3d
       -0.039712533 -0.09468791 0.028843015 0.058683798
000070 d8 a3 f5 3d 26 5c c2 3d 5a 33 b2 bd 48 44 0e 3d
       0.11994141 0.09490232 -0.08701201 0.034733087
000080 fc 11 46 3d 5e bd 9e bd 3e 35 de 3d 8c 5f 42 bd
       0.048356995 -0.07750963 0.10849999 -0.0474544
000090 14 7c e5 bd 14 14 9b bd b0 52 68 3c 50 82 88 3d
       -0.11205307 -0.07572189 0.0141798705 0.0666548
0000a0 28 f5 84 bd 1c 52 a1 3d 78 de 49 bd 3e fb af 3d
       -0.06492072 0.07876989 -0.04928443 0.085928425
0000b0 70 77 7b bd 2c 28 8a bd d0 88 e3 3d 00 d3 31 bc
       -0.0613932 -0.067459434 0.11110079 -0.010853529
0000c0 6a 8c d0 3d b8 21 8a 3c 0e 27 80 bd 74 ef c2 3d
       0.10183032 0.016861781 -0.06257449 0.09518328
0000d0 56 fb a1 3d 04 00 26 3d 80 a6 76 3b 18 39 bc 3c
       0.07909267 0.04052736 0.0037635863 0.022976443
0000e0 64 6f ff 3d ec 6e ee bd 60 2e a1 bc 1c 9f f1 3d
       0.12472418 -0.116422504 -0.019675434 0.11797926
0000f0 8c 9b f4 3d b0 76 2f 3d 40 76 6e 3d 78 ae c0 3c
       0.11943731 0.0428378 0.05821824 0.023520693
