GraphClustering/LargeGraphs/Data/GibbsKarate_0_500_10_o_Forward200.pt (torch, 646079 bytes, 9 tensors)

layers.0.weight f4 [64, 2312]
0	0x3c9a3d7b	0.018828144
1	0xbc72f6be	-0.014829336
2	0xbd370880	-0.04468584
3	0xbc5099a6	-0.012731945
4	0xbc65f71e	-0.014035968
5	0xbc974235	-0.018464187
6	0xbd05eb8d	-0.03269534
7	0xbd32103f	-0.043472525
8	0xbc1ddc67	-0.009635068
9	0xbbc22d60	-0.0059258193
10	0xbcad59b9	-0.021160947
11	0xbd447307	-0.04796126
12	0xbcde7594	-0.027155675
13	0xbc651eae	-0.013984365
14	0xbaa1a660	-0.0012332909
15	0x3b738590	0.0037158467
16	0x3c90a895	0.017658511
17	0xbd25889e	-0.04041349
18	0x3c4e0456	0.012574276
19	0xbc9a44e1	-0.018831672
20	0xbc394f3b	-0.011310394
21	0xbca25a66	-0.019818496
22	0xbc7d30ee	-0.01545356
23	0xbc862642	-0.016375665
24	0xbc9f7a02	-0.019467358
25	0x3c9f518b	0.019448062
26	0xbb1bc690	-0.0023769476
27	0xbc650309	-0.013977774
28	0xbbdd95f4	-0.0067622606
29	0x3bdc8940	0.0067302287
30	0x3c8674c7	0.016413106
31	0xbc6bfd52	-0.014403658
32	0xbbe10300	-0.0068668127
33	0x3c4a16ee	0.012334568
34	0xbc48372f	-0.012220188
35	0x3b2a5ea0	0.0025996342
36	0xbd152df4	-0.036420777
37	0xbcec5ee4	-0.028853841
38	0x3c9c3215	0.01906685
39	0xbc8bfc66	-0.017088126
40	0xbc86d03a	-0.016456712
41	0xbca9dd54	-0.02073542
42	0x3c744a12	0.014910238
43	0xbc432b98	-0.011912249
44	0xbc270a18	-0.010195278
45	0xbc1e9873	-0.009679901
46	0x3a48f740	0.00076662377
47	0xbd153ecf	-0.036436852
48	0x3c1bf0c8	0.009517856
49	0xbca16a24	-0.019703932
50	0xbc952758	-0.018207237
51	0xbd0d8cfa	-0.034558274
52	0x3c9ab135	0.018883327
53	0xbc726d72	-0.014796602
54	0xbb574568	-0.0032847766
55	0xbd2efa83	-0.042719375
56	0x3c2dda96	0.010611197
57	0x3ca90bd9	0.020635532
58	0x3c06b6fe	0.00822234
59	0xbb902200	-0.0043985844
60	0x3b6e89a0	0.003639795
61	0xbc55eda6	-0.013057148
62	0xbb65d468	-0.003506923
63	0x3c99b503	0.01876307
64	0xbc7dc5a2	-0.015489014
65	0xb77ba800	-1.4999881e-05
66	0xbc0bb15d	-0.008526173
67	0x3c4983c2	0.01229948
68	0xbd47d4ac	-0.048786804
69	0xbcd0cd5e	-0.025488552
70	0x3bf1d54c	0.0073801633
71	0xbd0e0be5	-0.034679312
72	0x3c6eba5a	0.014570797
73	0xbc3752c8	-0.01118917
74	0x3b99ca10	0.004693277
75	0xbd3818b3	-0.04494543
76	0xbc6554e6	-0.013997292
77	0xbcfec03c	-0.031097524
78	0x3b4f5770	0.003163781
79	0x3c8d4d57	0.017248793
80	0x3c9865df	0.018603263
81	0xbd059eec	-0.032622263
82	0xbbc3c068	-0.0059738643
83	0xbbc963b2	-0.006145918
84	0x3c8b763b	0.01702415
85	0x3c8add7d	0.016951317
86	0xb907df80	-0.00012957864
87	0xbb7096e0	-0.0036711022
88	0x3c62ff96	0.013854882
89	0x3bb9aa48	0.005666051
90	0x3c4e5ffa	0.012596125
91	0xbb5dbea8	-0.0033835564
92	0xbc8427cf	-0.016132263
93	0xbc0eece8	-0.008723475
94	0x3b08a140	0.0020848066
95	0xbc4fbbaa	-0.01267902
96	0xbcac0387	-0.020997776
97	0x3bc97b98	0.0061487667
98	0xbc4a962a	-0.012364903
99	0x3c491d32	0.012275027
100	0xbc6a4c86	-0.014300471
101	0xbc4ed813	-0.012624758
102	0xbd3d13d0	-0.046161473
103	0xbd3b3651	-0.045706097
104	0xbccf5624	-0.02530963
105	0xbca7f7f3	-0.020503974
106	0xbb84830c	-0.0040439423
107	0xbc695d00	-0.014243364
108	0x3b93ce48	0.0045106746
109	0xbd0c953e	-0.034322016
110	0xbc8a3cc8	-0.016874686
111	0xbc9b69df	-0.018971382
112	0x3c87743d	0.016534919
113	0xbbba9c0e	-0.0056948727
114	0xbc4cfcde	-0.01251146
115	0xbc288113	-0.01028468
116	0xbc16773a	-0.009183699
117	0xbc1cac03	-0.009562495
118	0x3b9c74bc	0.004774658
119	0x3ca6c06d	0.020355428
120	0x3a376be0	0.00069969706
121	0xbc5068af	-0.012720271
122	0x3c63951a	0.013890529
123	0x3c886d83	0.016653782
124	0x3c865389	0.016397255
125	0x3c9c8453	0.019106066
126	0xbbdd5f32	-0.006755733
127	0x3c2b22ea	0.010445336
128	0xbc7f83f9	-0.01559543
129	0xbc341588	-0.010991462
130	0x3c7ef7c6	0.0155620035
131	0xbc95c7e8	-0.0182838
132	0x3b766c68	0.0037601236
133	0x3b5d8490	0.0033800937
134	0x3b792750	0.0038017817
135	0xbca0d5b4	-0.019633152
136	0xbcba0e6e	-0.022711959
137	0x3ca5be73	0.020232415
138	0xbc36b34f	-0.011151149
139	0xbacd3ce0	-0.0015658401
140	0x3c9d75c5	0.019221196
141	0xbc32cf36	-0.010913661
142	0xbc9c93fa	-0.01911353
143	0x3c8002af	0.01562628
144	0x3b9b7160	0.00474374
145	0x3c898c33	0.016790485
146	0xbc28d417	-0.010304472
147	0xbb0a8b88	-0.0021140296
148	0xbca83a15	-0.020535508
149	0x3c2134d8	0.009839259
150	0x3c1d9a1a	0.00961926
151	0x3c188eae	0.009311361
152	0x3c4caa6a	0.012491802
153	0x3c2df5e2	0.010617705
154	0x3c1790a4	0.009250794
155	0x3bc35870	0.0059614703
156	0xbbc6c7ba	-0.0060662897
157	0x3c51b1f6	0.012798777
158	0xbb0d9180	-0.0021601617
159	0xbca4ea1a	-0.02013116
160	0x3c209864	0.009801958
161	0xbc97cbf4	-0.01852987
162	0xbb908e24	-0.0044114757
163	0xbc7a7a24	-0.01528791
164	0xbbe66ba8	-0.0070318766
165	0xbc30b062	-0.01078424
166	0x3b252a40	0.0025202185
167	0x3c175f90	0.0092390925
168	0x3c1403a8	0.009034075
169	0xbc533bce	-0.0128926765
170	0xbca7115c	-0.02039402
171	0xbbca5846	-0.006175074
172	0x3c5792d2	0.013157563
173	0xbc3d3351	-0.011547879
174	0x3c27fed4	0.010253627
175	0x3beaf36c	0.0071701314
176	0xbd3d6593	-0.046239447
177	0x3badfe88	0.0053098835
178	0x3c1bebf2	0.009516703
179	0x3c93150d	0.017954374
180	0xbd452d36	-0.04813882
181	0x3ab79020	0.0014004745
182	0x3b4bcf40	0.0031098872
183	0x3c78c0c6	0.0151826795
184	0xbc4b9620	-0.012425929
185	0xbc380f5f	-0.0112341335
186	0xbd1fabf5	-0.03898235
187	0x3c42e40e	0.011895193
188	0x3ac97720	0.0015370585
189	0xbc7cbc0e	-0.015425695
190	0x3b8499fc	0.0040466767
191	0x3c400a76	0.011721244
192	0xbc01cf51	-0.007922963
193	0xbc7d041e	-0.015442876
194	0x3c070ea2	0.008243235
195	0xbc418fb9	-0.011814051
196	0x3bff040c	0.007782465
197	0xbc753ea4	-0.014968548
198	0x3b867318	0.0041030757
199	0x3c6431c2	0.013927879
200	0xbc81e178	-0.015854582
201	0x3c9e0e25	0.019293854
202	0xb9b57e80	-0.0003461726
203	0xbb1b63e8	-0.0023710672
204	0xbd223b54	-0.03960736
205	0x3af2e830	0.0018532332
206	0xbc1c179a	-0.009527111
207	0x3b254fe0	0.002522461
208	0xbcd051ce	-0.025429633
209	0xbd4e8164	-0.050416365
210	0x3c0719dc	0.008245911
211	0x3b393ee0	0.0028266236
212	0x39514500	0.00019957498
213	0xbc0cd7aa	-0.00859634
214	0xbc959764	-0.018260665
215	0xbbdd17be	-0.006747215
216	0xbb4312a8	-0.0029765759
217	0xbc23c6ee	-0.009996159
218	0xbc307701	-0.01077056
219	0xbc9a54d4	-0.018839277
220	0xbca514e1	-0.020151557
221	0x3c28821a	0.010284925
222	0x3b7e0360	0.0038759336
223	0x3ca57405	0.020196924
224	0x3c6f8e1a	0.014621282
225	0x3c1e666c	0.009667974
226	0x3be38ca8	0.0069442578
227	0xbbcd30b2	-0.0062619084
228	0x3befd910	0.007319577
229	0x3bb648b0	0.0055628642
230	0x3ca496df	0.020091472
231	0x3b0e8258	0.0021745171
232	0x38ccb400	9.761006e-05
233	0xbb165060	-0.002293609
234	0xbc7590aa	-0.014988104
235	0xbbd2a536	-0.006428386
236	0x3bcd2334	0.0062603
237	0xbca775b2	-0.020441864
238	0xbc4b93a7	-0.01242534
239	0xbcf627f4	-0.030048348
240	0xbc989823	-0.018627232
241	0xbd0aac8d	-0.033855963
242	0x3c700e32	0.014651822
243	0x3c907e2b	0.017638287
244	0xbbc8116e	-0.0061055934
245	0x3b951984	0.004550161
246	0xbc6dc99e	-0.014513401
247	0x3ba6871c	0.0050820243
248	0xbc5bef09	-0.01342369
249	0xbc5a5e10	-0.01332809
250	0x3bed4648	0.007241044
251	0xbbad394a	-0.0052863704
252	0x3c4655f6	0.012105456
253	0xbb9c0554	-0.0047613773
254	0xbc8826b2	-0.016620014
255	0x3a21b4c0	0.00061685964

layers.0.bias f4 [64]
0	0xbd31caa8	-0.04340616
1	0xbd1362df	-0.035982963
2	0x3d90eabd	0.07076023
3	0xbd620288	-0.055178195
4	0x3c9a2a15	0.018818894
5	0x3ddfde28	0.10931045
6	0x3e007ce9	0.1254765
7	0xbcc41f85	-0.023940811
8	0x3dd527f8	0.10408014
9	0x3d94d080	0.07266331
10	0xbce9fd45	-0.028563151
11	0x3d11a0ad	0.035553623
12	0xbd27db19	-0.040980432
13	0xbb6386b0	-0.0034717731
14	0x3c6b706a	0.014370063
15	0x3cb7a5bc	0.022417895
16	0x3c832805	0.016010294
17	0xbd3b1218	-0.045671552
18	0x3dcbdc10	0.09954083
19	0xbc7f45ef	-0.015580638
20	0x3dc7b8d3	0.09752049
21	0xbc55f94b	-0.013059924
22	0xbc93f871	-0.018062802
23	0xbd08aa71	-0.03336567
24	0xbcb8aa3e	-0.022542115
25	0x3ded8a39	0.115986295
26	0xbc5dfe7f	-0.013549446
27	0x3d8fcc3c	0.070213765
28	0xbaff99f0	-0.0019500833
29	0xbd311a2e	-0.043237858
30	0xbd112dba	-0.035444
31	0x3de2e159	0.11078138
32	0xbd1abb35	-0.03777619
33	0xbc297559	-0.010342919
34	0xbca9600c	-0.020675682
35	0xbc537c29	-0.01290802
36	0x3d14fa17	0.036371317
37	0xbd1538bb	-0.036431056
38	0xbbd09e7e	-0.00636655
39	0x3dbdd1bb	0.092685185
40	0x3db6f975	0.08934299
41	0x3db08e2c	0.08620867
42	0xbd34d790	-0.04415089
43	0x3d9bceff	0.07607841
44	0xbcdda442	-0.027055863
45	0x3b815fda	0.003948194
46	0xbca22b59	-0.01979606
47	0xbd33125f	-0.043718692
48	0xbcbec2c4	-0.02328623
49	0xbca147dc	-0.019687586
50	0xbcf677bc	-0.03008639
51	0x3dc8514d	0.09781132
52	0xbd0223f6	-0.031772576
53	0x3dbd376f	0.09239089
54	0xbd0ee297	-0.03488406
55	0x3dd0de66	0.10198669
56	0xbd153f5a	-0.03643737
57	0xbc24f74f	-0.010068729
58	0x3d006aee	0.031351976
59	0xbca81a4a	-0.020520348
60	0xbd28c7de	-0.041206233
61	0xbd035e8e	-0.032072596
62	0xbd1e1d66	-0.038602255
63	0xbd501c84	-0.050808445

layers.2.weight f4 [64, 64]
0	0x3c5262c2	0.0128409285
1	0x3ddcb227	0.10776167
2	0xbd2779a5	-0.040887494
3	0x3d924d0e	0.07143603
4	0xbdd1a202	-0.10235979
5	0x3e2aa8fb	0.16666023
6	0x3e25b05e	0.1618056
7	0x3d42ee74	0.047590688
8	0x3dad5e61	0.08465267
9	0x3ddb186d	0.10698018
10	0x3db0691b	0.08613797
11	0x3db59b2f	0.088674895
12	0x3d9df280	0.07712269
13	0x3d6c3d4c	0.057675645
14	0xbd88f590	-0.06687462
15	0x3d6b83ac	0.05749862
16	0x3d9cb8e0	0.076524496
17	0xbd705780	-0.058677197
18	0x3c8b642e	0.017015543
19	0xbcce79f4	-0.025204636
20	0x3dfd3db9	0.12365288
21	0x3d107ff7	0.035278287
22	0xbbce9eea	-0.006305565
23	0x3df2e669	0.118603535
24	0xbc1b4784	-0.0094775
25	0x3d95ada9	0.07308514
26	0x3e1b23b3	0.15150337
27	0xbc30c47c	-0.010789033
28	0xbdd8dcd4	-0.105889946
29	0xbdbb1cad	-0.09136329
30	0x3db8fc68	0.09032518
31	0x3e3be07b	0.18347351
32	0x3d58c363	0.05292071
33	0x3c64cbec	0.013964634
34	0x38aa838c	8.130734e-05
35	0x3ca3e797	0.020007892
36	0x3e0026c5	0.1251479
37	0x3d2e7f12	0.042601652
38	0xbc891b4c	-0.016736649
39	0x3e20e2a8	0.15711462
40	0x3e24be06	0.16088113
41	0x3e223463	0.15840296
42	0x3e15bade	0.14622065
43	0x3da5fbf5	0.081046976
44	0xbcd5a9cc	-0.026081942
45	0x3d8ab61b	0.06773015
46	0xbd9f42b7	-0.07776397
47	0xbcfd7758	-0.030940697
48	0x3ce6ba8c	0.028165124
49	0xbd8898c1	-0.066697605
50	0x3debc042	0.1151128
51	0x3e4b1272	0.19831255
52	0x3e242abf	0.16031931
53	0x3e39c6dd	0.18142267
54	0xbb96245b	-0.0045819706
55	0xbcf731ed	-0.030175174
56	0x3e0e383b	0.13888638
57	0xbc9350de	-0.017982896
58	0x39592518	0.00020708551
59	0x3b71c1cb	0.0036889191
60	0xbd8d8997	-0.06911009
61	0x3dde1999	0.10844726
62	0xbcfd4a30	-0.030919164
63	0x3cae94c4	0.021311171
64	0xbd8266bc	-0.06367251
65	0xbde957ed	-0.11393724
66	0xbccc6773	-0.024951672
67	0xbcbd2d58	-0.02309291
68	0xbde5eac8	-0.112264216
69	0xbd17f5c6	-0.037099622
70	0x3dfcf39c	0.12351152
71	0xbd0f9668	-0.035055548
72	0x3e21e3c4	0.15809542
73	0x3d0b53ef	0.034015592
74	0x3db2884e	0.08717404
75	0xbc8506e5	-0.01623864
76	0x3e077ff1	0.132324
77	0xbdd31fda	-0.103088096
78	0xbd53d17c	-0.05171345
79	0x3dd3169e	0.10307048
80	0xbd505260	-0.05085981
81	0x3da3fb97	0.08006971
82	0x3dd63bd5	0.10460631
83	0xbd8c9949	-0.06865174
84	0x3e1f3667	0.15548097
85	0xbdf89d24	-0.12139347
86	0x3ceb625c	0.028733425
87	0x3e1300be	0.14355752
88	0x3d8d0743	0.06886151
89	0xbcc4b120	-0.024010241
90	0x3dbdb032	0.09262122
91	0xbd8acbcf	-0.06777155
92	0xbd718208	-0.058961898
93	0xbde632b6	-0.11240141
94	0xbc4aee51	-0.012385921
95	0x3e1caa6b	0.15299384
96	0x3d8384f1	0.06421841
97	0x3d9be531	0.07612074
98	0x3c76905a	0.0150490645
99	0xbc0b3998	-0.008497618
100	0x3dda0664	0.1064575
101	0xbd820264	-0.06348112
102	0xbb26714e	-0.0025397125
103	0x3dab6324	0.08368519
104	0xbd409b82	-0.047023304
105	0x3d543d16	0.05181607
106	0x3d999251	0.07498611
107	0x3e0d14b7	0.13777433
108	0xbe03113f	-0.12799548
109	0x3bbd06fd	0.0057686553
110	0xbe09dece	-0.134639
111	0x3d90a6a6	0.07063036
112	0xbddb63a7	-0.107123666
113	0xbd1d323a	-0.038377978
114	0x3dab8ec4	0.0837684
115	0x3de24115	0.1104757
116	0xbd32922e	-0.04359644
117	0x3e0c2708	0.13686764
118	0x3c5362af	0.012901946
119	0x3db6cb19	0.089254566
120	0x3d9e4806	0.07728581
121	0x3d8f2650	0.069897294
122	0x3d33bed1	0.04388315
123	0xbe0e49c7	-0.13895331
124	0x3d5daa7c	0.054117665
125	0xbd461b38	-0.0483658
126	0xbd00e922	-0.031472333
127	0x3d5fcc7a	0.054638363
128	0xbdb6a1af	-0.089175574
129	0xbd699afa	-0.057032563
130	0x3c062436	0.008187344
131	0x3d9fc81c	0.0780184
132	0x3dd8955e	0.105753645
133	0x3d22783f	0.039665457
134	0xbd65d1d7	-0.056108322
135	0xbdc0ed62	-0.09420277
136	0x3b7afd56	0.0038297973
137	0xbd49d2c8	-0.049273282
138	0x3e10da99	0.14145888
139	0x3d1fbf58	0.03900084
140	0x3c209390	0.009800807
141	0xbd4ca4a8	-0.049961716
142	0x3d84253c	0.064524144
143	0x3c225f90	0.009910479
144	0xbd4123d4	-0.04715331
145	0xbd06f0be	-0.032944433
146	0x3bfcbe11	0.0077130874
147	0xbdb7a36b	-0.089667164
148	0x3aa13f0a	0.0012302112
149	0x3e19aca5	0.15007265
150	0xbd079255	-0.033098537
151	0x3ba81080	0.00512892
152	0x3d6e0057	0.058105793
153	0xbd776878	-0.060402364
154	0x3d6fcc59	0.05854449
155	0xbd4a4002	-0.04937745
156	0xbde3d13c	-0.11123893
157	0x3d6c300b	0.057663005
158	0x3d84391f	0.064562075
159	0x3d2e17db	0.04250322
160	0x3d949123	0.07254245
161	0xbd1f3a60	-0.03887403
162	0x3d2f6b3f	0.042826887
163	0xbd8c7a02	-0.06859209
164	0xbdfc9a04	-0.12334064
165	0xbd5c4068	-0.05377236
166	0x3d9c1328	0.07620841
167	0x3dbeafb1	0.09310854
168	0x3b13938d	0.0022518367
169	0xbc5af744	-0.013364617
170	0x3d0604dc	0.032719478
171	0x3ba52a4e	0.0050404435
172	0x3d8e160a	0.06937797
173	0x3c2d7830	0.010587737
174	0xbc2091b3	-0.009800362
175	0x3d53c89c	0.051704988
176	0x3d27f59b	0.041005712
177	0x3e14ef75	0.1454447
178	0x3dd74756	0.10511653
179	0x3cabde4c	0.020980023
180	0xbd0be5c8	-0.034154683
181	0xbd970506	-0.07374005
182	0x3d0cac38	0.034343928
183	0xbdbfe859	-0.09370489
184	0x3deacdb8	0.11465019
185	0x3e1da619	0.15395392
186	0xbd85f71e	-0.065412745
187	0x3d9ff235	0.07809869
188	0x3d94c9af	0.072650306
189	0x3d315c52	0.043300934
190	0x3c912518	0.017717883
191	0xbbb98332	-0.0056613917
192	0x3da397c4	0.07987931
193	0x3d0b2a74	0.033976033
194	0x3d1270d0	0.035752118
195	0x3d43b5f8	0.04778096
196	0xbda8e84e	-0.082474336
197	0x3c82f4f8	0.01598595
198	0xbd868e50	-0.06570113
199	0x3d3f636c	0.046725675
200	0xbdfcf362	-0.12351109
201	0xbbcc4320	-0.006233588
202	0x3dc21552	0.09476723
203	0xba978400	-0.0011559725
204	0xbc6ea040	-0.014564574
205	0xbd8132f2	-0.06308545
206	0x3c4da600	0.0125517845
207	0x3d767c9c	0.06017743
208	0x3dea7892	0.11448778
209	0xbc926050	-0.017868191
210	0xbdfc32f8	-0.12314409
211	0xbd87ff88	-0.066405356
212	0xbc8f7c98	-0.017515466
213	0xbd554524	-0.05206789
214	0x3d0135ac	0.031545326
215	0x3df48ec4	0.11941293
216	0x3ddd4d40	0.1080575
217	0x3cb83a18	0.022488639
218	0xbd41d844	-0.047325388
219	0x3db712bc	0.0893912
220	0x3db01e20	0.08599496
221	0x3d1644c4	0.036686674
222	0x3dfa54fa	0.12223239
223	0x3d380a84	0.044931903
224	0xbde88260	-0.11352992
225	0xbd012e80	-0.031538486
226	0xbc760c20	-0.015017539
227	0x3db190e8	0.08670217
228	0x3cd87bf0	0.026426286
229	0xbd0be8c0	-0.034157515
230	0xbded2fe0	-0.11581397
231	0xbd32f598	-0.043691248
232	0x3d82bd2c	0.06383738
233	0x3d1094ac	0.035298035
234	0xbcea3390	-0.02858904
235	0x3d39d338	0.04536745
236	0xbdbcba9e	-0.09215282
237	0xbd5dcbc0	-0.05414939
238	0x3db4daae	0.08830772
239	0x3d10632c	0.035250828
240	0xbdec1c26	-0.115288064
241	0x3d840c32	0.064476386
242	0xbccc9858	-0.024974987
243	0x3cf6e4a0	0.030138314
244	0xbc322230	-0.010872409
245	0xbde6bebe	-0.1126685
246	0x3dcdab32	0.100424185
247	0xbdf2e1fa	-0.11859508
248	0xbd105b60	-0.035243392
249	0x3ce90220	0.028443396
250	0x3ceb39b8	0.028714046
251	0xbdbc1408	-0.09183508
252	0x3d9d88d2	0.07692112
253	0xbdf060d0	-0.117372155
254	0x3ddfd0d8	0.10928506
255	0x3dcbd472	0.0995263

layers.2.bias f4 [64]
0	0x3e4c1f48	0.19933808
1	0x3e55c9e1	0.20877792
2	0x3dfa6522	0.12226321
3	0x3bc177a0	0.005904153
4	0x3d066598	0.03281173
5	0xbcd20040	-0.025634885
6	0x3d8f9361	0.07010532
7	0xbd834a49	-0.06410653
8	0xbd21e32f	-0.0395233
9	0x3e0b41d4	0.1359933
10	0x3c1eebd6	0.009699782
11	0xbca9d84a	-0.020733017
12	0x3d9ab292	0.07553591
13	0x3e79c12a	0.24390092
14	0xbd1f9aa0	-0.03896582
15	0x3de6c45b	0.112679206
16	0x3d2d4e12	0.04231078
17	0xbd908c6c	-0.07058033
18	0x3e186051	0.14880492
19	0xbde0169c	-0.109418124
20	0x3bfb50ec	0.0076695587
21	0xbd581210	-0.0527516
22	0x3da1a5af	0.0789293
23	0x3e4685dd	0.19387002
24	0x3cd95a4d	0.026532317
25	0x3de05ed1	0.10955585
26	0x3e1cb0f0	0.15301871
27	0x3e8577f7	0.26068088
28	0xbdf766cb	-0.12080153
29	0x3e648564	0.2231651
30	0xbd99569f	-0.07487225
31	0x3dd1c2d0	0.10242236
32	0x3e13835d	0.1440558
33	0xbccaadf0	-0.024741143
34	0xbc1f4fbc	-0.0097236
35	0xbdb79be1	-0.089652784
36	0x3c414a20	0.011797458
37	0xbd4f4e27	-0.05061164
38	0xbcb5a575	-0.022173623
39	0x3c3afc54	0.011412699
40	0x3e691e46	0.22765455
41	0xbdce6dbd	-0.10079525
42	0xbdd845f4	-0.105602175
43	0xbdab41f4	-0.08362189
44	0x3c843610	0.01613906
45	0x3e104caa	0.14091745
46	0x3d800a55	0.06251971
47	0xbd7bd788	-0.061484843
48	0x3e1af294	0.15131599
49	0x3e298002	0.16552737
50	0xbdb5ae92	-0.08871187
51	0x3d72aa2e	0.059244327
52	0x3dc8d599	0.098063655
53	0xbdb7c154	-0.08972421
54	0x3e38116c	0.17975396
55	0xbd8ba486	-0.0681849
56	0x3df3cbb3	0.11904087
57	0x3e3ef3f8	0.18647754
58	0xbd61c5e3	-0.05512036
59	0x3d9a5ef9	0.07537646
60	0x3e1fe61f	0.15615128
61	0x3e2798aa	0.1636683
62	0xbca3492b	-0.01993235
63	0xbc8804e8	-0.016603902

layers.4.weight f4 [64, 64]
0	0x3d4c9775	0.04994913
1	0x3e00db68	0.12583697
2	0xbd787ac9	-0.060663972
3	0xbd814a18	-0.063129604
4	0x3dc68c8a	0.096947744
5	0xbd4ab388	-0.04948762
6	0xbdb0f579	-0.0864057
7	0x3d28f834	0.04125233
8	0x3dbc0c07	0.091819815
9	0x3d97acd1	0.07406009
10	0x3c4dd3ac	0.012562674
11	0xbdacaed0	-0.0843178
12	0x3d08bbc1	0.03338218
13	0x3dd3b0cd	0.103364564
14	0x3c1ace90	0.009448662
15	0xbdae01c5	-0.08496431
16	0xbd859c28	-0.06523925
17	0x3e0a6130	0.13513637
18	0xbdb0b208	-0.08627707
19	0x3dbe110a	0.09280594
20	0xbd88ca25	-0.06679181
21	0xbb8ea8a0	-0.0043535978
22	0xbde08361	-0.109625585
23	0x3e05b892	0.13058689
24	0xbd9bab0c	-0.07600984
25	0xbd9470d3	-0.07248082
26	0x3d9cfff8	0.0766601
27	0x3d0d729e	0.034533136
28	0xbdb86113	-0.090028904
29	0x3d623913	0.05523021
30	0x3dbee4b6	0.09320967
31	0x3d9b090c	0.07570085
32	0xbdba3fd4	-0.090942055
33	0xbdc1084a	-0.09425409
34	0xbd778060	-0.060425162
35	0x3d625c6a	0.055263914
36	0xbd2cf9f8	-0.042230576
37	0x3e18eb10	0.14933419
38	0x3d8be0d7	0.06829994
39	0xbde8e232	-0.11371268
40	0x3cc35e0f	0.023848562
41	0x3d135801	0.0359726
42	0x3d840872	0.06446923
43	0xbdaf4984	-0.08558944
44	0x3c7691c0	0.015049398
45	0xbda98fe7	-0.082794
46	0xbc487bf2	-0.012236582
47	0xbd84fa08	-0.06493002
48	0x3da604c8	0.08106381
49	0x3dabdb68	0.08391458
50	0xbe03cb3a	-0.12870494
51	0xbdc2b495	-0.095070995
52	0x3e0ca182	0.13733485
53	0x3dbb71c2	0.09152557
54	0x3d82cf9c	0.063872546
55	0xbda4e78c	-0.080519766
56	0xbd5b0f01	-0.053481106
57	0xbdcc8852	-0.099869385
58	0x3daa1f9d	0.08306811
59	0x3c43e943	0.011957469
60	0xbdc7baf2	-0.09752454
61	0xbb493131	-0.0030699486
62	0x3dc7ebdf	0.09761786
63	0x3defddd4	0.11712232
64	0x3e29ff7a	0.16601363
65	0xbc2a0c24	-0.010378871
66	0x3dd1d927	0.10246497
67	0xbde1d438	-0.11026806
68	0xbdbab080	-0.09115696
69	0xbce7d3c8	-0.028299227
70	0xbd948498	-0.07251853
71	0x3dbcc48b	0.09217175
72	0xbd36a6a1	-0.044592503
73	0x3e0dfdb0	0.13866305
74	0x3dc19e69	0.094540425
75	0xbdb5ac16	-0.088707134
76	0x3cc7b0bc	0.024376266
77	0x3e2fbd40	0.17162037
78	0xbd7b30d4	-0.061325863
79	0xbd75a683	-0.05997325
80	0x3d01f224	0.031725064
81	0x3d9a7a82	0.07542898
82	0x3df13d8d	0.11779318
83	0xbd941ad2	-0.07231678
84	0xbd8ece76	-0.06972973
85	0xbde5558c	-0.111979574
86	0x3e11799c	0.14206547
87	0xbd883624	-0.066509515
88	0x3d9141e6	0.07092647
89	0xbd15b6d8	-0.036551327
90	0x3de279aa	0.11058362
91	0x3df9a43d	0.12189529
92	0x3d4e1d1e	0.050320737
93	0x3dcaa533	0.098947905
94	0x3d052e68	0.03251496
95	0x3de8f5bc	0.11374995
96	0x3df25c61	0.11834026
97	0xbd8cfdf0	-0.06884372
98	0x3dbdde7d	0.09270952
99	0x3cc3932b	0.023873886
100	0x3d5a34a4	0.05327286
101	0x3e01fe3f	0.12694643
102	0x3d3520f6	0.044220887
103	0x3da709ae	0.08156143
104	0x3d950f55	0.07278315
105	0x3d381286	0.04493954
106	0xbd870850	-0.06593382
107	0x3e20bec9	0.15697779
108	0x3dfc78d0	0.12327731
109	0xbc2b4fcb	-0.010456036
110	0xbd9322ca	-0.0718437
111	0xbcdf1be8	-0.027234986
112	0x3e272185	0.1632138
113	0xbd88cee4	-0.06680086
114	0x3ccbff0d	0.024901891
115	0xbc02f09a	-0.007991934
116	0x3da5a655	0.08088366
117	0xbdbc42ac	-0.09192404
118	0x3db1edb8	0.086879194
119	0xbd4e90a4	-0.05043091
120	0x3d2bccab	0.041943233
121	0x3d1ce19b	0.03830109
122	0xbd95cef8	-0.07314867
123	0x3dd015a0	0.10160375
124	0x3bb7f55f	0.0056139673
125	0xbd8a867a	-0.067639306
126	0xbd9bb285	-0.07602409
127	0xbd948dc8	-0.07253605
128	0xbd46028b	-0.04834227
129	0x3d9acccf	0.075585954
130	0x3d5e52da	0.054278232
131	0xbd5945f0	-0.053045213
132	0xbdb878f8	-0.09007448
133	0xbd04a45c	-0.032383308
134	0xbd1bfd4c	-0.03808336
135	0x3d8d5141	0.069002636
136	0xbdfff31a	-0.1249754
137	0x3c843886	0.016140234
138	0x3c4e2530	0.012582108
139	0x3d019ff8	0.0316467
140	0xbe0b4149	-0.13599123
141	0xbe16f0cc	-0.14740294
142	0x3d90bca0	0.07067227
143	0xbdbea0c6	-0.09308009
144	0xbd9b580a	-0.075851515
145	0xbd60e458	-0.054905266
146	0xbc619aca	-0.013769815
147	0xbdc18ffe	-0.094512925
148	0xbce974aa	-0.028498013
149	0x3d9a27a2	0.075270906
150	0xbc948360	-0.01812905
151	0xbd8d1fde	-0.06890844
152	0xbd3880d5	-0.04504474
153	0xbdd95512	-0.10611929
154	0xbe02d08f	-0.12774871
155	0xbdbee6ce	-0.09321366
156	0x3c088989	0.008333572
157	0xbc94972e	-0.018138494
158	0xbd126859	-0.035744045
159	0x3dff3aee	0.12462412
160	0xbd082328	-0.033236653
161	0xbc8f0f08	-0.017463222
162	0xbe1cde2e	-0.1531913
163	0xbd4dc132	-0.050233074
164	0xbda482ca	-0.080327585
165	0xbd031748	-0.032004625
166	0xbb0fc039	-0.0021934642
167	0xbe04b0f9	-0.12958135
168	0x3cc5c9a0	0.024143994
169	0x3db03c2c	0.08605227
170	0x3d96664e	0.07343732
171	0x3dc97bf2	0.09838094
172	0x3bea8280	0.00715667
173	0xbde7e820	-0.11323571
174	0x3c58d004	0.013233189
175	0xbd5b7e10	-0.05358702
176	0x3c182a97	0.009287498
177	0xbc828a5f	-0.015935121
178	0xbcba0798	-0.0227087
179	0xbbee8ee0	-0.0072802156
180	0xbd16b047	-0.036789205
181	0xbc5f2870	-0.013620481
182	0xbc1175d4	-0.00887819
183	0xbda042a2	-0.07825209
184	0xbd1de775	-0.038550813
185	0x3d0df0e6	0.034653567
186	0x3ca51d74	0.020155646
187	0xbd1ba192	-0.037995882
188	0xbcdc6bcc	-0.02690687
189	0xbd338366	-0.043826483
190	0x3dbf29e2	0.093341604
191	0xbdc04e8e	-0.09389983
192	0xbda2c838	-0.07948345
193	0xbd06fccc	-0.03295593
194	0x3db260a6	0.087098405
195	0x38860800	6.391108e-05
196	0x3c514700	0.012773275
197	0xbd2ee9f0	-0.04270357
198	0xba831000	-0.0009999275
199	0xbba12b20	-0.004918471
200	0xbd905530	-0.07047498
201	0x3cee23a8	0.029069737
202	0x3d523acc	0.051325604
203	0x3b2cb680	0.0026353896
204	0x3d4e62fc	0.050387368
205	0xbda763f4	-0.081733614
206	0x3dccabd0	0.09993708
207	0xbd960156	-0.073244736
208	0xbd4e1a84	-0.050318256
209	0xbd1d40bc	-0.038391814
210	0x3baf8480	0.0053563714
211	0x3d86a5cc	0.06574592
212	0x3b0a2140	0.0021076947
213	0x3cf7bd80	0.030241728
214	0x3df7d018	0.121002376
215	0xbde1aaf6	-0.11018936
216	0xba8d5300	-0.0010782182
217	0x3cccb770	0.024989814
218	0x3d37a4ac	0.044834778
219	0xbdc2137e	-0.09476374
220	0xbd071000	-0.032974243
221	0x3d0a4aac	0.03376262
222	0xbdc969f8	-0.09834665
223	0xbcba06b0	-0.022708267
224	0x3cadefe0	0.021232545
225	0xbd061790	-0.032737315
226	0x3cf0f778	0.029414877
227	0xbdeb7c8e	-0.11498366
228	0xbd513028	-0.051071316
229	0xbdbf4fd8	-0.09341401
230	0x3d261954	0.0405515
231	0x3d2e20e8	0.04251185
232	0xbd1ca474	-0.038242772
233	0xbd5d95dc	-0.054097995
234	0x3be9db20	0.0071367174
235	0x3db44406	0.08802037
236	0x3c8ac3e8	0.016939119
237	0x3c9c8a20	0.019108832
238	0xbda33482	-0.079689994
239	0x3c3de750	0.011590794
240	0x3dba6f16	0.09103219
241	0xbdfea636	-0.12434046
242	0x3c250750	0.010072544
243	0x3d17f6d0	0.037100613
244	0xbdf6e856	-0.12056033
245	0x3da2c5b2	0.07947864
246	0x3dba24c2	0.09089042
247	0x3dbcbd32	0.09215774
248	0x3dadd7d6	0.08488433
249	0xbd7faaa4	-0.062418595
250	0x3d75e2b4	0.060030654
251	0x3db5a7e6	0.08869915
252	0xbc545190	-0.012958899
253	0xbd9cacec	-0.0765017
254	0x3d5aad5c	0.053387985
255	0xbda516e4	-0.08061007

layers.4.bias f4 [64]
0	0x3df990a5	0.12185792
1	0x3e3a7073	0.18206958
2	0x3d64231e	0.055697553
3	0x3c3f2600	0.011666775
4	0x3d892898	0.06697196
5	0x3da12701	0.078687675
6	0xbde48fa0	-0.11160207
7	0xbddfd46f	-0.1092919
8	0x3dda3e2c	0.106563896
9	0xbd952bb0	-0.07283723
10	0x3cd842e3	0.026399082
11	0xbc9bb1c4	-0.019005664
12	0xbde3cc0c	-0.11122903
13	0xbc32ee42	-0.010921063
14	0xbd6c6c77	-0.057720628
15	0x3e46ade3	0.1940227
16	0x38e53800	0.00010930002
17	0x3df9d202	0.12198259
18	0x3dcb68bf	0.09932088
19	0x3cfa99d0	0.030590922
20	0xbd837234	-0.06418267
21	0x3caa5f61	0.020797433
22	0x3db85bbf	0.09001874
23	0x3d6f7548	0.058461457
24	0xbcb93258	-0.022607014
25	0x3e2aef16	0.16692767
26	0x3e55316c	0.20819634
27	0x3e3ca23d	0.18421264
28	0xbd22e5a7	-0.039769795
29	0x3d7a77c2	0.061149366
30	0x3e7aefd0	0.24505544
31	0x3e8bb094	0.27283156
32	0x3ddf5cce	0.10906373
33	0x3e5de8a2	0.21670774
34	0x3e14e44a	0.1454021
35	0x3d0e6195	0.03476103
36	0x3d5cf77c	0.053946957
37	0x3e4c9478	0.19978511
38	0x3e8ad8b2	0.2711845
39	0x3d00f6e3	0.03148545
40	0x3e08d382	0.13361934
41	0x3e38cf41	0.18047811
42	0x3e10ec05	0.14152534
43	0x3d974309	0.07385833
44	0x3e10f92f	0.14157556
45	0xba906a45	-0.0011017999
46	0xbde92888	-0.11384684
47	0xbdf7b502	-0.120950714
48	0x3e4e799c	0.20163578
49	0x3e8f8516	0.28031224
50	0xbddd5b5e	-0.108084425
51	0xbab0ba80	-0.0013483316
52	0xbe11a869	-0.142244
53	0x3e874dca	0.26426536
54	0x3cdc3980	0.026882887
55	0x3e25878d	0.1616499
56	0x3d870c9c	0.06594202
57	0x3e539867	0.20663606
58	0x3b12205a	0.0022297115
59	0x3c3e9ef0	0.011634573
60	0x3d61a0b8	0.055084914
61	0xbdc4decc	-0.09612808
62	0x3e4b62e3	0.19861941
63	0x3d271d1c	0.040799245

layers.6.weight f4 [64, 64]
0	0x3d8ad540	0.067789555
1	0x3e066b6a	0.13126913
2	0x3cfe9488	0.031076685
3	0x3d99d8f4	0.07512084
4	0xbcea2af8	-0.028584942
5	0x3db9570f	0.09049808
6	0xbd2b1b24	-0.04177393
7	0xbdfce114	-0.12347618
8	0x3e36bad0	0.17844701
9	0xbd556298	-0.05209598
10	0x3dc26298	0.094914615
11	0xbca8394f	-0.02053514
12	0xbcec2340	-0.028825402
13	0x3c4f4b66	0.012652254
14	0xbdf8c2ac	-0.12146506
15	0x3d94be13	0.07262816
16	0xbd1bf4a4	-0.038075104
17	0x3e2af800	0.16696167
18	0xbceba331	-0.02876434
19	0xbbe5e4c3	-0.007015796
20	0xbdf83274	-0.12118998
21	0x3d80290e	0.062578306
22	0x3daaf220	0.08346963
23	0x3cebaefa	0.028769959
24	0xbd70b168	-0.058762938
25	0x3b76f85a	0.003768465
26	0x3bbfee22	0.005857245
27	0x3b417e60	0.0029524788
28	0xbdc29a8c	-0.09502134
29	0xbdc2494e	-0.09486638
30	0x3d73500f	0.05940252
31	0x3e0a0312	0.13477734
32	0xbd6daf48	-0.05802849
33	0xbcf97c40	-0.030454755
34	0xbd13f529	-0.036122475
35	0xbdbeeba8	-0.093222916
36	0xbdc5084b	-0.096207224
37	0xbc750a5e	-0.014956085
38	0x3df95dfb	0.121761285
39	0xbd3d0a81	-0.046152595
40	0xbd104604	-0.035223022
41	0x3dd94e36	0.10610621
42	0x3db1c9f7	0.086811
43	0x3d91a411	0.07111371
44	0x3e3f8163	0.18701701
45	0xbda4925e	-0.0803573
46	0x3d93a07c	0.07208344
47	0x3d47803f	0.04870629
48	0x3e035149	0.12823977
49	0xbd3c4170	-0.045960844
50	0x3d81b70a	0.0633374
51	0x3de6c314	0.11267677
52	0xbd32148e	-0.043476634
53	0x3dbab34f	0.09116232
54	0x3dd89704	0.10575679
55	0x3c9b24bf	0.01893842
56	0x3cbe26d3	0.023211872
57	0x3e00304c	0.12518424
58	0x3c214ae8	0.009844519
59	0xbde7f1d6	-0.113254234
60	0xbdc676cc	-0.096906275
61	0x3d720ff4	0.059097245
62	0x3d9af3e3	0.07566049
63	0x3df9b4e9	0.12192709
64	0x3d336c34	0.043804362
65	0xbd4f8420	-0.050663114
66	0xbce0e678	-0.027453646
67	0xbdfa1d54	-0.12212625
68	0xbde32e4e	-0.11092816
69	0xbc185940	-0.009298623
70	0xbc9c9180	-0.019112349
71	0x3de585fa	0.112071946
72	0xbd7df0f4	-0.06199737
73	0x3d79eb60	0.061015487
74	0xbc9a2798	-0.018817708
75	0x3da13c2a	0.078728035
76	0xbd433438	-0.04765722
77	0x3dec3f08	0.1153546
78	0xbded4e20	-0.11587167
79	0x3dbc5052	0.091950074
80	0x3ce0b590	0.027430326
81	0x3d52eed4	0.051497295
82	0x3db74ce4	0.089502126
83	0x3dbacac2	0.09120704
84	0x3da97616	0.08274476
85	0xbddd7ae0	-0.10814452
86	0xbd51de58	-0.051237434
87	0x3dc9e6b0	0.09858453
88	0xbc9d9710	-0.019237071
89	0x3c1e55c0	0.009663999
90	0x3d6f2e34	0.058393672
91	0xbdb37aa0	-0.08763623
92	0x3d600cdc	0.054699764
93	0xbd5c4968	-0.053780943
94	0xbd5d57dc	-0.054038867
95	0xbbfe7320	-0.007765189
96	0xbd009ce0	-0.031399608
97	0x3cee6028	0.029098585
98	0xbdf126fc	-0.11775014
99	0xbc84d5d0	-0.016215235
100	0x3d7b74f8	0.061390847
101	0xbd87dcac	-0.06633887
102	0x3bb22860	0.005436942
103	0x3dd874ee	0.105691776
104	0x3d0cac48	0.034343988
105	0xbd6ac3fc	-0.05731581
106	0xbdee4cb8	-0.11635727
107	0xbd1b1bf4	-0.037868455
108	0xbd571194	-0.052507
109	0xbd9cc4b4	-0.07654706
110	0xbd9c8dc0	-0.07644224
111	0x3dd5f9c0	0.10448027
112	0xbca640e0	-0.020294607
113	0xbdfd330a	-0.123632506
114	0x3dd1af56	0.10238521
115	0x3db03ec4	0.086057216
116	0xbd40281c	-0.04691325
117	0xbd8a162e	-0.06742512
118	0x3daab096	0.08334462
119	0xbda77400	-0.08176422
120	0xbb60b5c0	-0.003428802
121	0xbd6210c8	-0.055191785
122	0x3c70c800	0.014696121
123	0x3dfb4888	0.122696936
124	0xbde004d6	-0.109384224
125	0x3d7612e4	0.06007661
126	0xbc9e7d28	-0.019346789
127	0xbd8f940e	-0.07010661
128	0x3ddcbf25	0.107786454
129	0x3e033ac3	0.12815385
130	0x3dfddf38	0.12396091
131	0x3deb9bc0	0.11504316
132	0xbda37fa8	-0.07983333
133	0x3e05f0d0	0.13080144
134	0x3df1dcde	0.11809705
135	0xbdb58448	-0.08863121
136	0x3d5794a4	0.05263199
137	0xbd21b0dc	-0.039475307
138	0x3e09ad14	0.1344493
139	0xbda9f332	-0.08298339
140	0x3c86fdd8	0.016478464
141	0x3d88c731	0.06678618
142	0x3dad8280	0.084721565
143	0xbd573b77	-0.052546944
144	0x3c448980	0.011995673
145	0x3decfbaa	0.115714386
146	0xbdb76ae9	-0.08955938
147	0x3acb68b9	0.0015518881
148	0x3dc76ed0	0.09737933
149	0x3e0a57b2	0.13510016
150	0x3d93aeb6	0.07211058
151	0x3e03e10c	0.12878817
152	0xbde0b0dc	-0.10971233
153	0xbd8db88c	-0.06919965
154	0x3df13767	0.11778145
155	0xbca7fb28	-0.020505503
156	0xbb4f9980	-0.0031677186
157	0xbd45d928	-0.0483028
158	0x3d006ac9	0.03135184
159	0x3da42151	0.08014167
160	0xbdfa1fa2	-0.12213065
161	0xbcebfd35	-0.028807262
162	0xbcd38897	-0.025821967
163	0xbde36e08	-0.11104971
164	0x3d5653f8	0.052326173
165	0x3e1d0ae3	0.15336184
166	0x3d8bf0a7	0.0683301
167	0xbd8baa3e	-0.068195805
168	0x3d1f17d0	0.03884107
169	0x3cd51b06	0.026013862
170	0xbcf559fd	-0.029950136
171	0x3d82a972	0.063799754
172	0x3e3576a3	0.17721038
173	0x3dfb2f30	0.1226486
174	0xbd6df964	-0.058099166
175	0xbc5b6fd0	-0.013393357
176	0x3d9bfede	0.076169714
177	0xbd8cae8f	-0.06869232
178	0xbd768b14	-0.06019123
179	0x3c723c90	0.014784947
180	0xbda7830f	-0.08179294
181	0x3e165a6b	0.14682929
182	0x3dd1e9e6	0.10249691
183	0x3c8094f3	0.015696025
184	0xbe11a989	-0.14224829
185	0x3d6616e3	0.05617417
186	0xbbec31c6	-0.007208082
187	0xbdeb9342	-0.115026966
188	0xbd821008	-0.06350714
189	0x3c31e650	0.010858133
190	0x3e00eafe	0.12589642
191	0xbd687f58	-0.05676207
192	0x3dc0870a	0.09400757
193	0x3b1ffec4	0.0024413327
194	0xbd5a0c78	-0.053234547
195	0xbba25540	-0.0049540102
196	0xbddb8e92	-0.107205525
197	0x3dbf8eb2	0.09353389
198	0x3dc3804a	0.095459536
199	0xbc9e9aa0	-0.01936084
200	0x3c11240b	0.008858691
201	0xbd9004f4	-0.07032195
202	0x3d76e205	0.060274143
203	0x3e1fa261	0.15589286
204	0x3cc621a8	0.02418597
205	0x3bffc20c	0.0078051146
206	0x3d2d8904	0.042366996
207	0x3d90a9ca	0.07063635
208	0x3c94c208	0.018158928
209	0xbd29eb9a	-0.041484453
210	0xbe1c347e	-0.15254399
211	0x3d7409fa	0.059579827
212	0xbddaea44	-0.10689214
213	0xbd954941	-0.07289363
214	0x3dc71528	0.09720832
215	0xbdac6c4c	-0.084190935
216	0x3d7036a4	0.05864586
217	0xbd2a4a29	-0.04157463
218	0x3e46c3c9	0.19410624
219	0x3df9e045	0.12200979
220	0xbd17e628	-0.03708473
221	0x3b117540	0.002219513
222	0x3d68d4d6	0.0568436
223	0x3e233995	0.15939935
224	0xbdb76fc8	-0.089568675
225	0x3ded6f91	0.11593545
226	0x3adbfd7c	0.0016783918
227	0x3dac14ba	0.08402391
228	0xbd4afac9	-0.049555574
229	0x3e28d396	0.16486964
230	0x3d82eb6a	0.06392558
231	0x3b13b625	0.0022538987
232	0x3e267150	0.16254163
233	0x3d88f621	0.0668757
234	0x3d50d13a	0.050980784
235	0xbca1a6dd	-0.019732887
236	0xbcfd7bef	-0.030942885
237	0x3d17e10c	0.037079856
238	0xbc57e260	-0.013176531
239	0x3d70dc45	0.058803815
240	0x3c6f8374	0.014618743
241	0x3e346b5d	0.17619081
242	0x3d907b84	0.07054809
243	0xbcb4e760	-0.022082984
244	0x3de82f85	0.11337189
245	0x3e1a2484	0.15052992
246	0x3d9ea280	0.07745838
247	0xbd5e1c8d	-0.054226447
248	0x3d02ee6a	0.03196565
249	0x3e3f15c4	0.18660647
250	0x3ce012ba	0.02735268
251	0xbd8da6a0	-0.06916547
252	0xbd1f5160	-0.038895965
253	0x398f7c00	0.00027367473
254	0x3a9b2601	0.0011836888
255	0xbd950e94	-0.07278171

layers.6.bias f4 [64]
0	0x3e3efb49	0.18650545
1	0xbd7a9ab0	-0.061182678
2	0x3dd5fdab	0.10448774
3	0x3d472eb3	0.04862852
4	0xbe0a19a7	-0.13486348
5	0x3e532287	0.2061864
6	0xbc11dbe0	-0.00890252
7	0x3e9a9234	0.3018967
8	0x3e0a1c6b	0.13487403
9	0xbbc4d5ea	-0.006006946
10	0xbc3f7da0	-0.011687666
11	0x3c889ab5	0.016675333
12	0xbda975f0	-0.08274448
13	0x3e06dfa2	0.13171247
14	0x3e67a82d	0.22622748
15	0xbe1cf7d6	-0.15328917
16	0x3b13bb00	0.002254188
17	0x3e2b7ccd	0.16746826
18	0x3b15eaa7	0.002287546
19	0x3e63691f	0.2220807
20	0x3b17676a	0.002310241
21	0xbe03f49c	-0.1288628
22	0x3c74ffc0	0.014953554
23	0x3dd895d1	0.1057545
24	0xbc216850	-0.00985153
25	0x3ce08bdb	0.027410438
26	0xbd5dfb3b	-0.05419467
27	0x3e8bf655	0.27336374
28	0xbd923287	-0.071385436
29	0x3d91ee29	0.071255036
30	0x3d1a1ed4	0.037627056
31	0xbd1fcf57	-0.039016094
32	0x3d898f3a	0.067167714
33	0x3e26f03b	0.16302578
34	0x3d12d375	0.035846192
35	0xbdbeb31d	-0.09311507
36	0x3dd6f374	0.10495654
37	0x3e30fbe5	0.1728359
38	0xbc26ab50	-0.01017268
39	0x3d40e928	0.047097355
40	0xbd875c8b	-0.06609448
41	0xbcdaef6c	-0.026725493
42	0x3e97a015	0.2961432
43	0xbbad4520	-0.0052877814
44	0xbdafb23a	-0.08578916
45	0xbdf2a534	-0.11847916
46	0x3e27b1dd	0.16376443
47	0xbde1a89e	-0.11018489
48	0x3e95e8dd	0.29279223
49	0x3e39fcf5	0.18162902
50	0x3e9271d9	0.28602484
51	0xbdccd74c	-0.10002002
52	0x3d5279f5	0.05138584
53	0x3e86b1ea	0.26307613
54	0x3e925d8c	0.28586996
55	0x3d9f2141	0.077700146
56	0xbd4f2724	-0.050574437
57	0x3caddff4	0.021224953
58	0x3c162ff9	0.009166711
59	0xbe0ab424	-0.1354528
60	0x3e88e52d	0.26737347
61	0x3dec2161	0.11529804
62	0x3d32ace3	0.04362191
63	0x3d250d83	0.04029609

layers.8.weight f4 [1, 64]
0	0xbde2010a	-0.110353544
1	0xbd22c4a8	-0.039738327
2	0xbd677d3e	-0.056515925
3	0xbdc7fd29	-0.09765083
4	0x3d6d8db3	0.057996463
5	0xbe43333b	-0.19062512
6	0x3d1e2694	0.03861101
7	0xbde889e8	-0.113544285
8	0xbd85f4a4	-0.06540802
9	0xbc1c6885	-0.009546404
10	0x3de9a9d6	0.11409347
11	0x3c171fd6	0.009223899
12	0x3d89f63c	0.067364186
13	0xbe03ba98	-0.12864149
14	0xbd936382	-0.07196714
15	0x3d34d050	0.044143975
16	0xbdcf99dc	-0.10136768
17	0xbd04143f	-0.03224587
18	0xbcf7bcb6	-0.030241352
19	0xbe21e52f	-0.15810083
20	0x3db42b53	0.08797326
21	0x3d5fb220	0.054613233
22	0x3c558c60	0.013033956
23	0xbe165e19	-0.14684333
24	0x3d9d8c6a	0.076927975
25	0x3c3e9765	0.011632775
26	0x3bd3b2aa	0.0064605074
27	0xbd77f846	-0.060539506
28	0xbc891c34	-0.016737081
29	0x3d0609a6	0.032724045
30	0xbc3709e7	-0.0111717945
31	0x3db55e2b	0.08855852
32	0xbd8aadb9	-0.06771416
33	0xbdcad777	-0.09904378
34	0xbda1e942	-0.079058185
35	0xbcf7902f	-0.03022012
36	0xbd525905	-0.051354427
37	0xbde26c96	-0.110558674
38	0xbd9e80f8	-0.077394426
39	0x3bd6a3e0	0.006550297
40	0xbcc904e8	-0.024538472
41	0x3a83f5e4	0.0010067788
42	0xbdad1a61	-0.08452297
43	0xbdad1cd4	-0.08452764
44	0x3d84b340	0.06479502
45	0xbdf0c11c	-0.11755583
46	0xbd57f727	-0.052725937
47	0xbd2f6684	-0.042822376
48	0xbdd03cb9	-0.10167832
49	0xbd116097	-0.035492506
50	0xbe39196e	-0.18076107
51	0xbde4712a	-0.11154397
52	0x3d51ae17	0.051191416
53	0xbd990fbf	-0.074737065
54	0xbe0ad12a	-0.13556352
55	0xbd894926	-0.06703405
56	0x3c811c90	0.01576069
57	0xbc800848	-0.015628949
58	0x3d4a9594	0.049459055
59	0x3bc83c4a	0.0061107026
60	0xbd6b503f	-0.057449576
61	0xbe21a8ea	-0.15787092
62	0x3c6da687	0.014505035
63	0xbd64eb6d	-0.055888582
