GraphClustering/LargeGraphs/Data/GibbsKarate_0_500_10001_o_Forward200.pt (torch, 646115 bytes, 9 tensors)

layers.0.weight f4 [64, 2312]
0	0x3c001899	0.007818365
1	0xbe13bcf7	-0.14427553
2	0xbe1e84aa	-0.15480295
3	0xbe06bdc4	-0.13158327
4	0xbe1bc40e	-0.15211508
5	0xbe1060dd	-0.1409945
6	0xbe219884	-0.15780836
7	0xbdfbad0f	-0.12288868
8	0xbe14a9cc	-0.14517897
9	0xbc130ba4	-0.008974943
10	0xbe1f5eeb	-0.15563552
11	0xbe22a9ac	-0.15885037
12	0xbe226ee1	-0.1586261
13	0xbe1d43d5	-0.15357907
14	0x3c9419fc	0.018078797
15	0x3c312f2f	0.010814472
16	0x3c5026ff	0.01270461
17	0xbe20a444	-0.15687662
18	0xbc3ccde6	-0.011523699
19	0xbe1c2548	-0.15248597
20	0x3c727c4d	0.014800143
21	0xbe117018	-0.14202917
22	0xbacf235a	-0.0015803382
23	0x3c8b0295	0.016969005
24	0xbb782b2c	-0.003786753
25	0x3b1fec71	0.0024402405
26	0x3c18cc39	0.009326034
27	0xbc9b1160	-0.018929183
28	0xbc9663b5	-0.01835809
29	0xbc210ae5	-0.009829258
30	0xbc810a40	-0.015751958
31	0xbe0fff29	-0.1406218
32	0xbab2b2fb	-0.0013633663
33	0x3c2b7bd5	0.010466536
34	0xbe158ade	-0.14603755
35	0x3c76b508	0.01505781
36	0xbe0f7829	-0.14010681
37	0xbe06f701	-0.13180162
38	0x3c20b588	0.009808905
39	0xbbea47f7	-0.007149692
40	0xbc65f438	-0.014035277
41	0xbdf96e69	-0.12179262
42	0x3c703f61	0.014663548
43	0x3bbaa743	0.0056962087
44	0xbc5e5e01	-0.013572217
45	0x3c34267e	0.010995505
46	0x3b1ad18b	0.0023623432
47	0xbe0f4f8b	-0.13995187
48	0x3bbfab78	0.005849298
49	0x3c928760	0.017886817
50	0x3c8f06f6	0.017459374
51	0xbe16c1ae	-0.1472232
52	0x3c7226db	0.014779772
53	0xbe02873a	-0.12746897
54	0x3c88cb90	0.016698629
55	0xbe1ba8f4	-0.15201169
56	0xbc4e7831	-0.012601898
57	0xbb599fd2	-0.0033206833
58	0x3c28edea	0.010310629
59	0xba9f2dd1	-0.0012144392
60	0x3b87a305	0.0041393065
61	0xbc8393e0	-0.016061723
62	0x3c5b8717	0.013398907
63	0xbca08c85	-0.019598255
64	0xbdfc0555	-0.123057045
65	0x3ba8b092	0.005148002
66	0xbbcf5ea0	-0.006328419
67	0x3bf9944c	0.0076165553
68	0xbe1f5f92	-0.15563801
69	0xbe1c60ad	-0.15271254
70	0x3b7ac31b	0.0038263265
71	0xbe04803c	-0.12939543
72	0xbc6220c9	-0.013801762
73	0x3c8d0ec2	0.017218951
74	0xbc9036f8	-0.017604336
75	0xbe20352b	-0.15645282
76	0xbe109485	-0.14119156
77	0xbe1a72bc	-0.1508283
78	0xbbdda115	-0.0067635872
79	0xbc6f2af6	-0.014597645
80	0x3af09e67	0.0018357754
81	0xbe171376	-0.14753518
82	0x3b995f45	0.0046805465
83	0xbbc66bc9	-0.0060553295
84	0xb970509f	-0.00022918217
85	0x3b5d8e28	0.0033806656
86	0xbbd0cf27	-0.0063723507
87	0xbc5305db	-0.012879814
88	0x3ae58893	0.0017512016
89	0x3ca87c98	0.020567223
90	0x3c36ce48	0.01115758
91	0xbba09cae	-0.00490149
92	0x3c9b275a	0.018939663
93	0x3c24c09c	0.010055687
94	0xbbd1d970	-0.0064040944
95	0xbe1f801d	-0.15576215
96	0xbe22a515	-0.15883286
97	0x3c928b28	0.01788862
98	0xbc98fc12	-0.018674884
99	0xbc245624	-0.010030303
100	0xbe08b974	-0.13351995
101	0xbc3d6254	-0.011559088
102	0xbe141211	-0.14460017
103	0xbe1376d0	-0.14400792
104	0xbe222aee	-0.15836689
105	0x3bbe86a0	0.0058143884
106	0x3c9c963d	0.019114608
107	0x3c9ead1e	0.019369658
108	0x3c03721f	0.008022814
109	0xbe013e73	-0.12621479
110	0x3b5b3275	0.0033446823
111	0x3c12bdc9	0.008956381
112	0xba739aa9	-0.00092927605
113	0x3c5a1e0d	0.013312829
114	0xbe0c2ea7	-0.13689671
115	0xbe09ca60	-0.13456106
116	0x3c3bc282	0.0114599485
117	0xbc7095a0	-0.014684111
118	0xbc2fd84d	-0.0107327225
119	0xbc2345c7	-0.009965367
120	0x3b7377f8	0.0037150364
121	0x3c85e247	0.016343249
122	0x3b5f3e1e	0.0034064124
123	0x3bbfef20	0.0058573633
124	0x3c375d26	0.011191642
125	0xbb8a53e8	-0.004221428
126	0xbc1e922b	-0.009678404
127	0x3c8f422e	0.017487612
128	0xbc15d85b	-0.009145821
129	0xbc4842b3	-0.012222934
130	0x3c7e80f2	0.015533673
131	0x3c76af58	0.015056454
132	0xbc143a60	-0.009047121
133	0x3c55c331	0.013047026
134	0xbc8f1953	-0.01746813
135	0x3c55c5ad	0.013047618
136	0xbe121461	-0.14265586
137	0x3c8c717c	0.017143957
138	0xbc079be8	-0.008276917
139	0x3b83698a	0.004010384
140	0x3b8f3453	0.004370251
141	0xbc2737f1	-0.010206209
142	0xbe0aa133	-0.13538055
143	0xbc2cbd4b	-0.010543178
144	0xbc412bb6	-0.011790207
145	0x3bb837a2	0.0056218663
146	0xbe0b0377	-0.1357554
147	0xbb8ed658	-0.004359048
148	0xbca152a4	-0.019692726
149	0xbbe02c74	-0.0068412367
150	0xbc6029c3	-0.013681832
151	0x39fe6c5b	0.00048527386
152	0x3b3321ca	0.0027333372
153	0x3bbf6bf5	0.005841727
154	0x3c5d55c4	0.013509218
155	0x3c60f81f	0.013731032
156	0x3ad08de4	0.0015911427
157	0xbb955b23	-0.0045579835
158	0x3c214a19	0.009844326
159	0xbb9bf47a	-0.0047593685
160	0x3c067ab0	0.008207962
161	0xbc571d1a	-0.013129497
162	0xbc5d439a	-0.013504887
163	0x3b7c1ef6	0.0038470603
164	0xbc61bba6	-0.013777649
165	0x3ca54498	0.02017431
166	0xbc4318fb	-0.011907811
167	0x3c8a9e7b	0.016921273
168	0x3c9315a6	0.017954659
169	0x3bf39615	0.0074336627
170	0xbe09b071	-0.13446213
171	0x3c829e0a	0.0159445
172	0x3c1c1b4b	0.0095279915
173	0x3c531940	0.012884438
174	0x3c74da95	0.014944692
175	0x3c8e742e	0.017389383
176	0xbe1490d9	-0.1450838
177	0xbab13d4c	-0.0013522296
178	0x3bef0c99	0.007295203
179	0xbbbf489f	-0.0058375145
180	0xbe0ef1cb	-0.13959424
181	0x3ba25bc7	0.0049547884
182	0x3c204b17	0.009783528
183	0xb73f15d0	-1.1389566e-05
184	0x3ca70c19	0.02039151
185	0xbc8e6c0f	-0.01738551
186	0xbe0c03b4	-0.13673288
187	0xbc953918	-0.018215701
188	0x3c0a128b	0.008427273
189	0xbc683dd2	-0.014174895
190	0x3c56e102	0.0131151695
191	0xbcaa4c0e	-0.020788219
192	0x3bca7f14	0.0061796997
193	0x3ca8fb21	0.02062756
194	0x3ca7dd19	0.02049117
195	0x3c62e71b	0.013849045
196	0x3c3b4f53	0.011432487
197	0xbb41adb4	-0.0029552998
198	0x3c4688b7	0.012117556
199	0x3c9489fe	0.018132206
200	0x3c5aec54	0.013362009
201	0x3bca5bf9	0.006175515
202	0xbbc23488	-0.0059266724
203	0x3c202157	0.009773574
204	0xbe036896	-0.12832865
205	0xbb540958	-0.0032354202
206	0x3c514729	0.012773314
207	0xbb8caa29	-0.0042927456
208	0xbdfa7415	-0.12229172
209	0xbe01a70a	-0.12661377
210	0xb95808bc	-0.00020602619
211	0xbc3e2d3d	-0.011607465
212	0x3c818ba0	0.015813649
213	0xbc570fc5	-0.013126318
214	0xbbc17632	-0.0059039826
215	0xbca44995	-0.020054618
216	0x3be8fc95	0.0071101882
217	0x3c81d5fc	0.015849106
218	0x3a79bc9a	0.00095267
219	0x3c393d91	0.0113061825
220	0xbdfd4be1	-0.123679884
221	0xbc81b739	-0.015834438
222	0x3c940359	0.018068003
223	0xbbcab3e8	-0.0061859973
224	0x3b71544b	0.0036823924
225	0x3c9c3aa7	0.019070936
226	0xbc265354	-0.010151703
227	0x3c350acb	0.0110499365
228	0xbc80eda8	-0.015738323
229	0x3adb7b89	0.001674519
230	0xbc0dc2bd	-0.008652386
231	0xbc1df703	-0.009641412
232	0xbc0ebb8c	-0.008711707
233	0x3b25e969	0.0025316125
234	0x3c9b55eb	0.018961867
235	0x3c880184	0.016602285
236	0xba7abbfe	-0.0009564756
237	0x3c79b81c	0.015241649
238	0xbe0e30ca	-0.13885799
239	0xbe0ae500	-0.13563919
240	0xbe1c5322	-0.15266088
241	0xbe0e44bf	-0.13893412
242	0x3c8b857d	0.017031426
243	0x3ca56afb	0.020192614
244	0x3bf4a6cc	0.007466173
245	0xbb8367db	-0.0040101833
246	0x3bbc5738	0.005747702
247	0x3b928f56	0.0044726534
248	0xbc6ead71	-0.014567719
249	0xbc9f9a9c	-0.019482903
250	0x3c91e184	0.01780773
251	0xbc8f04f3	-0.017458415
252	0x3a8f6ecf	0.0010943058
253	0xbc45c038	-0.012069754
254	0x3c9f4861	0.019443693
255	0x3c1c285b	0.009531106

layers.0.bias f4 [64]
0	0xbe1b77b1	-0.15182377
1	0xbd44b9da	-0.048028804
2	0xbc9c0e93	-0.019049918
3	0xbe141bd3	-0.14463739
4	0xbe07c7ea	-0.13259855
5	0xbcd4ec37	-0.025991542
6	0xbd0f67ca	-0.03501109
7	0xbc466ade	-0.01211044
8	0xbd04a388	-0.032382518
9	0xbd4aa803	-0.049476635
10	0xbc2adc55	-0.010428508
11	0xbe26c4fc	-0.16286081
12	0xbce51a9d	-0.027966792
13	0xbc5fc759	-0.013658368
14	0xbc9d2ced	-0.019186461
15	0xbc317708	-0.010831602
16	0xbc2fe728	-0.010736264
17	0x3c9a7adc	0.018857412
18	0xbcaa36ce	-0.020778086
19	0x3e35712a	0.1771895
20	0x3d1bf0a7	0.0380713
21	0x3d3d8a0b	0.046274226
22	0xbbd0a153	-0.0063668876
23	0xbd02f85e	-0.031975143
24	0xbd2c8f7c	-0.042129025
25	0xbd90b28d	-0.07065306
26	0xbd2ed1ee	-0.042680673
27	0xbc89049c	-0.01672583
28	0xbdaead6c	-0.08529171
29	0xbc72b7f3	-0.014814365
30	0xbaa02ed5	-0.0012220988
31	0xbcfc1aea	-0.030774552
32	0xbc389d12	-0.011267917
33	0x3d052815	0.03250893
34	0xbcd1a423	-0.025590962
35	0xbcfb95a2	-0.030710999
36	0xbc6d3be3	-0.01447961
37	0xbc9bb41b	-0.01900678
38	0x3d935c37	0.07195323
39	0xbd8371ef	-0.064182155
40	0x3d85d274	0.065342814
41	0xbd4977d6	-0.04918655
42	0xbc07f280	-0.008297563
43	0xbd1ad2d4	-0.037798718
44	0xbd1dee6b	-0.03855745
45	0xbca07ecb	-0.01959171
46	0xbd42557c	-0.047444806
47	0xbd99b062	-0.075043455
48	0xbc802d70	-0.015646666
49	0xbd02fd53	-0.03197987
50	0x3d10f14b	0.035386365
51	0xbce7adb4	-0.02828107
52	0xbd1a0605	-0.037603397
53	0xbca65088	-0.020302072
54	0x3eb294d8	0.34879184
55	0xbd87424b	-0.06604441
56	0xbdaa304d	-0.08309994
57	0xbd17d37f	-0.037066933
58	0xbd342f07	-0.04399016
59	0xbd3c8e75	-0.046034295
60	0xbc75cc70	-0.015002355
61	0xbca3c269	-0.019990163
62	0xbd1c5272	-0.038164563
63	0x3fe213a4	1.7662244

layers.2.weight f4 [64, 64]
0	0xbdfecc58	-0.12441319
1	0x3d829697	0.06376379
2	0x3de823ec	0.113349766
3	0x3de3bdea	0.111202076
4	0xbdf77ebe	-0.12084721
5	0x3d943525	0.07236699
6	0xbd14fb83	-0.036372673
7	0xbdf0a557	-0.11750286
8	0x3d27bc01	0.04095078
9	0xbde81a1e	-0.113331065
10	0x3defc0ca	0.117066935
11	0xbc1d86e0	-0.009614676
12	0xbdee11c8	-0.11624485
13	0xbdccb839	-0.09996075
14	0x3d59bcaa	0.05315844
15	0x3d26b3ea	0.040698923
16	0xbd8b18c5	-0.06791834
17	0xbe5747a9	-0.2102343
18	0x3dc171f7	0.09445565
19	0x3d819a14	0.06328216
20	0xbd781535	-0.0605671
21	0x3c724dc6	0.01478905
22	0xbdf625da	-0.12018938
23	0xbe91329b	-0.2835892
24	0xbd99bf7d	-0.075072266
25	0x3c6b2c4f	0.014353826
26	0x3d0dbfb0	0.034606636
27	0x3d77a6b0	0.0604617
28	0xbe814e53	-0.2525507
29	0xbcaba890	-0.0209544
30	0xbe60741a	-0.21919289
31	0xbe07e4d9	-0.13270892
32	0xbd80b2b3	-0.06284084
33	0xbe59368d	-0.21212216
34	0xbdced2f1	-0.10098828
35	0xbdd05b98	-0.1017372
36	0x3cfd30d6	0.030907076
37	0xbdfe2a36	-0.12410395
38	0xbe6e0f4f	-0.23248027
39	0x3c017560	0.00790152
40	0xbe56ea89	-0.20987906
41	0xbccb37e2	-0.02480692
42	0xbddf1c38	-0.10894054
43	0xbda64df1	-0.08120335
44	0xbe0b8977	-0.13626657
45	0x3da05c45	0.07830099
46	0x3d8621cc	0.06549415
47	0xbe6b8a36	-0.23001942
48	0xbdc19b1a	-0.094534114
49	0x3c66aec0	0.01407975
50	0xbe54f27e	-0.20795628
51	0x3dc04b3b	0.09389349
52	0x3dbfe8a1	0.09370542
53	0xbe4a53ef	-0.1975858
54	0xbda1b3db	-0.07895633
55	0xbd2d6330	-0.04233092
56	0xbdd335fd	-0.10313032
57	0xb9bc24d3	-0.0003588559
58	0xbdcaa930	-0.09895551
59	0xbd830903	-0.06398203
60	0xbcd39ba5	-0.025831053
61	0x3d51cd4d	0.05122118
62	0xbe920019	-0.285157
63	0xbd21e525	-0.03952517
64	0xbdb0cf16	-0.086332485
65	0xbd8de896	-0.06929128
66	0xbdedf1fa	-0.11618419
67	0xbd41412c	-0.047181293
68	0x3aacf780	0.0013196319
69	0x3ccfd2a8	0.025369003
70	0xbd9a0190	-0.07519829
71	0x3d477044	0.04869105
72	0xbd740a8c	-0.05958037
73	0xbc8eb3a0	-0.017419636
74	0xbd598a84	-0.053110614
75	0x3d915024	0.07095364
76	0x3cdd65f0	0.027026147
77	0x3cbd9e30	0.023146719
78	0xbcc1bb20	-0.023648798
79	0xbd682fa0	-0.056686044
80	0xbc9fd5e0	-0.019511163
81	0xbd9f6a32	-0.07783927
82	0x3c0223f0	0.0079431385
83	0xbd99e9dc	-0.07515308
84	0xbdf8baae	-0.12144981
85	0x3d1da064	0.03848304
86	0xbd818ace	-0.06325303
87	0xbbd97320	-0.0066360384
88	0xbc9d4090	-0.019195825
89	0xbd626c5c	-0.05527912
90	0xbd6f1cb0	-0.058376968
91	0x3c82a358	0.015947029
92	0x3ce56080	0.028000116
93	0x3dc58196	0.09643857
94	0xbd107fb8	-0.035278052
95	0xbdfe5084	-0.12417701
96	0x3dbbb51c	0.09165403
97	0x3cce7fe0	0.02520746
98	0xbc2ce9c0	-0.010553777
99	0x3dd1760c	0.10227594
100	0x3de0d194	0.10977474
101	0x3cdc1998	0.026867673
102	0xbde4247e	-0.11139773
103	0x3b9bc860	0.004754111
104	0x3de87ba8	0.113517106
105	0xbda039a6	-0.078234956
106	0x3d33f5c0	0.043935537
107	0x3d62c420	0.05536282
108	0xbd90cbf0	-0.07070148
109	0xbd77250c	-0.060338065
110	0xbda31aee	-0.07964121
111	0x3d99165a	0.07474966
112	0xbb88ab60	-0.00417082
113	0x3c2ebd10	0.010665193
114	0xbd0e3da4	-0.034726754
115	0x3d833436	0.06406443
116	0xbdeb7194	-0.11496273
117	0xbd75e0e4	-0.060028926
118	0xbcacef48	-0.021110192
119	0xbd3a1030	-0.045425594
120	0xbdb24ed6	-0.08706443
121	0xbbdae6c0	-0.0066803396
122	0xbd7854bc	-0.060627684
123	0x3cc545b8	0.024081096
124	0xbd0b0738	-0.03394243
125	0xbd817586	-0.06321244
126	0x3c9de4b0	0.019274086
127	0xbe2b90f6	-0.16754517
128	0x3caa9428	0.0208226
129	0xbc3f7a7d	-0.011686918
130	0xbc575fe0	-0.013145417
131	0xbcc605f0	-0.024172753
132	0x3d0a0be4	0.033702746
133	0x3d41faa5	0.047358174
134	0xbeb1c69b	-0.34721836
135	0xbc524189	-0.012833008
136	0xbd80bc57	-0.06285923
137	0xbd509164	-0.050919905
138	0xbd24e254	-0.040254906
139	0x3deb3766	0.11485176
140	0x3dfd21a8	0.12359935
141	0xbe0ad1a3	-0.13556533
142	0x3da2ea27	0.07954817
143	0x3d9f3dda	0.07775469
144	0xbcdbad02	-0.026815895
145	0xbe17ca32	-0.14823225
146	0x3d831e88	0.06402308
147	0x3d1ee698	0.03879413
148	0xbddc1da3	-0.1074784
149	0x3e1bd9e5	0.15219839
150	0x3cc74b73	0.02432797
151	0xbe293c08	-0.16526806
152	0xbd92e544	-0.07172635
153	0x3dc44d95	0.0958511
154	0x3d5f82ea	0.05456821
155	0xbdb81375	-0.08988086
156	0x3e2683b8	0.16261184
157	0x3cb8f230	0.022576421
158	0x3c51a0be	0.012794672
159	0xbd696dae	-0.056989364
160	0x3cf30c80	0.029669046
161	0xbc208d5d	-0.009799329
162	0xbd8eac0c	-0.06966409
163	0xbdf02cba	-0.11727281
164	0xbd746ee2	-0.05967606
165	0x3d0a7903	0.033806812
166	0x3ddee27f	0.108830445
167	0xbc0e2fa0	-0.008678347
168	0x3b971d7a	0.004611668
169	0x3c18903d	0.009311733
170	0xbdcba02c	-0.0994266
171	0xbe1ddb19	-0.1541561
172	0x3d1da7ee	0.03849023
173	0xbd8e7f06	-0.069578215
174	0xbdfcc7c3	-0.12342789
175	0x3d242994	0.040078714
176	0xbdd31d87	-0.10308366
177	0x3dd2edc2	0.10299255
178	0xbe63b542	-0.22237113
179	0x3d6699a3	0.056298863
180	0xbc13378e	-0.008985413
181	0xbdf6a9db	-0.12044116
182	0x3d0c94c0	0.034321547
183	0x3de028e8	0.10945302
184	0xbdeb8857	-0.11500614
185	0xbc2ca58a	-0.010537514
186	0xbcbc5210	-0.02298835
187	0xbca026ba	-0.019549716
188	0xbe8c402a	-0.27392703
189	0xbe03c2af	-0.12867235
190	0x3d747dc2	0.059690244
191	0xbdd5a956	-0.10432689
192	0xbcffde18	-0.031233832
193	0xbc8cf6a0	-0.017207444
194	0x3d26b5af	0.04070061
195	0x3e7f6c94	0.24943763
196	0xbe7b9619	-0.24568976
197	0xbde00600	-0.109386444
198	0xbbb36a4f	-0.0054753195
199	0xbd4a5d58	-0.049405426
200	0xbae2da80	-0.001730755
201	0x3bd2966b	0.0064266226
202	0x3cfe61eb	0.03105255
203	0x3d8892d0	0.06668627
204	0x3c9e9e57	0.019362612
205	0x3da10fc4	0.07864335
206	0x3d28e1a4	0.041230813
207	0xbcc95a08	-0.024579063
208	0xbdfe7ac6	-0.12425761
209	0xbde8763c	-0.113506764
210	0xbdb9c920	-0.09071565
211	0xbe3b8944	-0.18314081
212	0xbcea5cdd	-0.028608734
213	0x3df15f16	0.11785714
214	0xbdf2cc66	-0.11855392
215	0xbd62cac4	-0.055369154
216	0x3ca5a2b8	0.020219192
217	0xbcb699bf	-0.022290109
218	0x3d84a344	0.06476453
219	0xbab46880	-0.0013764054
220	0xbcb70bfe	-0.022344586
221	0x3da716d0	0.08158648
222	0xbd7532b2	-0.0598628
223	0xbd832bae	-0.064048156
224	0x3db1ec9e	0.08687709
225	0xbdcb813c	-0.09936759
226	0xbd8aef72	-0.06783952
227	0x3db15a62	0.08659817
228	0xbda0ff3d	-0.07861183
229	0x3c0e6de0	0.008693188
230	0xbd237993	-0.039910864
231	0xb98266fc	-0.00024872262
232	0xbd96a5d7	-0.0735585
233	0xbde077f4	-0.10960379
234	0x3e0a197c	0.13486284
235	0xbe3da74a	-0.18520847
236	0xbe25f827	-0.16207944
237	0x3be231c0	0.0069029033
238	0xbd252ab4	-0.040323928
239	0x3db81779	0.08988852
240	0xbd0df450	-0.034656823
241	0xbd91e39d	-0.07123492
242	0x3e0e7a61	0.13913871
243	0xbd9f2066	-0.077698514
244	0x3bb75b60	0.0055956095
245	0xbcc64b41	-0.024205806
246	0xbe3046b5	-0.17214473
247	0xbcf7bb11	-0.030240567
248	0x3d7c1b65	0.061549563
249	0xbbdc9420	-0.006731525
250	0x3b14aa56	0.0022684536
251	0x3e086b0d	0.13322087
252	0xbde893d8	-0.11356324
253	0xbd8a18d2	-0.06743015
254	0xbe15878b	-0.14602487
255	0xbc4a14bb	-0.012334044

layers.2.bias f4 [64]
0	0xbde6deed	-0.112729885
1	0xbe86e398	-0.26345515
2	0xbe373268	-0.17890322
3	0x3fa971ac	1.3237815
4	0xbe7c1877	-0.24618708
5	0xbdbebad5	-0.09312979
6	0xbd97548a	-0.073891714
7	0x404219c2	3.0328221
8	0xbcf34248	-0.029694691
9	0xbe459ca7	-0.1929804
10	0xbecbe609	-0.3982394
11	0xbdf8314b	-0.12118777
12	0x3d57d079	0.05268905
13	0xbe1b19e1	-0.15146591
14	0x3db57a9c	0.088612765
15	0xbe292e32	-0.16521528
16	0xbe86d2d6	-0.2633273
17	0xbe3fff5b	-0.18749754
18	0xbda90425	-0.08252744
19	0xbd1f0bbf	-0.03882956
20	0x4037882c	2.8676863
21	0x3f9d1809	1.227296
22	0x3f78f840	0.972538
23	0xbdfe0e3a	-0.12405057
24	0x3f36cd77	0.71407264
25	0xbdea70e7	-0.11447316
26	0xbe219f3f	-0.15783404
27	0xbe141af6	-0.1446341
28	0xbdbf5678	-0.093426645
29	0x3af49097	0.0018658814
30	0x3f24e9ef	0.64419454
31	0xbe15b2f6	-0.1461905
32	0xbde8d113	-0.11368003
33	0x3f81d75a	1.0143845
34	0xbdb33cd5	-0.08751837
35	0xbe553877	-0.20822321
36	0xbda806c6	-0.08204417
37	0xbdca03e8	-0.09864026
38	0xbd8e3148	-0.069429934
39	0x3fb1949d	1.3873478
40	0xbe9296f7	-0.28630802
41	0xbe82ee95	-0.2557265
42	0x3f8c9dd0	1.098566
43	0xbe1e4948	-0.15457642
44	0xbec899c7	-0.39179823
45	0xbe461f64	-0.19347912
46	0x3f3f9cd0	0.7484865
47	0xbdc70a7c	-0.097187966
48	0xbe2b6e8d	-0.1674139
49	0xbe374a3f	-0.17899416
50	0x3d2cb103	0.042161
51	0x3d7a5bf7	0.06112286
52	0xbd0271bb	-0.031846743
53	0x400754ba	2.1145463
54	0x3f967848	1.1755457
55	0xbd883d6b	-0.066523395
56	0xbe7a7bd3	-0.24461298
57	0xbe4cb33d	-0.19990249
58	0x3eb77071	0.35827973
59	0xbc89d136	-0.016823392
60	0xbd97d26f	-0.07413184
61	0x3e0cf361	0.13764717
62	0x3cb76214	0.022385634
63	0x3dcfe778	0.10151571

layers.4.weight f4 [64, 64]
0	0xbd907df4	-0.07055274
1	0xbd964c18	-0.073387325
2	0xbe41a429	-0.18910278
3	0xbe25fcf7	-0.1620978
4	0xbd310e69	-0.043226633
5	0xbc1d801d	-0.009613064
6	0x393cb000	0.00017994642
7	0xbd4ec3a0	-0.05047953
8	0x3ca0a50d	0.019609952
9	0xbdfb354b	-0.12266024
10	0x3d22ab42	0.039714105
11	0xbd89b94f	-0.06724798
12	0xbe04813d	-0.12939925
13	0xbd947235	-0.07248346
14	0x3ba90058	0.0051575117
15	0xbd72cc4e	-0.05927687
16	0xbdc33f70	-0.09533584
17	0x3cd51068	0.0260088
18	0x3e784e3a	0.24248591
19	0x3dd0d0e4	0.10196093
20	0xbe015404	-0.12629706
21	0xbe9ad403	-0.30239877
22	0xbe8f3c25	-0.27975574
23	0xbd0a3c20	-0.033748746
24	0xbe2db3e3	-0.16963153
25	0x3cd73043	0.02626813
26	0x3cc78ff9	0.024360644
27	0x3de6d664	0.112713605
28	0x3de14c48	0.110008776
29	0xbda92714	-0.08259407
30	0xbdb4ca62	-0.08827664
31	0x3e75ddb8	0.2401036
32	0xbdfca580	-0.12336254
33	0xbe0000c0	-0.12500286
34	0x3da38602	0.07984544
35	0x3dcb73ae	0.099341735
36	0x3d9a4fe6	0.07534771
37	0x3da389da	0.079852775
38	0xbd3c97dc	-0.046043262
39	0xbe107827	-0.14108334
40	0xbd87131d	-0.065954424
41	0x3caba50e	0.020952728
42	0xbe9c4da6	-0.3052799
43	0x3d939779	0.072066255
44	0x3c8bbc5a	0.017057586
45	0xbb17d600	-0.0023168325
46	0xbe8ee4d5	-0.2790896
47	0xbdd12194	-0.10211483
48	0xbc17a2c0	-0.009255111
49	0xbe012bdc	-0.12614387
50	0xbe1b2c2a	-0.15153566
51	0xba60bc7b	-0.00085730077
52	0x3da15949	0.07878358
53	0xbe214b7e	-0.15751454
54	0xbe05dcbd	-0.13072486
55	0x3d718741	0.05896688
56	0xbd774e18	-0.06037721
57	0xbdd67d07	-0.10473066
58	0xbe581de8	-0.21105158
59	0x3d23c684	0.03998424
60	0x3d9262cf	0.071477525
61	0x3d31b0aa	0.04338137
62	0xbd875cb0	-0.066094756
63	0x3da0bd80	0.07848644
64	0xbda22086	-0.079163596
65	0x3dca2a6e	0.09871374
66	0x3d867590	0.06565392
67	0x3d4d567a	0.0501313
68	0xbcaeb49e	-0.02132636
69	0x3c9f5522	0.019449774
70	0xbd46614c	-0.048432633
71	0xbdd060a4	-0.10174683
72	0xbe011445	-0.12605388
73	0xbd0dc6c3	-0.034613382
74	0x3d4542e7	0.048159506
75	0x3c01b2ab	0.007916133
76	0xbc83567b	-0.016032448
77	0xbbf06f55	-0.0073374906
78	0xbc60296f	-0.013681754
79	0xbdd11f71	-0.10211075
80	0x3deb9164	0.115023404
81	0xbb843c60	-0.0040355176
82	0xbd626e79	-0.055281136
83	0xbd7c8eb8	-0.061659545
84	0xbd697f30	-0.05700606
85	0x3d20c9d6	0.039254986
86	0x3ca3972a	0.019969542
87	0x3de1e404	0.11029819
88	0x3d4a36df	0.049368735
89	0xbdc305c5	-0.09522585
90	0x3d90c766	0.07069282
91	0x3dcee042	0.101013675
92	0x3df8f2c0	0.12155676
93	0x3db2b3a9	0.08725674
94	0x3d1e5b7e	0.038661472
95	0xbd1b60bc	-0.03793405
96	0x3cfdcc50	0.030981213
97	0x3d2552c4	0.040362135
98	0xbd7184fc	-0.058964714
99	0xbd027d69	-0.03185788
100	0x3d890b10	0.06691563
101	0x3d9f150a	0.07767685
102	0xbdc18aa6	-0.09450273
103	0x3d791ac7	0.060816552
104	0x3e82a68f	0.255177
105	0xbdccffb6	-0.100097105
106	0x3d8566b3	0.06513729
107	0xbdb4dedf	-0.08831572
108	0xbdd76607	-0.10517507
109	0x3d474a7c	0.04865502
110	0xbc98ba98	-0.018643662
111	0xbd69775f	-0.056998607
112	0xbd35c600	-0.04437828
113	0x3d2691a4	0.040666237
114	0xbc964d9a	-0.01834755
115	0x3c8d2769	0.017230706
116	0x3cd5fbe5	0.02612109
117	0xbcd68dd6	-0.02619068
118	0xbe009a61	-0.12558891
119	0x3e06a8ee	0.13150379
120	0xbe095eb6	-0.13415036
121	0x3da3d540	0.079996586
122	0xbca844fe	-0.02054071
123	0xbdac15e6	-0.08402614
124	0xbd508dfa	-0.05091665
125	0x3d73ef05	0.05955412
126	0x3b51ba80	0.0032002032
127	0xbd949c4b	-0.07256373
128	0x3d1366ba	0.03598664
129	0x3d5d5a88	0.054041415
130	0x3dba22a3	0.09088638
131	0xbe1ab31e	-0.1510739
132	0xbe40f069	-0.18841709
133	0xbcc1848a	-0.02362277
134	0xbba693a0	-0.0050835162
135	0xbddbf83d	-0.10740707
136	0xbe24b244	-0.16083628
137	0x3d21c767	0.039496806
138	0x3d36c246	0.044618867
139	0x3e178588	0.14797032
140	0x3d69dfd1	0.057098214
141	0xbdf9e7d0	-0.12202418
142	0xbd2fe654	-0.042944267
143	0xbda5e346	-0.080999896
144	0x3de96df8	0.11397928
145	0x3d353fe3	0.04425038
146	0x3e414ca2	0.1887689
147	0x3dfe310c	0.12411699
148	0x3c4c19de	0.012457339
149	0x3d0d8f60	0.03456056
150	0xbdf24a9f	-0.11830639
151	0x3e1774dc	0.14790672
152	0x3d7583d0	0.05994016
153	0x3d38eec1	0.04514957
154	0x3d84b341	0.064795025
155	0xbc9ccaa5	-0.019139597
156	0x3debd60b	0.11515435
157	0xbbb654ee	-0.0055643236
158	0xbd81db5b	-0.06340667
159	0xbdb80c24	-0.08986691
160	0x3d880072	0.0664071
161	0x39990c94	0.00029191806
162	0x3e0984d6	0.13429579
163	0xbdf5740c	-0.11985025
164	0x3da07f2e	0.078367576
165	0x3d13c5cc	0.036077306
166	0x3d76604d	0.060150433
167	0xbd8471be	-0.06467007
168	0xbe100f42	-0.1406832
169	0x3c88cd76	0.016699534
170	0xbe200b90	-0.1562941
171	0xbd96a6b7	-0.07356017
172	0xbde8f15b	-0.1137416
173	0x3cb089e7	0.021550132
174	0xbce2458f	-0.027621059
175	0x3d583db3	0.052793216
176	0xbda8b097	-0.08236807
177	0x3c332204	0.010933403
178	0xbd91276f	-0.070875995
179	0xbd297f9a	-0.041381456
180	0xbd234e18	-0.039869398
181	0x3db13df4	0.08654395
182	0x3d25408b	0.040344756
183	0xbd254751	-0.040351216
184	0x3d794906	0.060860656
185	0x3df3658a	0.118846014
186	0xbd01e063	-0.031708132
187	0xbd917f83	-0.07104399
188	0x3c4958d2	0.012289243
189	0x3d632135	0.05545159
190	0xbc8f76dc	-0.017512731
191	0x3d7e7f7f	0.06213331
192	0x3d85839a	0.06519242
193	0xbd90581e	-0.07048057
194	0xbdf58892	-0.11988939
195	0xbe336ca4	-0.17521912
196	0x3d047073	0.032333802
197	0xbde812b3	-0.113316916
198	0x3dba5ce6	0.0909975
199	0xbe2bfbb2	-0.16795233
200	0xbc9f5191	-0.019448074
201	0x3d2cde8d	0.04220443
202	0xbd84f866	-0.06492691
203	0x3d0b4a42	0.034006365
204	0x3d557370	0.052112043
205	0xbc0cbe50	-0.008590296
206	0xbd517ea0	-0.05114615
207	0xbe08f271	-0.13373734
208	0x3ddde42e	0.108345374
209	0xbd698f14	-0.057021216
210	0x3d135b04	0.03597547
211	0xbdb00b6e	-0.0859593
212	0xbe00aef4	-0.1256674
213	0xbe1f33ce	-0.15547106
214	0x3d85a2df	0.06525206
215	0x3c2f1327	0.010685719
216	0x3d810e95	0.063016094
217	0xbe24e007	-0.16101085
218	0xbdda660c	-0.10663995
219	0x3d4b0498	0.049564928
220	0xbc8331c8	-0.016014948
221	0x3d8525e0	0.06501365
222	0x3d8734ae	0.06601845
223	0xbda6f91c	-0.081529826
224	0xbdd2f952	-0.1030146
225	0xbdc9e3aa	-0.098578766
226	0xbdde523c	-0.10855529
227	0xbe204f95	-0.15655358
228	0x3c8ea038	0.017410383
229	0xbdc79392	-0.09744944
230	0xbc7581c0	-0.014984548
231	0xbe7cd6ad	-0.24691267
232	0xbde3c754	-0.11122003
233	0xbe015f7b	-0.12634079
234	0xbcbf5f25	-0.023360798
235	0xbdc5eaaf	-0.09663903
236	0xbd28dd12	-0.041226454
237	0x3d54c3a8	0.051944405
238	0xbe0089f5	-0.12552626
239	0x3bef08f2	0.0072947675
240	0x3db93b56	0.090445206
241	0xbddf2967	-0.10896569
242	0x3cad02c8	0.02111949
243	0x3d0f2865	0.034950633
244	0x3db85f51	0.09002555
245	0xbe168d18	-0.1470226
246	0xba9496d8	-0.0011336459
247	0x3d06954b	0.03285722
248	0xbcd33bc1	-0.025785329
249	0x3d785cf0	0.060635507
250	0xbde6ec1a	-0.112755015
251	0xbdae7982	-0.085192695
252	0xbd9703ce	-0.073737726
253	0x3cc3bd19	0.02389388
254	0x3deeaf1e	0.11654495
255	0xbd75e52a	-0.060033

layers.4.bias f4 [64]
0	0x3d6534ee	0.05595868
1	0x3cfdd291	0.030984195
2	0x3ee838b8	0.45355773
3	0xbe8eb474	-0.2787205
4	0x3dc3fe8e	0.09570037
5	0x3d4d2278	0.0500817
6	0x402ed50f	2.731754
7	0x3c592305	0.013252978
8	0xbcf5f998	-0.030026242
9	0xbdf0fa0d	-0.117664434
10	0xbd61a2bb	-0.055086832
11	0x3ee61c4a	0.44943458
12	0x3e2857c9	0.16439737
13	0xbd8bce86	-0.068265006
14	0xbe282aa9	-0.16422524
15	0x3f0b4643	0.54404086
16	0xbe5d2482	-0.21595958
17	0xbd7e18ac	-0.062035248
18	0xbd62d47c	-0.055378422
19	0x3e3b91cc	0.18317336
20	0xbbb5f13a	-0.005552438
21	0x3ba6510e	0.0050755804
22	0x3c136357	0.008995852
23	0x3eab4093	0.33447704
24	0xbd29dda2	-0.04147113
25	0xba65cd58	-0.00087662553
26	0x3f4156e2	0.755232
27	0x3d4a6370	0.049411237
28	0xbddcc203	-0.10779192
29	0x3cf098de	0.029369768
30	0x3bd2c9ce	0.0064327484
31	0xbe7d9340	-0.24763203
32	0x3f0b50ce	0.54420173
33	0xbdd26b26	-0.10274343
34	0xbe459025	-0.19293268
35	0xbdcda40d	-0.10041056
36	0xbe7133a1	-0.23554851
37	0x3d0f5d58	0.03500113
38	0xbdc4c8d1	-0.09608615
39	0x3d35b841	0.04436517
40	0xbd99d81a	-0.07511921
41	0x3ebfb626	0.37443656
42	0xbd0fd854	-0.035118416
43	0xbe885be1	-0.26632598
44	0xbc529a5a	-0.012854183
45	0xbe8aa87e	-0.27081674
46	0x3ef42ba2	0.4768954
47	0x3d0682a2	0.032839425
48	0x3f3d44ba	0.73932993
49	0xbcc5ee27	-0.024161411
50	0x3f5e4501	0.8682404
51	0xbe1ed0c0	-0.1550932
52	0x3f05fd9b	0.52340096
53	0x3e805e2a	0.2507184
54	0x3a87c080	0.0010357052
55	0x3b5b4f5f	0.0033464057
56	0xbc39434d	-0.01130755
57	0x408d7257	4.4202075
58	0x3cfc0f96	0.03076915
59	0xbe912c7c	-0.2835425
60	0xbe2e8927	-0.17044507
61	0x3fda3752	1.7048132
62	0x3e72d792	0.23715046
63	0xbdb28120	-0.08716035

layers.6.weight f4 [64, 64]
0	0xbd9c0116	-0.076173946
1	0xbd57ff84	-0.052733913
2	0x3c22c958	0.009935699
3	0x3d855e88	0.06512171
4	0xbdcd924b	-0.10037669
5	0x3d1a63a4	0.03769268
6	0xbd7d95c0	-0.06191039
7	0x3d9f504e	0.07778989
8	0xbd931570	-0.07181823
9	0xbdc4c824	-0.09608486
10	0xbe10a5b3	-0.14125709
11	0xbdf44f91	-0.119292386
12	0x3d2f5fcd	0.042815972
13	0x3da7c0b6	0.081910536
14	0x3daf0bda	0.085471824
15	0x3c8c8487	0.017153038
16	0x3da7e9eb	0.08198913
17	0xbd857b18	-0.06517619
18	0xbdcc4714	-0.099744946
19	0xbd516d27	-0.051129486
20	0xbe0bf712	-0.13668469
21	0x3bc632ee	0.0060485518
22	0xbe0dff2a	-0.13866869
23	0x3dda7f20	0.106687784
24	0xbcf88b40	-0.030339837
25	0xbdb942c1	-0.090459354
26	0x3c3fe256	0.011711678
27	0xbd64f90f	-0.055901583
28	0x3d7452c9	0.059649263
29	0x3db178d3	0.086656235
30	0xbd1a0644	-0.03760363
31	0x3de29438	0.11063427
32	0xbc65e5e0	-0.014031857
33	0x3c3901a6	0.011291897
34	0xbc1dce46	-0.009631699
35	0xbd250020	-0.040283322
36	0xbc75ce50	-0.015002802
37	0x3bce87a0	0.006302789
38	0xbcb2cbe0	-0.02182573
39	0x3d93a00b	0.0720826
40	0xbdd17cdc	-0.10228893
41	0xbdf1f12a	-0.118135765
42	0x3d5e69c6	0.054300092
43	0x3c1b38c0	0.0094739795
44	0x3d8690ad	0.065705635
45	0x3dd12c00	0.102134705
46	0xbe00f3dc	-0.12593025
47	0x3d97ab31	0.07405699
48	0xbe12bb63	-0.14329295
49	0x3daabf6b	0.08337291
50	0xbdf17e6b	-0.117916904
51	0xbccbde14	-0.024886169
52	0x3cbddd2d	0.023176754
53	0xbd42bc70	-0.04754299
54	0xbd2ad99c	-0.041711435
55	0xbd163fcd	-0.03668194
56	0xbdd89c09	-0.10576636
57	0xbcde4f22	-0.027137343
58	0xbda24978	-0.07924169
59	0x3de043e8	0.10950452
60	0xbdd2a0e0	-0.10284591
61	0xbd926af8	-0.07149309
62	0xbe1b546a	-0.1516892
63	0x3d18c534	0.037297443
64	0xbde8dfef	-0.11370837
65	0x3cd18b7d	0.025579209
66	0xbddbae3f	-0.10726594
67	0x3da681bd	0.08130214
68	0x3b5e7157	0.0033942068
69	0x3d83c130	0.06433332
70	0xbdbf356a	-0.0933636
71	0x3d760970	0.060067594
72	0x3ddae27c	0.1068773
73	0x3de72256	0.11285846
74	0xbcc364a3	-0.023851698
75	0xbde1a3a3	-0.11017539
76	0xbbeb6c78	-0.0071845613
77	0xbd6799e8	-0.05654326
78	0x3dfc51a8	0.12320262
79	0xbd932fa2	-0.071868196
80	0x3db946ae	0.09046684
81	0xbd9a0aea	-0.07521613
82	0xbd2b1510	-0.041768134
83	0xbd570836	-0.052498065
84	0x3b3f1b15	0.002916043
85	0xbd893852	-0.06700195
86	0x3dd606c0	0.10450506
87	0xbe962c5a	-0.29330713
88	0x3d3173c8	0.04332331
89	0xbdf99948	-0.12187439
90	0xbe8f623e	-0.2800464
91	0x3de5ec1a	0.112266734
92	0xbdc1afd6	-0.09457366
93	0x3d9962f6	0.074895784
94	0xbd50227c	-0.050814137
95	0x3d19a4f4	0.037510827
96	0xbe3c653c	-0.18397993
97	0x3dba960a	0.09110649
98	0x3c779470	0.015111074
99	0xbd23329c	-0.039843187
100	0x3d6c5c04	0.05770494
101	0xbc93bc7d	-0.018034214
102	0xbdbbae11	-0.0916406
103	0xbd587eb0	-0.052855194
104	0x3d3b50fc	0.04573153
105	0x3cb6283e	0.022235986
106	0x3bf34800	0.0074243546
107	0x3d874f90	0.06606972
108	0x3da271e4	0.07931879
109	0xbd240c70	-0.040050924
110	0xbe5c0bfd	-0.21488948
111	0x3c2d72ac	0.010586422
112	0xbe55e55b	-0.20888273
113	0x3dd67014	0.10470596
114	0xbde20f3d	-0.11038063
115	0xbdbecf51	-0.09316886
116	0xbe8a379c	-0.26995552
117	0xbdeb0c4d	-0.114769556
118	0xbd67c510	-0.056584418
119	0x3c9dd9b0	0.01926884
120	0x3dba4a16	0.09096162
121	0xbe2f6e28	-0.17131865
122	0x3dc19945	0.09453062
123	0xbdeffcbc	-0.11718127
124	0x3d48d71d	0.049033273
125	0xbdff119a	-0.12454529
126	0xbdac0d9e	-0.08401035
127	0xbdd024c2	-0.10163261
128	0xbc9d7e08	-0.019225135
129	0x3dc01096	0.093781635
130	0x3cfdcee6	0.030982446
131	0xbc1c1740	-0.009527028
132	0xbd7546cd	-0.059881974
133	0xbe04a26f	-0.12952588
134	0x3d9d0f6a	0.076689556
135	0x3da1129e	0.07864879
136	0x3d470c44	0.04859568
137	0x3db38ba2	0.08766867
138	0xbd806076	-0.062683985
139	0xbd2379d7	-0.039911117
140	0x3d7a23a3	0.061069142
141	0x3d0fc050	0.035095513
142	0x3dd69ce2	0.10479142
143	0xbdf5b4ff	-0.11997413
144	0x3c8a994f	0.016918806
145	0x3b544ac0	0.0032393187
146	0xbdc35778	-0.09538168
147	0xbe06bbc3	-0.13157563
148	0x3d891a82	0.06694509
149	0xbdeba38d	-0.11505804
150	0x3d8bf52f	0.068338744
151	0xbc824d10	-0.015905887
152	0xbddc1d7a	-0.1074781
153	0xbd8e23cb	-0.06940421
154	0xbd4c3767	-0.049857523
155	0xbca7c303	-0.020478731
156	0xbdeec275	-0.116581835
157	0xbe0de579	-0.13857068
158	0x3db83149	0.089937754
159	0xbddb67c8	-0.10713154
160	0x3d8c24f8	0.06842989
161	0xbe15ef97	-0.14642178
162	0xbddfde88	-0.10931116
163	0xbde99b80	-0.114066124
164	0xbdf83f3e	-0.121214375
165	0x3d4a8284	0.049440876
166	0xbde236c2	-0.110456005
167	0xbd19cda3	-0.037549626
168	0xbd96ff2f	-0.07372891
169	0xbde9e1ab	-0.11419996
170	0x3b5d84e9	0.0033801144
171	0xbd5f88ec	-0.05457394
172	0x3d049327	0.032366898
173	0x3d3a5394	0.045489863
174	0xbd9f5f86	-0.077818915
175	0xbba8c6c9	-0.00515065
176	0xbe0b0723	-0.13576941
177	0xbcddbbe1	-0.027067127
178	0xbe0c67e5	-0.13711508
179	0x3d6eaed1	0.058272187
180	0xbd8f18b3	-0.06987133
181	0xbd1bfae6	-0.038081072
182	0xbcb3c730	-0.021945566
183	0xbcdbd902	-0.026836876
184	0xbdb63914	-0.088976055
185	0xbda05470	-0.07828605
186	0xbc8172c1	-0.01580179
187	0x3d9435aa	0.07236798
188	0x3db794e8	0.089639485
189	0xbd29546a	-0.04134027
190	0x3cce522e	0.02518567
191	0x3d7b0cd8	0.061291546
192	0x3d4301c9	0.047609124
193	0xbc3d142f	-0.011540457
194	0xbd850da9	-0.06496746
195	0xbd2a70be	-0.041611426
196	0x3cb72f96	0.022361558
197	0x3e0bcf01	0.13653184
198	0xbe89dd21	-0.2692652
199	0x3da75945	0.08171324
200	0xbc63d71a	-0.013906265
201	0xbdb986dc	-0.090589255
202	0xbe06ca0b	-0.13163011
203	0x3d816c7e	0.06319521
204	0xbdbc7438	-0.092018545
205	0x3d8d2898	0.06892508
206	0xbd38f2a4	-0.045153275
207	0xbdb13382	-0.086524025
208	0x3d444dda	0.047925808
209	0x3c4fc360	0.012680858
210	0xbd949aa8	-0.07256061
211	0xbde8de8e	-0.11370574
212	0xbe51d58b	-0.20491616
213	0xbc178a42	-0.009249272
214	0xbd3a927c	-0.045549855
215	0x3d5c3107	0.053757694
216	0xbd8e24db	-0.069406234
217	0x3e126a1d	0.14298292
218	0xbe20d936	-0.1570786
219	0x3d398790	0.045295298
220	0x3d4841c5	0.048890848
221	0x3d01ca6f	0.031687196
222	0x3c0fee7e	0.008784888
223	0xbdcd9f64	-0.10040167
224	0xbdceefa4	-0.101043016
225	0x3da919e0	0.082568884
226	0x3d28134b	0.041034024
227	0xbdea6963	-0.11445882
228	0xbcb8eea8	-0.022574738
229	0xbda75e70	-0.081723094
230	0x3de8586f	0.11344992
231	0xbda7b7ed	-0.08189378
232	0xbb82bc13	-0.0039897054
233	0x3dae332c	0.08505854
234	0xbdb472b9	-0.08810944
235	0x3dd284ba	0.10279222
236	0x3c6bbf3d	0.0143888565
237	0xbdf3a700	-0.11897087
238	0xbde3bbe4	-0.11119822
239	0xbd7415fe	-0.059591286
240	0xbdfb58ba	-0.122727826
241	0xbda272e8	-0.07932073
242	0xbd10c088	-0.035339862
243	0x3e008750	0.12551618
244	0x3d7879ad	0.060662914
245	0x3c8b33ac	0.016992413
246	0xbd7e7858	-0.062126487
247	0x3d4192bd	0.04725908
248	0xbc9b7d05	-0.018980512
249	0xbe1ee8eb	-0.15518539
250	0xbce914a2	-0.028452221
251	0xbd869dd2	-0.065730706
252	0x3da10de8	0.078639805
253	0xbd75f775	-0.060050447
254	0x3d7ed4ef	0.062214788
255	0xbd69d1f0	-0.057084978

layers.6.bias f4 [64]
0	0xbca115ed	-0.019663775
1	0xbe8da08e	-0.27661556
2	0x3cfd77a6	0.030940842
3	0x3f684305	0.90727264
4	0x3f075c4a	0.52875197
5	0x40bbf8e8	5.874134
6	0x40bb3b80	5.851013
7	0xbe0db912	-0.1384013
8	0xbb5adb4c	-0.0033394871
9	0x40b29009	5.5800824
10	0x3c85d9c6	0.016339194
11	0xbe616d06	-0.22014245
12	0x3dec9c3d	0.115532376
13	0xbdab7770	-0.0837239
14	0xbc49f8ac	-0.012327354
15	0xbd6ea03a	-0.058258273
16	0xbdf8fbd2	-0.12157406
17	0xbe513206	-0.20429239
18	0x3d913791	0.070906766
19	0x3dae2b4d	0.08504353
20	0x3cad8824	0.021183081
21	0x3c4464d8	0.011986934
22	0xbde30e17	-0.11086672
23	0x3e148bef	0.14506505
24	0x3e60679c	0.21914524
25	0x3f9b9bc9	1.2156917
26	0x3d95f4e4	0.073221
27	0x3fb0612f	1.3779658
28	0x3d19cef5	0.037550885
29	0x3dd7498b	0.10512074
30	0xbc395e98	-0.011314057
31	0xbdb3fa8e	-0.08788024
32	0xbdfac1fa	-0.12244029
33	0x3d67d036	0.05659505
34	0x401120cf	2.2676275
35	0x3fefa7ac	1.8723044
36	0xbe8aa2ee	-0.2707743
37	0xbe11e0dd	-0.14245935
38	0x3f261215	0.6487134
39	0x3d4d502e	0.050125293
40	0x3fe3034c	1.7735381
41	0xbe0964de	-0.13417384
42	0xbdd97324	-0.106176645
43	0x3d9455f8	0.0724296
44	0x40afa444	5.488802
45	0xbc5cf7c0	-0.013486803
46	0x3d8be890	0.06831467
47	0xbd481414	-0.048847273
48	0x3ec4bcaa	0.3842519
49	0xbd96de6c	-0.07366642
50	0xbdcb0074	-0.09912196
51	0xbdde8ef5	-0.10867111
52	0x3d770664	0.06030883
53	0xbdc1ad0e	-0.09456836
54	0xbea20e60	-0.31651592
55	0x3f728628	0.94735956
56	0x3d326c0b	0.04356007
57	0xbdc2d34f	-0.0951296
58	0x3d97e399	0.07416458
59	0x3eb0ce47	0.34532377
60	0xbdd07fc6	-0.10180621
61	0xbe8c6e72	-0.27428013
62	0xbe9a99f0	-0.3019557
63	0xbe745710	-0.23861337

layers.8.weight f4 [1, 64]
0	0x3d987411	0.07444013
1	0xbe061b99	-0.13096465
2	0xbcb54ac5	-0.02213038
3	0xbdc26374	-0.094916254
4	0x398e4481	0.0002713539
5	0xbf137256	-0.5759634
6	0xbf27389b	-0.6532075
7	0x3e21ee5d	0.15813585
8	0x3d802071	0.06256188
9	0xbebf7b18	-0.373986
10	0x37940f7d	1.7650187e-05
11	0xbe3eb64a	-0.18624225
12	0x3d5c2ade	0.05375182
13	0xbc167f10	-0.0091855675
14	0x3db09adc	0.08623287
15	0x3e148e67	0.14507447
16	0x3d19d02d	0.037552048
17	0xbd8fd8bd	-0.070237614
18	0x3cd5fe2b	0.026122173
19	0x3c5efad6	0.013609609
20	0xbe228fcf	-0.15875171
21	0x3cb3434c	0.021882676
22	0xbdf1ac4c	-0.11800441
23	0x3d90592c	0.07048258
24	0xbe0470d9	-0.12933673
25	0x3e200b28	0.15629256
26	0x3cf4da98	0.02988939
27	0x3e0ec4fc	0.13942331
28	0x3c9bbd65	0.019011209
29	0x3e129a63	0.14316706
30	0x3d13b7c1	0.036063913
31	0x3d139ecd	0.036040116
32	0xbd085b58	-0.033290237
33	0xbe227eb9	-0.15868653
34	0xbd9742a8	-0.073857605
35	0xbda6fb22	-0.081533685
36	0xbe460502	-0.19337848
37	0x3cd1c4e9	0.02560659
38	0x3bc1fa34	0.005919719
39	0x3d8f730f	0.070043676
40	0xbd16d500	-0.036824226
41	0xbc9a644e	-0.018846657
42	0xbe0b7fb7	-0.13622938
43	0x3bc0c948	0.0058833696
44	0xbeb08970	-0.34479856
45	0x3c2bd140	0.010486901
46	0x3ca60771	0.02026722
47	0xbc7f3a10	-0.015577808
48	0xbd020e54	-0.031751946
49	0xbdf6e14e	-0.12054692
50	0x3da09339	0.078405805
51	0x3db065d1	0.0861317
52	0x3c045ee6	0.008079266
53	0xbd18923c	-0.037248835
54	0xbdcdd8e3	-0.100511335
55	0x39d429ab	0.00040466836
56	0x3d995352	0.07486595
57	0xbdd0294f	-0.10164129
58	0x3d8eec6e	0.06978689
59	0x3986b34f	0.00025692067
60	0xbd057d1f	-0.032590028
61	0xbd0f1d05	-0.034939785
62	0xbe1f3540	-0.15547657
63	0xbc1b2f30	-0.0094717
