GraphClustering/LargeGraphs/Data/Karate_100_500_10000_o_Forward0.pt (torch, 298095 bytes, 3 tensors)

layers.0.weight f4 [32, 2312]
00000000: a838 64bb 2ac9 a83e 54d3 a93e 8e8a ad3e
00000010: 7ab8 af3e ecb1 ae3e 40ab ac3e b8ad af3e
00000020: a4fb a93e c743 8bbc aa21 af3e fed0 ad3e
00000030: 64ae b93e 2acf af3e 5112 8ebc c28b 7b3c
00000040: 8b7a eab8 aefc b13e 4a40 8ebb 7073 bb3e
00000050: 3906 f43a a833 ac3e cb7f 87bc bc6b 963c
00000060: 25a1 9dbc 5c55 24ba b268 de3b ca6d ee39
00000070: c729 3cbb 4fbe 38bc ea71 923c 2075 a63e
00000080: 2f63 b83b bc5e 94bc 841c b83e d38e 76bc
00000090: 3a62 ab3e fc5a a93e 7299 ce3b 4e97 d1bb
000000a0: 6a90 8f3a e8a5 af3e 6715 02ba 4a33 973c
000000b0: 5b12 59bb c908 933c 2633 1fbc 6263 a83e
000000c0: 40b5 79bc 3f6e 903c 686e dcbb fe1e b93e
000000d0: 63c1 8dbb ec3b b53e 9cae 52bc 527a a83e
000000e0: 9e3e 3c3c 16b9 91bc 0c21 92bc 7ced 223c
000000f0: ecc4 7cbb 04a7 e93b 3e03 afbb 8780 5ebc
00000100: b6f7 b63e beff 70bc 8278 4dbc 7dbf 423c
00000110: c4e6 ab3e 0a87 af3e 6545 86bc d01c bb3e
00000120: f2d6 3fbc dc78 14bb 817a 243b a608 ba3e
00000130: b88d b83e 4e89 a73e c857 163c 23a3 3ebb
00000140: cb47 8dbc 5e33 a73e 20ac 993c 0bb5 4e3c
00000150: 997a bfbb b1e8 a1bc 85e0 693b 0ef9 883c
00000160: 7d70 1e3c 7b36 953c 8800 993c 1bb4 12bb
00000170: 06df 71bc 9571 2c3c db53 923a 58ef b73e
00000180: fc08 ac3e 50f1 30bc 09de 81bc 45b8 ea3b
00000190: 889e ae3e 4447 d63a 2a02 b03e 36e7 b13e
000001a0: 2a7f b73e 89a6 633b 6a7a dbbb 17d6 6c3c
000001b0: 70e2 8639 aa60 b13e 6b78 b53a 4b84 873c
000001c0: 4da5 56bc cc06 f23b 9af6 a63e f2a6 b03e
000001d0: 32e8 9cbc 3a9b cf3a cd7a 13bc 2f0c 9e3c
000001e0: 19e6 a93b 7158 33bc ea0c c8bb 7cd2 36bc
000001f0: 9b54 913c 9921 42bc 1465 953a 3486 85bc
00000200: 6d91 50bc 93c1 903b 4230 8cbc e99e 8fbc
00000210: e45b 87bc 7796 89bb 591a 11bc 2e9b 863c
00000220: d85c b53e f76f 97bc df3e eeba cd8d 9ebc
00000230: 4450 2cbc fd88 9a3c 30e0 ab3e b9d1 853c
00000240: 92b8 103a 024e 6dbc 9613 a93e c8c8 e43b
00000250: 2d61 173c 78dc 2c3c bba9 563c 0a6d a0bc
00000260: 2e04 483a ad89 f53b cda8 9d3c ceb0 14bc
00000270: 3b68 a6bc 4d35 3f3b eb60 3bbc 0caf 06bc
00000280: e55f 9c3a 3bc5 42bc ac81 a6bc 4386 8339
00000290: 63ae a0bc 24c8 833c a81d 65bc 449c 293b
000002a0: 317c 553c 6c9b a7bc 26a7 b23e f3bc 573c
000002b0: 2241 21bc 979e a23c c426 50bc af3a 873c
000002c0: 328c b43e 6320 77bb 56db a13c 30ec 3b3c
000002d0: aefb b63e d426 733c 2fde 753c 34e9 4e3c
000002e0: 58cb babb bf6e 25bc d270 b13e fd19 10bc
000002f0: 7d1b 6c3c a306 903c 33ab 1ebc f62a 26bb
00000300: d1a8 3ebc cea9 a33c 7903 a3bc 9bf1 4e3b
00000310: 678f fa38 645e 53bb 72a6 86bc d00b 4a3c
00000320: dd5e a8bc b20a 8ebc bbf7 793c 74ef 59bc
00000330: 6c84 b83e fda5 aebb d091 a5bb 2070 4a3c
00000340: 12c0 b83e 3cc8 ae3e ac12 213c 6740 543c
00000350: b498 a6bc dd50 8b3b 1ed6 87bc d69d 7a3b
00000360: 32b8 7abc 4019 2dbc aa3a a93b a2b1 2b3c
00000370: 06b6 b13e ee31 133b 52a6 21bc 2426 783c
00000380: b035 0fbc 5535 ea3b 436c f6bb 3b71 803c
00000390: fcf4 c638 9389 66bc fa2c a13c 19a0 a8bc
000003a0: ed67 9ebc 99f5 cbbb fe87 3f3c 949d a03c
000003b0: a4a2 5c3c 4a69 c3bb 365f b63e 6ea7 a83e
000003c0: a8c4 b23e b682 b13e e1bb 013c 4096 9d3b
000003d0: e570 eaba a458 84bc 3b42 983c 0e5d c73a
000003e0: 321d 72bc 99b6 4fba 5a01 2abc daf9 2e3c
000003f0: dfee 9e3c eb13 103c b8d2 99bc 5482 e3bb
-0.0034823809 0.32965976 0.33169043 0.3389477 0.34320432 0.3412012 0.33724403 0.34312224
0.331998 -0.017000092 0.3420537 0.3394851 0.36265862 0.3433774 -0.017342718 0.015353145
-0.00011180815 0.34763092 -0.00434116 0.3661151 0.0018617577 0.3363316 -0.016540429 0.018361919
-0.019241879 -0.0006268823 0.006787383 0.00045476697 -0.0028711425 -0.011275842 0.017876584 0.32511234
0.005627058 -0.01811158 0.35959256 -0.0150487 0.33473378 0.33077228 0.006304913 -0.0063962108
0.0010953073 0.34306264 -0.00049622956 0.018457074 -0.0033122513 0.017948525 -0.009716785 0.32888323
-0.015240967 0.017630694 -0.0067270286 0.36156458 -0.004326032 0.3539728 -0.012859013 0.32905823
0.0114895385 -0.017788451 -0.017838024 0.009944316 -0.0038569523 0.0071305055 -0.0053409627 -0.013580448
0.35735863 -0.014709411 -0.012540938 0.011886475 0.33574498 0.34282714 -0.016390512 0.3654542
-0.011708962 -0.0022655046 0.0025097432 0.36334723 0.36045623 0.32721943 0.009176202 -0.0029088936
-0.017246148 0.32656378 0.018758833 0.012616406 -0.005843472 -0.019764276 0.0035686803 0.016720321
0.009670374 0.018214455 0.018677011 -0.0022385183 -0.014762646 0.010525127 0.0011163907 0.35924792
0.33600605 -0.010799721 -0.015852945 0.00716308 0.34105325 0.0016348143 0.3437665 0.34746712
0.35839206 0.0034736714 -0.0066979425 0.01445534 0.0002572718 0.3464406 0.0013845091 0.016542574
-0.013100934 0.007386064 0.32610017 0.3450237 -0.019153688 0.0015839108 -0.009001446 0.019292919
0.0051849005 -0.010946379 -0.006105055 -0.011158582 0.017740538 -0.011848831 0.0011397921 -0.016299345
-0.012729985 0.004417607 -0.017112855 -0.017531829 -0.016523309 -0.004198845 -0.008856379 0.016431417
0.35422397 -0.018486006 -0.0018176696 -0.019354725 -0.010517184 0.01886415 0.3356948 0.016335355
0.0005520667 -0.014483931 0.33022755 0.006981943 0.009239477 0.010550611 0.01310199 -0.019583244
0.00076300174 0.007493219 0.01924553 -0.009075357 -0.020313373 0.0029176057 -0.011436681 -0.008220445
0.0011930434 -0.011887844 -0.020325504 0.000250863 -0.019614404 0.016086645 -0.013984121 0.0025880495
0.013030098 -0.020459853 0.3489315 0.013167608 -0.009842189 0.019851012 -0.012704555 0.016507475
0.3526321 -0.0037708513 0.019757908 0.011469886 0.3573889 0.0148408 0.015006586 0.012628842
-0.00570051 -0.010097205 0.34656388 -0.008795259 0.014410851 0.01758129 -0.009684372 -0.0025355197
-0.011636929 0.01997843 -0.019899117 0.0031577114 0.0001194764 -0.0032252306 -0.01643679 0.012331918
-0.020553047 -0.017339084 0.015256817 -0.013301719 0.3603853 -0.005329846 -0.0050527826 0.012355834
0.36084038 0.34137142 0.009831112 0.012954808 -0.020336486 0.004251583 -0.016581591 0.003824105
-0.015302705 -0.010565102 0.005164464 0.010479363 0.34709185 0.002246018 -0.009866314 0.015145812
-0.008740827 0.007147471 -0.00752023 0.015678992 9.4870076e-05 -0.014070886 0.019674767 -0.020584153
-0.019336665 -0.006224346 0.011690138 0.01960639 0.013466511 -0.005963479 0.35619515 0.3294024
0.34915662 0.34670037 0.007918329 0.004809171 -0.0017886428 -0.016155548 0.018586269 0.0015210228
-0.0147774685 -0.00079236325 -0.010376299 0.010679686 0.019401012 0.008793811 -0.018777236 -0.0069430266

layers.0.bias f4 [32]
00000000: acfe ba3e b9e8 ba3f b7e3 e8bc eebc 2dbd
00000010: 94e8 28bd bca5 fabe 32e3 36bd b5dd ad3f
00000020: adda c63f 2cdb 5dbc 77a6 04bd c502 1c3f
00000030: 6ee7 e9bc c91a 26bc 9bca 4bbd 60de 6bbc
00000040: 75e6 933f d749 6b3f d928 c4bc bd94 a2bc
00000050: 3228 2bbd 95c8 953f 4c11 f23e e3f8 8e3f
00000060: f095 aa3e 26c3 ef3e 922c 28bd 9a71 68bc
00000070: 56e0 28bd 2eb6 683e 0cbf 05bd 2aaf c83e
0.36522424 1.4602271 -0.028428895 -0.042416506 -0.04123743 -0.4895457 -0.044650264 1.3583285
1.5535485 -0.013541024 -0.032385316 0.60941726 -0.028552737 -0.010138222 -0.049753767 -0.01439628
1.1554705 0.91909546 -0.023945259 -0.019846315 -0.04178638 1.1701838 0.4727882 1.1169704
0.33317518 0.46828574 -0.04105813 -0.014187241 -0.04122957 0.22725746 -0.0326529 0.3919614

layers.2.weight f4 [1, 32]
00000000: 95ff 1d3f 0c13 f6be 6c5c f3bb c42d 013d
00000010: d3de 313d afcd a0be dba5 833d 3d12 d8be
00000020: 7349 11bf b1f6 3138 c281 5dbc 97d4 abbe
00000030: e1d2 8c3d 520b 003e 52c7 903c e3e7 953d
00000040: 7a21 85be b152 febd ac40 693d 8136 b8bc
00000050: 423e 9c3d 52db 8dbe e46b 1bbf b4d3 6abe
00000060: 3277 2bbf 3c5b 193c 6299 213d 872b e43d
00000070: d3a5 0c3e fd8a a0bc 91c5 45bc 2398 93be
0.6171811 -0.48061407 -0.007426789 0.031537786 0.043425392 -0.31406924 0.06428119 -0.42201415
-0.567527 4.2429838e-05 -0.013519706 -0.3356063 0.068761595 0.12504318 0.017673168 0.073196195
-0.26002103 -0.12418116 0.05694644 -0.022486927 0.07629062 -0.2770639 -0.60711503 -0.22932321
-0.6697875 0.009360131 0.039452918 0.11141115 0.13735132 -0.019597525 -0.012071029 -0.2882701
