GraphClustering/LargeGraphs/Data/Karate_0_500_1000_o_Forward60.pt (torch, 298083 bytes, 3 tensors)

layers.0.weight f4 [32, 2312]
0	0xbc3e04ef	-0.011597856
1	0x3ee98c74	0.4561497
2	0x3ef2521c	0.4732827
3	0x3efbd5fe	0.491867
4	0x3eefa8fc	0.46808612
5	0x3eebce3e	0.46055788
6	0x3eea08d8	0.45709872
7	0x3ef8ec06	0.48617572
8	0x3eeffcfc	0.468727
9	0x3af77f83	0.0018882606
10	0x3ef42180	0.47681808
11	0x3ef42634	0.47685397
12	0x3ef59b52	0.47970062
13	0x3ef2ca4e	0.4741997
14	0x3b5214c1	0.0032055827
15	0x3b5b296e	0.0033441442
16	0x3bbf6fa3	0.0058421656
17	0x3ee89e4a	0.45433265
18	0xbc884528	-0.016634539
19	0x3eea5c20	0.4577341
20	0xbbd13160	-0.00638406
21	0x3ef0ec74	0.470554
22	0x3c0745e1	0.0082564065
23	0x3c07c85f	0.008287518
24	0xbc011795	-0.007879158
25	0x3c769a99	0.015051507
26	0x3c57477f	0.013139605
27	0x3b6f775f	0.0036539657
28	0x3c9f6ba7	0.019460512
29	0x3c0299ff	0.007971286
30	0x3c158b05	0.009127383
31	0x3ef55b70	0.47921324
32	0xbc0d9b49	-0.00864298
33	0x3c91dd50	0.017805725
34	0x3ef03884	0.46918118
35	0x3c0e5e0d	0.008689416
36	0x3ef3eeb4	0.47643054
37	0x3ef665f6	0.48124665
38	0xbc96c718	-0.018405482
39	0x3bbdb6d1	0.0057896157
40	0xbbfc113c	-0.007692484
41	0x3ef62a70	0.48079252
42	0xbae24605	-0.0017263299
43	0x3c808fd1	0.015693577
44	0x3c2cf913	0.010557431
45	0x3c2e68f3	0.010645139
46	0x3b63f5a6	0.003478387
47	0x3efc8440	0.4931965
48	0xbc47b138	-0.012188248
49	0xbb9636cc	-0.004584169
50	0x3a82895e	0.0009959152
51	0x3ef6676a	0.48125774
52	0x3c91cb7d	0.017797226
53	0x3eec982a	0.46209842
54	0x3c68dae4	0.014212344
55	0x3eee8de0	0.46592617
56	0xbbea068f	-0.007141895
57	0xbbb962ae	-0.0056575155
58	0x39c7064a	0.00037960924
59	0xbc02c7b8	-0.007982187
60	0x3c3633e2	0.011120768
61	0x3add4f3a	0.0016884573
62	0xbca0f3e8	-0.019647554
63	0x3c64db9d	0.0139683755
64	0x3ef5b718	0.47991252
65	0x3bec63b7	0.0072140354
66	0x3c538ce7	0.012912012
67	0xbc025ccf	-0.007956698
68	0x3eeb54f8	0.45963264
69	0x3ef3d7a0	0.47625446
70	0x3b3c70a8	0.0028753672
71	0x3efc88dc	0.49323165
72	0x3c14c5a5	0.009080325
73	0x3c3125a9	0.010812202
74	0x3c0ae2a9	0.008476892
75	0x3ef180f4	0.47168696
76	0x3ef50622	0.4785624
77	0x3eebd156	0.46058148
78	0x3b83f4bd	0.004026978
79	0x3c0cbee3	0.008590433
80	0xbba16a52	-0.0049260044
81	0x3efaf718	0.49016643
82	0x3bfd45f8	0.007729288
83	0xbc8c6fa5	-0.01714308
84	0xbc9ca58d	-0.01912191
85	0x3c93eccc	0.01805725
86	0xbc22273f	-0.009897052
87	0xbc8d8aae	-0.017278042
88	0x3c14196f	0.009039267
89	0xbc1dd40d	-0.009633076
90	0xbc8e054e	-0.017336514
91	0x3ca0ca4d	0.019627715
92	0x3c26077b	0.010133619
93	0x3c1d710b	0.009609471
94	0xbbf8373c	-0.007574944
95	0x3ee87e56	0.45408887
96	0x3ef291f4	0.47376978
97	0x3c85c2b8	0.0163282
98	0xbc9b625c	-0.0189678
99	0xbc9b2f98	-0.018943593
100	0x3eeb4cc4	0.45957005
101	0x3c1f4852	0.009721832
102	0x3ef0ddd4	0.4704424
103	0x3ef7f1fa	0.484268
104	0x3eeba0ac	0.4602102
105	0xbca41842	-0.020031098
106	0x3c28e22c	0.01030783
107	0xbbffade1	-0.0078027104
108	0xbb89f9fb	-0.004210708
109	0x3ee97246	0.45594996
110	0xbc3592b7	-0.011082343
111	0x3ca5c822	0.020237032
112	0xbc1e585d	-0.009664622
113	0xbc6d637e	-0.014489053
114	0x3ef012ea	0.4688943
115	0x3ef90176	0.48633927
116	0x3c4a1c38	0.012335829
117	0xbca7ef54	-0.020499863
118	0x3bcebb9d	0.0063089863
119	0xbc9d5d9f	-0.019209681
120	0xbc96d8f5	-0.018414
121	0x3bcf2eb0	0.0063227043
122	0xbbe83966	-0.0070869206
123	0x3c8d9c0d	0.017286325
124	0x3bc25b27	0.0059312764
125	0x3c6b1009	0.014347085
126	0x3c96c1ad	0.018402899
127	0x3c7f7b80	0.01559341
128	0x3beb73e7	0.0071854475
129	0x3c8f6ee3	0.01750893
130	0xbc0db777	-0.008649698
131	0xbc7080a9	-0.0146791125
132	0xbc7d2c9b	-0.015452529
133	0xbc5ca17c	-0.013466235
134	0x3b2400ac	0.0025024815
135	0xbbe7fb82	-0.0070795426
136	0x3ee8ecba	0.45493108
137	0xbc869dc9	-0.01643266
138	0x3c83e693	0.016101157
139	0xba8ddfea	-0.0010824178
140	0x3b83609e	0.0040093204
141	0x3c72831f	0.0148017695
142	0x3efd92d8	0.49526095
143	0x3c5fe2a8	0.013664879
144	0x3c34167d	0.01099169
145	0xbbe1108f	-0.006868429
146	0x3ef4ecf6	0.47837037
147	0xbc15d2ed	-0.009144527
148	0x3c692f94	0.014232535
149	0x3b0bc2db	0.002132586
150	0x3c11ffde	0.008911101
151	0x3a11c1c6	0.00055601855
152	0x3c5655bb	0.013081963
153	0x3c7bd53c	0.015370663
154	0xbbbce818	-0.0057649724
155	0x3c4761f4	0.01216935
156	0x3bc4e3c7	0.0060085985
157	0x3c070ca5	0.008242761
158	0x3ca92149	0.020645754
159	0x3c842106	0.016129028
160	0xbca5db5b	-0.020246198
161	0xbc05c84d	-0.008165431
162	0xbc743f7d	-0.014907715
163	0x3ca92a88	0.020650163
164	0x3c5cd2e1	0.013478012
165	0xbc91f51d	-0.017817074
166	0xbc0fa372	-0.008766996
167	0x3c5eac1c	0.013590839
168	0x3b28650e	0.0025695
169	0xbc857d0d	-0.01629498
170	0x3efaa466	0.4895355
171	0x3c60c327	0.013718403
172	0xbc5c9b89	-0.013464817
173	0x3bd911f1	0.0066244532
174	0x3c98d499	0.018656062
175	0x3c908de3	0.017645782
176	0x3ef5c2fa	0.48000318
177	0x3c7e8c52	0.015536385
178	0x3949c3bd	0.00019241772
179	0x3af4e3ac	0.0018683574
180	0x3ef09d36	0.46994942
181	0xbc916d90	-0.017752439
182	0x3c661a10	0.0140443
183	0xbc06df8c	-0.008232009
184	0x3ca83e76	0.020537596
185	0x3c9f320f	0.01943305
186	0x3ef15214	0.47132933
187	0x3ca39656	0.019969147
188	0xbc1f7d2b	-0.009734432
189	0x3c899ead	0.016799295
190	0xbbf294d8	-0.0074029975
191	0xbc37483d	-0.011186657
192	0x3bcc4934	0.0062343124
193	0x3c4baa95	0.012430807
194	0x3b51b76a	0.0032000192
195	0x3c96707f	0.01836419
196	0xbb6abd58	-0.0035818424
197	0xbb9c9d44	-0.0047794897
198	0xbc4693b7	-0.012120179
199	0xbca1bc6b	-0.019743165
200	0xbc5e3f47	-0.013564891
201	0xbc586be5	-0.013209318
202	0x3c559aa0	0.013037354
203	0xbc4ca24f	-0.012489869
204	0x3efd0b3c	0.49422634
205	0xbc7f3bdc	-0.015578236
206	0xbc98faab	-0.018674215
207	0xbc0f0d3d	-0.008731184
208	0x3eea2600	0.45732117
209	0x3efb2baa	0.4905675
210	0xbbc7c09c	-0.006095959
211	0xb9a3dce7	-0.00031254368
212	0xbca3c5a3	-0.019991701
213	0xbc40683f	-0.011743604
214	0x3c185f6c	0.009300094
215	0xbc8cf6e5	-0.017207572
216	0x3c8fa992	0.017536912
217	0xbbcc25c9	-0.0062300903
218	0x3a99e4bf	0.0011741145
219	0xbc902cf2	-0.017599557
220	0x3eee64a0	0.46561146
221	0x3c88303d	0.016624564
222	0xbbdbe465	-0.0067105764
223	0x3c8159ba	0.015789855
224	0xbac43460	-0.0014969222
225	0xbca3b205	-0.019982347
226	0x3c5274d9	0.012845241
227	0x3abb7059	0.001430045
228	0xbc9eaca5	-0.019369433
229	0x3bcfaee7	0.0063379887
230	0x3c88f9b9	0.01672064
231	0x3b01b25e	0.0019790153
232	0xbc73586b	-0.014852623
233	0x3be990a8	0.00712784
234	0xbc65cd2f	-0.01402597
235	0xbc8a7891	-0.016903194
236	0x3ab2e0fc	0.0013647373
237	0x3c831408	0.016000763
238	0x3eee7c82	0.46579367
239	0x3eee8bf8	0.46591163
240	0x3ef80978	0.48444724
241	0x3efdad3a	0.49546224
242	0x3b8a84d3	0.0042272597
243	0xbca2cbc5	-0.019872556
244	0x3c891c53	0.016737139
245	0xbc37d202	-0.011219503
246	0x3c9e8017	0.019348187
247	0x3b91dcf5	0.004451389
248	0xbc948b5e	-0.018132862
249	0x3bb051c4	0.005380841
250	0x3a2c1894	0.0006564942
251	0x3c8a2fee	0.016868558
252	0x3b9ea513	0.0048414557
253	0xbb958301	-0.004562736
254	0xbc1628f5	-0.009165038
255	0xbc173187	-0.009228117

layers.0.bias f4 [32]
0	0x3ef95784	0.48699582
1	0x3eca9bda	0.3957203
2	0x3ec1a4a6	0.3782093
3	0x3ec5a692	0.38603646
4	0x3ec0c7d2	0.3765245
5	0x3ee18468	0.4404633
6	0x3ec8a291	0.39186528
7	0x3ee5ccdd	0.4488286
8	0x3ece87eb	0.40338072
9	0x3ec6b105	0.3880693
10	0xbd0eb2cb	-0.03483848
11	0xbcd31c59	-0.025770353
12	0x3ef5f4b2	0.4803825
13	0x3ec68ad8	0.38777804
14	0x3ec41f6b	0.3830522
15	0x3ee7139d	0.4513215
16	0xbcb82024	-0.022476263
17	0x3ec176dd	0.37785998
18	0x3ed392a8	0.41322827
19	0x3ed91b6c	0.42403734
20	0xbd26b38f	-0.040698584
21	0xbd1d766f	-0.038443025
22	0xbc9490de	-0.018135484
23	0xbce93e26	-0.028472017
24	0x3eca5f05	0.3952562
25	0x3edcca1b	0.43122944
26	0x3ed4c653	0.4155756
27	0x3ec5375c	0.38518798
28	0x3eba331b	0.36367115
29	0xbce9966b	-0.028514108
30	0x3efb5606	0.49089068
31	0xbcff3825	-0.031154701

layers.2.weight f4 [1, 32]
0	0xbe9058ff	-0.281929
1	0xbeb330dd	-0.34998217
2	0xbece50b5	-0.4029595
3	0xbeb96487	-0.3620951
4	0xbeb835fe	-0.35978693
5	0xbea07bc6	-0.31344432
6	0xbed5326f	-0.4164004
7	0xbe9e6f36	-0.30944222
8	0xbeb7a5f1	-0.3586879
9	0xbeb97d75	-0.3622853
10	0xbbc40250	-0.005981721
11	0xb9bcbf74	-0.00036000798
12	0xbe8ff8c6	-0.28119487
13	0xbec89961	-0.3917952
14	0xbeabd042	-0.33557326
15	0xbe91ba98	-0.28462672
16	0x3de25881	0.11052037
17	0xbea9c6e3	-0.3315955
18	0xbeacbe9b	-0.3373917
19	0xbe9ea7c4	-0.3098737
20	0x3d2ce576	0.04221102
21	0x3ddeb798	0.108748615
22	0x3e1318e1	0.1436496
23	0x3a950d4e	0.0011371763
24	0xbebe6d87	-0.37192938
25	0xbea372b5	-0.31923452
26	0xbea9a2b3	-0.33131942
27	0xbeacfc0e	-0.33786052
28	0xbec62835	-0.3870255
29	0x3e123ede	0.14281794
30	0xbe8fa0f8	-0.28052497
31	0x3d09579f	0.033530828
