GraphClustering/LargeGraphs/Data/Karate_200_300_1000_Forward20.pt (torch, 298083 bytes, 3 tensors)

layers.0.weight f4 [32, 2312]
000000 9b a1 95 3c b0 21 8c bc 65 5d 23 bd ac de bc bc
       0.018265536 -0.017105907 -0.03988399 -0.023055397
000010 8a 1e 30 bc 80 48 45 bc 36 56 ad bc fa 1e 13 bd
       -0.010749469 -0.012041211 -0.021159273 -0.035918213
000020 8a 2b 4b bd 68 ac c2 3b c8 7a 73 bc 36 d7 e5 bc
       -0.04960207 0.0059409626 -0.014860816 -0.028056722
000030 47 40 a4 bc 30 5b 34 bd a9 c2 a0 3c 46 d0 cd 39
       -0.020050181 -0.044032276 0.019624071 0.00039255823
000040 d6 fa 0a 3c cc 08 b8 bc b4 31 82 3c dc c9 04 bd
       0.0084826555 -0.022465132 0.01589284 -0.03241907
000050 12 93 5b 3c 65 99 21 bc e0 71 f6 bb 81 18 c1 3b
       0.0134017635 -0.009863232 -0.007520899 0.0058928137
000060 fb ff fa 3b 0c ff 32 bc 59 db 45 3c bc 89 a6 3b
       0.00765991 -0.010925066 0.012076222 0.005082337
000070 09 e3 c3 bb 1d f2 91 3c 62 31 f3 bb bc 10 0a bd
       -0.0059779924 0.017815644 -0.0074216584 -0.033707365
000080 c2 ab 10 3b db c4 5a 3b a5 e3 8e bc ac e4 03 bc
       0.0022075032 0.0033381495 -0.017442534 -0.008050125
000090 01 89 16 bd 72 a9 1b bd 70 93 8b 3a 00 85 48 3c
       -0.03675175 -0.038003393 0.0010648798 0.012238741
0000a0 d5 09 9b bc 35 04 13 bd be bc 9c bc 0e be a9 3c
       -0.018925587 -0.035892684 -0.019132968 0.020720508
0000b0 05 fc 8d bc 1a 1b 00 bc 22 8a a9 ba 53 ae 84 bc
       -0.017332086 -0.0078189615 -0.0012934844 -0.016196406
0000c0 d9 b0 b4 3b 97 0c 9b 3c 59 cc 67 bc ae 8d 18 bd
       0.005514246 0.018926902 -0.014147841 -0.03724449
0000d0 df 05 8b 3b 04 62 fe bc 50 61 88 bb 6b 22 24 bd
       0.0042426432 -0.031052597 -0.004161991 -0.040071886
0000e0 c7 b1 98 3c 30 d8 a2 3c af 44 a8 3c a5 15 1e 3c
       0.018639458 0.019878477 0.020540563 0.009648715
0000f0 3c 52 69 3c 01 ad d0 ba 51 30 f4 bb 19 38 8d bc
       0.014240798 -0.00159207 -0.007452049 -0.017238664
000100 c3 35 88 bc 9f 97 32 bc 1e a0 83 3c 31 78 0b bc
       -0.016627198 -0.010900407 0.01606756 -0.008512543
000110 f0 c9 3e bd b6 22 a8 bc d5 7b 3e bb 7c 52 50 bc
       -0.0465793 -0.020524364 -0.002906551 -0.012714978
000120 5b f3 a8 3c 88 ed 41 3c b3 5e aa bc 3c 60 a0 bc
       0.020623853 0.011836417 -0.02079711 -0.019577138
000130 d8 26 a4 bc 78 72 c4 bc 3e 81 42 bc 6b 58 11 bb
       -0.020038053 -0.023980364 -0.011871634 -0.0022177945
000140 b2 26 82 3c 08 2b ba bc e1 9b a6 3c 95 2d 44 3c
       0.015887592 -0.022725597 0.020338 0.011973758
000150 13 6d 9f 3c 05 5b 80 bc 1f cf 1a bc be 06 1b 3c
       0.01946119 -0.015668401 -0.009448796 0.009462057
000160 3f 15 40 3b 16 9f a9 bc c8 4e 0f 3b 95 86 5e bc
       0.0029309539 -0.02070574 0.0021867026 -0.013581892
000170 b5 b7 98 bb a5 18 af bb 1f 4a 8f bc c5 d2 a0 bc
       -0.0046605715 -0.005343514 -0.017491398 -0.019631753
000180 30 24 3b bd 8b ce 34 bb 9a b8 61 bb 99 2c 68 bc
       -0.045688808 -0.002758893 -0.0034442306 -0.014170789
000190 4d bd 04 bd aa 69 fc 3b e2 43 ad bc 7c 83 46 bd
       -0.032407094 0.007703026 -0.021150533 -0.048465237
0001a0 ed cf 2c bc 3d 5b 48 bb 9a 3f 0b 3c 19 f6 05 bb
       -0.01054762 -0.003057196 0.0084990505 -0.0020440875
0001b0 1c ce 0c bc 60 9c 2f bd 76 05 7c bc 40 3f fd bb
       -0.008594062 -0.04287374 -0.015382161 -0.0077284873
0001c0 fe 9d 44 bc 13 f3 37 bc 0f d1 08 bd f6 79 4f bd
       -0.012000559 -0.011227387 -0.0334025 -0.05065342
0001d0 07 f8 9e 3c b8 16 82 bc 44 65 54 bb 76 b4 59 bc
       0.019405378 -0.015879974 -0.0032408992 -0.013287654
0001e0 bb d8 89 3c 43 12 3b bc a2 b6 f6 3b 65 55 9c 3c
       0.016826978 -0.011417928 0.0075290957 0.019083688
0001f0 d0 46 3c 3b 39 18 88 bc ab f0 40 bc ce 75 dd bb
       0.002872873 -0.016613113 -0.01177613 -0.006758428
000200 28 23 04 3a d8 79 d6 bb 33 1e a8 bb a3 5e 35 3c
       0.0005040639 -0.0065452866 -0.005130553 0.011069926
000210 1d 9f 97 3c b0 6d a8 3c 04 f9 9d ba 15 8f 4f 3b
       0.018508488 0.020560116 -0.0012052362 0.0031670977
000220 ce 33 e7 bc c1 41 20 3c 3d 62 3b 3c d2 19 97 ba
       -0.028222945 0.009781302 0.011436996 -0.0011528081
000230 6c fd 3f 3c 9c f1 37 3b b0 0f 6b bc 47 83 ab 3b
       0.011718135 0.0028067594 -0.014347002 0.0052341553
000240 41 e9 d3 3b 78 73 82 bb 36 7a e5 bc f2 2a 88 bc
       0.006467015 -0.00398105 -0.028012376 -0.01662204
000250 58 24 91 3c a2 67 96 bc 09 54 2e bc 37 32 84 ba
       0.017717525 -0.018359963 -0.010640153 -0.0010085766
000260 0a e9 7d 3b 1a db a5 bb b9 e6 af 3a f9 a9 6a 3c
       0.0038743638 -0.0050615193 0.0013420201 0.014322751
000270 3c 91 62 3c 1e ba f4 3b 14 bb 11 bc 3d db 26 3a
       0.013828572 0.007468476 -0.008894701 0.00063650665
000280 24 60 a3 3b e9 f8 a4 bc b7 eb 45 bc b4 2b 24 bc
       0.004985826 -0.02013822 -0.012080125 -0.010020185
000290 5f 88 9e 3b 79 e1 63 b9 3e f4 b5 bb 9e e7 ac 3b
       0.004838034 -0.00021732402 -0.0055527976 0.0052766344
0002a0 fd c6 92 3c a1 87 0f bc d6 0c e3 bc 2e bd 81 bb
       0.01791715 -0.008760364 -0.027716082 -0.0039593196
0002b0 52 65 9d 3c 78 2d aa 3c 52 18 85 3c 6f 70 7c 3c
       0.019213352 0.020773634 0.016246948 0.015407666
0002c0 e8 a7 47 bd 36 fb 07 3c 6f 6b a6 bc 53 f3 d2 39
       -0.048744112 0.008299639 -0.0203149 0.00040235612
0002d0 68 f2 0b bd 5b 7b 98 3c 65 ba 63 bc 71 71 81 bc
       -0.034166723 0.018613508 -0.01389942 -0.015801163
0002e0 23 8e 2a bc c5 42 0a bc f8 e9 44 bc a9 40 a1 bc
       -0.010409865 -0.008438771 -0.012018673 -0.019684153
0002f0 85 1f 20 bb 6f c2 a3 bc 82 64 49 bc 1c c2 a6 3c
       -0.002443285 -0.019990174 -0.012292029 0.02035623
000300 5c 6c 8f bc 54 34 a1 bc 75 f1 35 3b e9 e9 e1 bb
       -0.017507724 -0.019678272 0.0027762328 -0.0068943393
000310 1b f5 d3 3b 05 65 14 bb c4 3d 52 3c 20 99 ef bb
       0.006468428 -0.002264322 0.012832109 -0.007311955
000320 79 66 f7 39 f9 cd 06 3c 6b 35 a1 bc a1 85 f7 bb
       0.0004718786 0.008227819 -0.019678792 -0.0075537716
000330 7a 1e 30 bd a0 dc 6d 3b 21 ea 03 3c 18 2c 3e bc
       -0.042997815 0.0036294833 0.008051426 -0.011607192
000340 8c 46 d0 bc e8 e2 3f bc dd 0c 38 3c 28 de 55 3b
       -0.025424264 -0.0117118135 0.011233536 0.0032633636
000350 71 1d c3 ba 6b 24 f4 3a 89 9e 7d bc a8 63 99 3c
       -0.0014886094 0.0018626576 -0.015479692 0.018724278
000360 f4 ef 88 bc cd 30 86 bc e2 ea 93 bc f6 46 45 3c
       -0.016715981 -0.016380692 -0.018056337 0.012040844
000370 6d ac 23 bd 1c 73 99 3b d2 a2 a8 bc 82 71 a8 3c
       -0.03995936 0.0046829116 -0.020585451 0.020561937
000380 89 a7 e9 bb ce cf 0c bb 2b e2 78 bc 88 aa 46 bc
       -0.0071305675 -0.0021486166 -0.015190641 -0.012125619
000390 26 d3 56 bc 57 91 97 3b 2c 34 a1 3c df b2 33 3c
       -0.013111865 0.00462548 0.019678198 0.010967939
0003a0 29 a6 84 3b 87 c8 9f bc e3 22 a1 bc fc f7 3a 3c
       0.004048128 -0.019504799 -0.019669956 0.011411663
0003b0 32 9b a8 3c a3 f2 a6 3c d5 bf 27 bc 55 40 8c bc
       0.020581815 0.02037937 -0.010238607 -0.01712052
0003c0 6e a0 d4 bc 4e 8f 43 bd 64 f3 6b 3c ae 44 9e bc
       -0.025955405 -0.047744088 0.014401291 -0.019319858
0003d0 7f cb b9 3b dd 05 2a 3c 17 26 1a bc 00 7f a4 bc
       0.0056700106 0.0103773745 -0.009408495 -0.02008009
0003e0 01 8d c2 3b 82 da 22 3c 76 bb ec 3b b6 63 9a bb
       0.005937219 0.009939792 0.0072244955 -0.0047115935
0003f0 08 be 77 3b bc dc 81 bc 07 b8 2b bc db fd 61 bb
       0.0037802476 -0.015852325 -0.010480887 -0.0034483585

layers.0.bias f4 [32]
000000 4c 7f 62 bc b6 28 03 bd 24 6d 33 3f 9a 2e e2 3e
       -0.013824295 -0.032021247 0.7008841 0.4417618
000010 e8 36 32 3f d3 d8 07 bd fa 0c 31 bd 45 d1 33 bd
       0.6961503 -0.033165764 -0.043225266 -0.043900747
000020 1e 17 31 bd a8 2a 33 3f 91 52 24 bc ab 20 26 3f
       -0.043234937 0.69986963 -0.010029451 0.648936
000030 d4 9c 70 bc b5 c0 f3 bc 98 12 35 bd 5a 79 20 3f
       -0.014685828 -0.029754976 -0.044207186 0.6268517
000040 14 24 40 bd ad 9f 28 3f 1d fe 2b 3f a1 72 2e 3f
       -0.046909407 0.65868646 0.6718462 0.6814366
000050 71 bf 4c bd 9f 95 b4 bc 44 be 1f 3f 82 07 30 bd
       -0.04998726 -0.022044001 0.623997 -0.04297591
000060 ff 67 22 3f 4a 03 2e bd 23 b8 25 3f c2 7d b8 bc
       0.63439935 -0.042483605 0.64734095 -0.022520903
000070 4c dd db bc b8 83 30 3f 11 57 42 bd 41 bc 27 3f
       -0.026838921 0.68950987 -0.047446314 0.6552163

layers.2.weight f4 [1, 32]
000000 c9 71 c2 3d e4 c1 93 3d 1a da a1 be eb 19 ae bf
       0.09494359 0.07214716 -0.3161171 -1.360166
000010 d9 66 a3 be 82 58 21 3d 7d 14 8e 3d 43 9c c4 3d
       -0.31914404 0.03939105 0.069375016 0.09600117
000020 be a7 c2 3d 2e 73 ad be ed 22 bd 3d 79 4e c9 be
       0.095046505 -0.33876938 0.09235177 -0.39317682
000030 96 fc 70 3d 70 b0 cd 3c f9 fc ee 3d c5 06 c0 be
       0.058834635 0.025108546 0.116693445 -0.37505165
000040 d8 8b a1 bc 7b a9 a6 be 95 a4 ac be 27 07 a5 be
       -0.019720003 -0.32551178 -0.33719316 -0.3223202
000050 87 a1 a2 3d bd 6c 9d 3b 69 ce c7 be cb 56 c4 3d
       0.07940965 0.0048042224 -0.39024666 0.09586867
000060 f5 b7 b2 be 0b 46 a4 3a 65 25 aa be 7d 00 d9 3d
       -0.34905973 0.0012533081 -0.33231655 0.10595796
000070 60 1d a5 bc 02 b9 a7 be c1 cb 4e 3d 1b 21 ad be
       -0.020155609 -0.32758337 0.050487284 -0.3381432
