GraphClustering/LargeGraphs/Data/Karate_0_500_1000_o_Forward30.pt (torch, 298083 bytes, 3 tensors)

layers.0.weight f4 [32, 2312]
00000000: ef04 3ebc 01bf d33e a984 dc3e 8b08 e63e
00000010: 89db d93e cb00 d63e 653b d43e 931e e33e
00000020: 892f da3e 837f f73a 0d54 de3e c158 de3e
00000030: dfcd df3e dbfc dc3e c114 523b 6e29 5b3b
00000040: a36f bf3b d7d0 d23e 2845 88bc ad8e d43e
00000050: 6031 d1bb 011f db3e e145 073c 5fc8 073c
00000060: 9517 01bc 999a 763c 7f47 573c 5f77 6f3b
00000070: a76b 9f3c ff99 023c 058b 153c fd8d df3e
00000080: 499b 0dbc 50dd 913c 116b da3e 0d5e 0e3c
00000090: 4121 de3e 8398 e03e 18c7 96bc d1b6 bd3b
000000a0: 3c11 fcbb fd5c e03e 0546 e2ba d18f 803c
000000b0: 13f9 2c3c f368 2e3c a6f5 633b cdb6 e63e
000000c0: 38b1 47bc cc36 96bb 5e89 823a f799 e03e
000000d0: 7dcb 913c b7ca d63e e4da 683c 6dc0 d83e
000000e0: 8f06 eabb ae62 b9bb 4a06 c739 b8c7 02bc
000000f0: e233 363c 3a4f dd3a e8f3 a0bc 9ddb 643c
00000100: a5e9 df3e b763 ec3b e78c 533c cf5c 02bc
00000110: 8587 d53e 2d0a de3e a870 3c3b 69bb e63e
00000120: a5c5 143c a925 313c a9e2 0a3c 81b3 db3e
00000130: af38 df3e e303 d63e bdf4 833b e3be 0c3c
00000140: 526a a1bb a529 e53e f845 fd3b a56f 8cbc
00000150: 8da5 9cbc ccec 933c 3f27 22bc ae8a 8dbc
00000160: 6f19 143c 0dd4 1dbc 4e05 8ebc 4dca a03c
00000170: 7b07 263c 0b71 1d3c 3c37 f8bb e3b0 d23e
00000180: 81c4 dc3e b8c2 853c 5c62 9bbc 982f 9bbc
00000190: 517f d53e 5248 1f3c 6110 db3e 8724 e23e
000001a0: 39d3 d53e 4218 a4bc 2ce2 283c e1ad ffbb
000001b0: fbf9 89bb d3a4 d33e b792 35bc 22c8 a53c
000001c0: 5d58 1ebc 7e63 6dbc 7745 da3e 0334 e33e
000001d0: 381c 4a3c 54ef a7bc 9dbb ce3b 9f5d 9dbc
000001e0: f5d8 96bc b02e cf3b 6639 e8bb 0d9c 8d3c
000001f0: 275b c23b 0910 6b3c adc1 963c 807b 7f3c
00000200: e773 eb3b e36e 8f3c 77b7 0dbc a980 70bc
00000210: 9b2c 7dbc 7ca1 5cbc ac00 243b 82fb e7bb
00000220: 471f d33e c99d 86bc 93e6 833c eadf 8dba
00000230: 9e60 833b 1f83 723c 65c5 e73e a8e2 5f3c
00000240: 7d16 343c 8f10 e1bb 831f df3e edd2 15bc
00000250: 942f 693c dbc2 0b3b deff 113c c6c1 113a
00000260: bb55 563c 3cd5 7b3c 18e8 bcbb f461 473c
00000270: c7e3 c43b a50c 073c 4921 a93c 0621 843c
00000280: 5bdb a5bc 4dc8 05bc 7d3f 74bc 882a a93c
00000290: e1d2 5c3c 1df5 91bc 72a3 0fbc 1cac 5e3c
000002a0: 0e65 283b 0d7d 85bc f3d6 e43e 27c3 603c
000002b0: 899b 5cbc f111 d93b 99d4 983c e38d 903c
000002c0: 87f5 df3e 528c 7e3c bdc3 4939 ace3 f43a
000002d0: c3cf da3e 906d 91bc 101a 663c 8cdf 06bc
000002e0: 763e a83c 0f32 9f3c a184 db3e 5696 a33c
000002f0: 2b7d 1fbc ad9e 893c d894 f2bb 3d48 37bc
00000300: 3449 cc3b 95aa 4b3c 6ab7 513b 7f70 963c
00000310: 58bd 6abb 449d 9cbb b793 46bc 6bbc a1bc
00000320: 473f 5ebc e56b 58bc a09a 553c 4fa2 4cbc
00000330: c93d e73e dc3b 7fbc abfa 98bc 3d0d 0fbc
00000340: 8d58 d43e 375e e53e 9cc0 c7bb e7dc a3b9
00000350: a3c5 a3bc 3f68 40bc 6c5f 183c e5f6 8cbc
00000360: 92a9 8f3c c925 ccbb bfe4 993a f22c 90bc
00000370: 2d97 d83e 3d30 883c 65e4 dbbb ba59 813c
00000380: 6034 c4ba 05b2 a3bc d974 523c 5970 bb3a
00000390: a5ac 9ebc e7ae cf3b b9f9 883c 5eb2 013b
000003a0: 6b58 73bc a890 e93b 2fcd 65bc 9178 8abc
000003b0: fce0 b23a 0814 833c 0faf d83e 85be d83e
000003c0: 053c e23e c7df e73e d384 8a3b c5cb a2bc
000003d0: 531c 893c 02d2 37bc 1780 9e3c f5dc 913b
000003e0: 5e8b 94bc c451 b03b 9418 2c3a ee2f 8a3c
000003f0: 13a5 9e3b 0183 95bb f528 16bc 8731 17bc
-0.011597856 0.41356662 0.43069962 0.44928393 0.42550305 0.4179748 0.41451564 0.44359264
0.4261439 0.0018882606 0.434235 0.4342709 0.43711755 0.43161663 0.0032055827 0.0033441442
0.0058421656 0.41174957 -0.016634539 0.41515103 -0.00638406 0.42797092 0.0082564065 0.008287518
-0.007879158 0.015051507 0.013139605 0.0036539657 0.019460512 0.007971286 0.009127383 0.43663016
-0.00864298 0.017805725 0.4265981 0.008689416 0.43384746 0.43866357 -0.018405482 0.0057896157
-0.007692484 0.43820944 -0.0017263299 0.015693577 0.010557431 0.010645139 0.003478387 0.4506134
-0.012188248 -0.004584169 0.0009959152 0.43867466 0.017797226 0.41951534 0.014212344 0.4233431
-0.007141895 -0.0056575155 0.00037960924 -0.007982187 0.011120768 0.0016884573 -0.019647554 0.0139683755
0.43732944 0.0072140354 0.012912012 -0.007956698 0.41704956 0.43367139 0.0028753672 0.45064858
0.009080325 0.010812202 0.008476892 0.42910388 0.43597934 0.4179984 0.004026978 0.008590433
-0.0049260044 0.44758335 0.007729288 -0.01714308 -0.01912191 0.01805725 -0.009897052 -0.017278042
0.009039267 -0.009633076 -0.017336514 0.019627715 0.010133619 0.009609471 -0.007574944 0.4115058
0.4311867 0.0163282 -0.0189678 -0.018943593 0.41698697 0.009721832 0.42785934 0.44168493
0.41762713 -0.020031098 0.01030783 -0.0078027104 -0.004210708 0.41336688 -0.011082343 0.020237032
-0.009664622 -0.014489053 0.42631122 0.4437562 0.012335829 -0.020499863 0.0063089863 -0.019209681
-0.018414 0.0063227043 -0.0070869206 0.017286325 0.0059312764 0.014347085 0.018402899 0.01559341
0.0071854475 0.01750893 -0.008649698 -0.0146791125 -0.015452529 -0.013466235 0.0025024815 -0.0070795426
0.412348 -0.01643266 0.016101157 -0.0010824178 0.0040093204 0.0148017695 0.45267788 0.013664879
0.01099169 -0.006868429 0.4357873 -0.009144527 0.014232535 0.002132586 0.008911101 0.00055601855
0.013081963 0.015370663 -0.0057649724 0.01216935 0.0060085985 0.008242761 0.020645754 0.016129028
-0.020246198 -0.008165431 -0.014907715 0.020650163 0.013478012 -0.017817074 -0.008766996 0.013590839
0.0025695 -0.01629498 0.44695243 0.013718403 -0.013464817 0.0066244532 0.018656062 0.017645782
0.4374201 0.015536385 0.00019241772 0.0018683574 0.42736635 -0.017752439 0.0140443 -0.008232009
0.020537596 0.01943305 0.42874625 0.019969147 -0.009734432 0.016799295 -0.0074029975 -0.011186657
0.0062343124 0.012430807 0.0032000192 0.01836419 -0.0035818424 -0.0047794897 -0.012120179 -0.019743165
-0.013564891 -0.013209318 0.013037354 -0.012489869 0.45164326 -0.015578236 -0.018674215 -0.008731184
0.4147381 0.44798443 -0.006095959 -0.00031254368 -0.019991701 -0.011743604 0.009300094 -0.017207572
0.017536912 -0.0062300903 0.0011741145 -0.017599557 0.42302838 0.016624564 -0.0067105764 0.015789855
-0.0014969222 -0.019982347 0.012845241 0.001430045 -0.019369433 0.0063379887 0.01672064 0.0019790153
-0.014852623 0.00712784 -0.01402597 -0.016903194 0.0013647373 0.016000763 0.4232106 0.42332855
0.44186416 0.45287916 0.0042272597 -0.019872556 0.016737139 -0.011219503 0.019348187 0.004451389
-0.018132862 0.005380841 0.0006564942 0.016868558 0.0048414557 -0.004562736 -0.009165038 -0.009228117

layers.0.bias f4 [32]
00000000: 118a e33e 2447 b83e 87cd b03e 4f1e b43e
00000010: f5c7 ae3e 3dfd cd3e c52c cf3e de90 d13e
00000020: b9bf bc3e a523 b53e cbb2 0ebd 591c d3bc
00000030: fd79 de3e 5274 b53e 99c4 b13e 6c0d d23e
00000040: 2420 b8bc a642 ca3e 8e46 c13e afc2 c53e
00000050: 8fb3 26bd 6f76 1dbd de90 94bc 263e e9bc
00000060: 1d86 b83e 2863 c93e b54f c23e daf7 b13e
00000070: 4cde a83e 6b96 e9bc a595 e43e 2538 ffbc
0.44441274 0.35991776 0.34531805 0.35179374 0.3413693 0.40232268 0.40463844 0.40930837
0.36865023 0.35378757 -0.03483848 -0.025770353 0.43452445 0.35440308 0.34720305 0.41025865
-0.022476263 0.39503974 0.3774914 0.38625094 -0.040698584 -0.038443025 -0.018135484 -0.028472017
0.3603982 0.39333463 0.37951437 0.34759408 0.329821 -0.028514108 0.4464542 -0.031154701

layers.2.weight f4 [1, 32]
00000000: 0b37 a2be 84c0 c6be db21 dfbe 7c80 cabe
00000010: 6cff cabe 5651 b3be 5f0f d5be f0ec b1be
00000020: a11b c9be 35e7 cabe 5002 c4bb 74bf bcb9
00000030: b55b a5be 78aa d9be a93c bdbe 73f9 a2be
00000040: 8158 e23d 56b8 aabe a71f bebe 6662 b0be
00000050: 76e5 2c3d 98b7 de3d e118 133e 4e0d 953a
00000060: 3901 d1be 073f b6be cf97 bbbe 4d20 c4be
00000070: 2cd1 d7be de3e 123e ed30 a2be 9f57 093d
-0.3168262 -0.38818753 -0.43580517 -0.3955115 -0.39647996 -0.35022992 -0.4161329 -0.3475108
-0.39278892 -0.39629522 -0.005981721 -0.00036000798 -0.3229653 -0.4251287 -0.36960343 -0.3183094
0.11052037 -0.33343762 -0.37133524 -0.34450072 0.04221102 0.108748615 0.1436496 0.0011371763
-0.40821245 -0.3559496 -0.36639258 -0.38305894 -0.42151773 0.14281794 -0.31677952 0.033530828
