GraphClustering/LargeGraphs/Data/Karate_1000_1500_2000_Forward500.pt (torch, 298101 bytes, 3 tensors)

layers.0.weight f4 [32, 2312]
0.018763924 0.31409883 0.3219592 0.28541237 0.2905169 0.3218466 0.29539108 0.31624144
0.32337135 -0.0073314123 0.31574947 0.30290145 0.3191607 0.3083892 -0.008330459 0.018541621
0.008917616 0.3119266 0.007862591 0.30455357 0.019607788 0.31888843 0.0142470775 -0.0051667993
-0.005779994 0.010638676 -0.00045369595 0.009198183 0.007827222 0.00075024116 -0.00553166 0.3120718
0.006369502 0.0069852774 0.28839016 0.016686998 0.29403353 0.29774672 -0.014266839 -0.018770952
-0.018433966 0.30494612 0.011229359 0.014910152 0.0004632484 -0.020364085 0.00433755 0.3138368
0.0172404 0.018635336 0.017926337 0.32161987 0.012026767 0.3061183 -0.019730141 0.29852116
-0.0022010077 0.0041901306 0.004870909 -0.0015257754 0.002008161 -0.0039568306 -0.003012399 -0.012797886
0.31997335 5.2534806e-06 0.0004912116 -0.016647857 0.31900984 0.320382 0.0046699056 0.30568796
-0.011304457 0.015198696 0.008778405 0.28807157 0.30554438 0.3044353 0.012015756 0.017352976
-0.01599731 0.32281762 0.0016434123 -0.002210104 -0.009059713 -0.01864436 -0.01814295 0.020409893
0.002751495 -0.014280654 0.012627151 -0.014100215 0.0041660448 0.0048456728 0.01340239 0.2849654
0.29893893 0.017676607 0.0028385282 -0.012090019 0.32051605 0.018605905 0.31595635 0.28472543
0.30031675 0.013924627 -0.0040599317 0.0071233283 4.5263238e-05 0.29472196 -0.0075651137 -0.0020843279
0.018834798 -0.015622253 0.32370222 0.29394078 0.012991495 0.012221118 0.01719974 -0.00074221345
0.0005727162 0.020229295 -0.0044424515 -0.0041747447 -0.005489089 -0.016444875 -0.0012222908 0.008864174
-0.007195449 -0.0078027677 -0.020440456 -0.018805072 0.00039313835 0.018136332 0.00197874 0.01758328
0.30700982 -0.01817031 0.00470604 0.004366126 -0.015750468 0.007168658 0.3248852 0.013916433
0.002225128 0.007831212 0.3165841 0.012774293 0.005733077 -0.019928163 -0.0059842104 0.00026665072
0.007778233 -0.011016973 -0.0034614413 -0.0060740127 -0.013694795 0.019083185 0.004060442 0.010214799
-0.009451314 0.0033478604 -0.008411531 -0.0039049773 -0.015970923 0.0047909264 0.0028995743 -0.018674746
0.0012823154 -0.01905729 0.31425577 0.012275066 0.016557517 -0.003736814 0.017810527 -0.0033678531
0.28829187 -0.009587042 -0.007132206 -0.017756142 0.31571364 -0.020486105 -0.0022563837 0.017775754
0.019391475 -0.011564074 0.29679036 0.008680317 0.009382094 -0.014494162 -0.01747922 0.01666993
-0.0025232972 0.0016910728 0.00714517 -0.0005939235 -0.010481056 -0.011691888 -0.019983651 -0.01560373
-0.01342095 0.0032557326 0.0034863502 -0.005326851 0.29805022 -0.00031471052 -0.008305441 -0.011297321
0.32546717 0.3219189 0.01815021 0.007766194 0.007099607 0.013564274 0.00273656 0.018320672
0.0040433877 0.0044206018 -0.019227786 0.018253922 0.29935193 0.0075067207 0.019914756 0.0073316726
-0.00047924687 -0.02063946 4.492854e-05 -0.0051680836 -0.015741665 0.0032938507 -0.011776734 -0.0021327497
0.0038144286 -0.020691928 -0.009695801 0.011169953 -0.017233968 -0.018518196 0.29961032 0.28900516
0.29957956 0.2866009 0.01535971 -0.01058747 -0.006037298 -0.014994339 0.014678924 0.0028002614
-0.015788795 0.016693994 0.0032915547 -0.0004286161 0.0063613877 0.020170422 -0.0033532777 0.011765727
00000000: cdb6 993c 90d1 a03e d6d7 a43e 9221 923e
00000010: a2be 943e 14c9 a43e 803d 973e 66ea a13e
00000020: ee90 a53e 583c f0bb eaa9 a13e e615 9b3e
00000030: 0869 a33e 30e5 9d3e 7a7c 08bc 99e4 973c
00000040: 311b 123c d8b4 9f3e 19d2 003c 72ee 9b3e
00000050: 83a0 a03c 5845 a33e 936c 693c 414e a9bb
00000060: 1b66 bdbb d74d 2e3c 0ade edb9 fab3 163c
00000070: c03d 003c d5ab 443a ed42 b5bb e0c7 9f3e
00000080: 41b7 d03b c1e4 e43b e0a7 933e 2cb3 883c
00000090: 908b 963e 4272 983e 76bf 69bc 8ac5 99bc
000000a0: d402 97bc e621 9c3e 58fb 373c b649 743c
000000b0: 26e0 f239 95d2 a6bc 0222 8e3b 38af a03e
000000c0: bd3b 8d3c 22a9 983c 41da 923c 5cab a43e
000000d0: eb0b 453c 8abb 9c3e 1ba1 a1bc c4d7 983e
000000e0: c83e 10bb 5d4d 893b 259c 9f3b 87fc c7ba
000000f0: 5a9b 033b 4da8 81bb ab6b 45bb 39ae 51bc
00000100: 8cd3 a33e 0e47 b036 a7c4 003a 1661 88bc
00000110: 4255 a33e 1c09 a43e 0206 993b 2283 9c3e
00000120: 5436 39bc f403 793c 4dd3 0f3c 1e7e 933e
00000130: 5070 9c3e f2de 9b3e bcdd 443c d427 8e3c
00000140: ca0c 83bc 5a48 a53e c467 d73a 64d7 10bb
00000150: 316f 14bc 0fbc 98bc 86a0 94bc a632 a73c
00000160: 6d52 343b 67f9 69bc 1ce2 4e3c 9704 67bc
00000170: 5183 883b 73c8 9e3b b395 5b3c fce6 913e
00000180: 860e 993e 88ce 903c 9a06 3a3b 3715 46bc
00000190: ae1a a43e 696b 983c 08c5 a13e 88c7 913e
000001a0: 1ec3 993e 1e24 643c 2d09 85bb cf6a e93b
000001b0: 08d9 3d38 cce5 963e c6e4 f7bb 3899 08bb
000001c0: 6f4b 9a3c 7af4 7fbc 4cbc a53e 687f 963e
000001d0: 48da 543c 163b 483c 78e6 8c3c 1a91 42ba
000001e0: 5522 163a e8b7 a53c fc91 91bb 4ccc 88bb
000001f0: d1dd b3bb 67b7 86bc 4635 a0ba 0a3b 113c
00000200: cdc7 ebbb 5cae ffbb be72 a7bc 180d 9abc
00000210: 231e ce39 a592 943c c0ad 013b d00a 903c
00000220: 6430 9d3e e7d9 94bc 2035 9a3b b811 8f3b
00000230: 2007 81bc 10e7 ea3b 5a57 a63e c001 643c
00000240: 74d3 113b 7c4e 003c 5017 a23e 454b 513c
00000250: 89dc bb3b 6340 a3bc 3217 c4bb 41cd 8b39
00000260: 8ce0 fe3b 8980 34bc 59d9 62bb 8308 c7bb
00000270: 2260 60bc 5754 9c3c 750d 853b f95b 273c
00000280: afd9 1abc c767 5b3b 85d0 09bc a6ea 7fbb
00000290: 74d5 82bc 34fd 9c3b c906 3e3b c8fb 98bc
000002a0: 5d13 a83a 091e 9cbc 22e6 a03e 5c1d 493c
000002b0: a1a3 873c 56e5 74bb 62e7 913c 33b7 5cbb
000002c0: fe9a 933e f812 1dbc 48b5 e9bb 5475 91bc
000002d0: 38a5 a13e 7ad2 a7bc d6df 13bb 759e 913c
000002e0: dfda 9e3c 3e77 3dbc e8f4 973e e337 0e3c
000002f0: 5bb7 193c ec78 6dbc 9530 8fbc 618f 883c
00000300: e75d 25bb fda6 dd3a 0822 ea3b 88b1 1bba
00000310: bcb8 2bbc 558f 3fbc c1b4 a3bc caa6 7fbc
00000320: 8be3 5bbc 215e 553b 407b 643b dd8c aebb
00000330: 0a9a 983e bbff a4b9 8b13 08bc 6618 39bc
00000340: a2a3 a63e 8ed2 a43e c0af 943c 8f7b fe3b
00000350: d2a3 e83b b03c 5e3c dc57 333b 3c15 963c
00000360: 657e 843b b2da 903b 9783 9dbc 4089 953c
00000370: a844 993e f0fa f53b 4524 a33c 873e f03b
00000380: 6d43 fbb9 1614 a9bc a771 3c38 0759 a9bb
00000390: aaf4 80bc a5dd 573b 34f3 40bc 9ac5 0bbb
000003a0: 7efb 793b 1e82 a9bc 23db 1ebc 2e02 373c
000003b0: 402e 8dbc 79b3 97bc 8666 993e 7cf8 933e
000003c0: 7e62 993e 5abd 923e 4ba7 7b3c 1177 2dbc
000003d0: 87d4 c5bb d1aa 75bc df7f 703c 9784 373b
000003e0: 8157 81bc d8c1 883c 20b7 573b e1b7 e0b9
000003f0: 3073 d03b 713c a53c aac2 5bbb 09c5 403c

layers.0.bias f4 [32]
0.2884646 -0.03488904 0.25806394 0.81673545 0.89455914 0.30785513 0.1580581 0.675493
-0.010147465 2.430912 -0.010727129 -0.02920949 0.12905028 -0.022310399 0.23419334 -0.05186285
0.59263927 0.15048316 -0.024107818 -0.011534048 -0.0427586 0.33539444 -0.027330669 -0.043390166
-0.048379097 1.1107712 -0.02083181 0.8736896 -0.040963277 -0.012896182 0.34161037 1.6934435
00000000: a2b1 933e cfe7 0ebd f520 843e 9315 513f
00000010: d401 653f 309f 9d3e fcd9 213e 1ced 2c3f
00000020: 8e41 26bc 1094 1b40 d7c0 2fbc be48 efbc
00000030: c225 043e 4cc4 b6bc 61d0 6f3e 246e 54bd
00000040: 35b7 173f 4218 1a3e c27d c5bc 4ef9 3cbc
00000050: a423 2fbd d2b8 ab3e 91e4 dfbc e3b9 31bd
00000060: 2929 46bd c02d 8e3f 79a7 aabc 1faa 5f3f
00000070: 1cc9 27bd 824a 53bc 8ee7 ae3e c2c2 d83f

layers.2.weight f4 [1, 32]
0.21683666 0.03887831 -0.0008042416 -0.20127873 -0.48778364 0.00024044243 0.01370126 0.31507882
0.058686547 -0.9565617 0.013930345 0.07601325 -0.019795302 0.017229093 -0.004211089 -0.020870453
0.21656089 -0.004325798 0.14184448 0.0885696 0.05508972 0.006832487 0.019416153 0.046026893
0.045914195 -0.035309978 -0.016098386 -0.42764285 0.031128785 -0.024238454 0.005119362 -0.35959628
00000000: 6e0a 5e3e dd3e 1f3d bdd3 52ba 031c 4ebe
00000010: c7be f9be 461f 7c39 407b 603c 0352 a13e
00000020: 4e61 703d 3ae1 74bf 1a3c 643c d6ac 9b3d
00000030: c229 a2bc 0724 8d3c 2dfd 89bb 83f8 aabc
00000040: 23c2 5d3e 6cbf 8dbb ae3f 113e fa63 b53d
00000050: c2a5 613d 0ee3 df3b a00e 9f3c b286 3c3d
00000060: 8610 3c3d 32a1 10bd c3e0 83bc 01f4 dabe
00000070: cb01 ff3c b98f c6bc 52c0 a73b 011d b8be
