GraphClustering/LargeGraphs/Data/Karate_0_500_1000_o_Forward210.pt (torch, 298089 bytes, 3 tensors)

layers.0.weight f4 [32, 2312]
00000000: ef04 3ebc 9475 373f 54d8 3b3f 329a 403f
00000010: ce83 3a3f 7a96 383f c8b3 373f 3a25 3f3f
00000020: c8ad 3a3f 837f f73a 04c0 3c3f 5ec2 3c3f
00000030: ee7c 3d3f 6a14 3c3f c114 523b 6e29 5b3b
00000040: a36f bf3b 84fe 363f 2845 88bc 6add 373f
00000050: 6031 d1bb 8425 3b3f e145 073c 5fc8 073c
00000060: 9517 01bc 999a 763c 7f47 573c 5f77 6f3b
00000070: a76b 9f3c ff99 023c 058b 153c fe5c 3d3f
00000080: 499b 0dbc 50dd 913c 8ecb 3a3f 0d5e 0e3c
00000090: 9ea6 3c3f 40e2 3d3f 18c7 96bc d1b6 bd3b
000000a0: 3c11 fcbb 7ec4 3d3f 0546 e2ba d18f 803c
000000b0: 13f9 2c3c f368 2e3c a6f5 633b 52f1 403f
000000c0: 38b1 47bc cc36 96bb 5e89 823a fae2 3d3f
000000d0: 7dcb 913c 6cfb 383f e4da 683c 44f6 393f
000000e0: 8f06 eabb ae62 b9bb 4a06 c739 b8c7 02bc
000000f0: e233 363c 3a4f dd3a e8f3 a0bc 9ddb 643c
00000100: d28a 3d3f b763 ec3b e78c 533c cf5c 02bc
00000110: d659 383f 129b 3c3f a870 3c3b a0f3 403f
00000120: a5c5 143c a925 313c a9e2 0a3c c26f 3b3f
00000130: 5632 3d3f 0698 383f bdf4 833b e3be 0c3c
00000140: 526a a1bb c22a 403f f845 fd3b a56f 8cbc
00000150: 8da5 9cbc ccec 933c 3f27 22bc ae8a 8dbc
00000160: 6f19 143c 0dd4 1dbc 4e05 8ebc 4dca a03c
00000170: 7b07 263c 0b71 1d3c 3c37 f8bb 8aee 363f
00000180: 42f8 3b3f b8c2 853c 5c62 9bbc 982f 9bbc
00000190: ba55 383f 5248 1f3c 341e 3b3f 36a8 3e3f
000001a0: b07f 383f 4218 a4bc 2ce2 283c e1ad ffbb
000001b0: fbf9 89bb 7c68 373f b792 35bc 22c8 a53c
000001c0: 5d58 1ebc 7e63 6dbc c0b8 3a3f f02f 3f3f
000001d0: 381c 4a3c 54ef a7bc 9dbb ce3b 9f5d 9dbc
000001e0: f5d8 96bc b02e cf3b 6639 e8bb 0d9c 8d3c
000001f0: 275b c23b 0910 6b3c adc1 963c 807b 7f3c
00000200: e773 eb3b e36e 8f3c 77b7 0dbc a980 70bc
00000210: 9b2c 7dbc 7ca1 5cbc ac00 243b 82fb e7bb
00000220: bc25 373f c99d 86bc 93e6 833c eadf 8dba
00000230: 9e60 833b 1f83 723c a078 413f a8e2 5f3c
00000240: 7d16 343c 8f10 e1bb be25 3d3f edd2 15bc
00000250: 942f 693c dbc2 0b3b deff 113c c6c1 113a
00000260: bb55 563c 3cd5 7b3c 18e8 bcbb f461 473c
00000270: c7e3 c43b a50c 073c 4921 a93c 0621 843c
00000280: 5bdb a5bc 4dc8 05bc 7d3f 74bc 882a a93c
00000290: e1d2 5c3c 1df5 91bc 72a3 0fbc 1cac 5e3c
000002a0: 0e65 283b 0d7d 85bc 6001 403f 27c3 603c
000002b0: 899b 5cbc f111 d93b 99d4 983c e38d 903c
000002c0: c290 3d3f 528c 7e3c bdc3 4939 ace3 f43a
000002d0: e8fd 3a3f 906d 91bc 101a 663c 8cdf 06bc
000002e0: 763e a83c 0f32 9f3c 5258 3b3f 5696 a33c
000002f0: 2b7d 1fbc ad9e 893c d894 f2bb 3d48 37bc
00000300: 3449 cc3b 95aa 4b3c 6ab7 513b 7f70 963c
00000310: 58bd 6abb 449d 9cbb b793 46bc 6bbc a1bc
00000320: 473f 5ebc e56b 58bc a09a 553c 4fa2 4cbc
00000330: d034 413f dc3b 7fbc abfa 98bc 3d0d 0fbc
00000340: 5cc2 373f 0845 403f 9cc0 c7bb e7dc a3b9
00000350: a3c5 a3bc 3f68 40bc 6c5f 183c e5f6 8cbc
00000360: 92a9 8f3c c925 ccbb bfe4 993a f22c 90bc
00000370: a2e1 393f 3d30 883c 65e4 dbbb ba59 813c
00000380: 6034 c4ba 05b2 a3bc d974 523c 5970 bb3a
00000390: a5ac 9ebc e7ae cf3b b9f9 883c 5eb2 013b
000003a0: 6b58 73bc a890 e93b 2fcd 65bc 9178 8abc
000003b0: fce0 b23a 0814 833c 94ed 393f 50f5 393f
000003c0: f4b3 3e3f d285 413f d384 8a3b c5cb a2bc
000003d0: 531c 893c 02d2 37bc 1780 9e3c f5dc 913b
000003e0: 5e8b 94bc c451 b03b 9418 2c3a ee2f 8a3c
000003f0: 13a5 9e3b 0183 95bb f528 16bc 8731 17bc
-0.011597856 0.71663785 0.73376966 0.75235283 0.7285737 0.7210461 0.717587 0.7466618
0.7292142 0.0018882606 0.7373049 0.7373408 0.7401875 0.7346865 0.0032055827 0.0033441442
0.0058421656 0.7148211 -0.016634539 0.71822226 -0.00638406 0.7310412 0.0082564065 0.008287518
-0.007879158 0.015051507 0.013139605 0.0036539657 0.019460512 0.007971286 0.009127383 0.7397002
-0.00864298 0.017805725 0.7296685 0.008689416 0.7369174 0.74173355 -0.018405482 0.0057896157
-0.007692484 0.7412795 -0.0017263299 0.015693577 0.010557431 0.010645139 0.003478387 0.75368226
-0.012188248 -0.004584169 0.0009959152 0.74174464 0.017797226 0.7225864 0.014212344 0.72641397
-0.007141895 -0.0056575155 0.00037960924 -0.007982187 0.011120768 0.0016884573 -0.019647554 0.0139683755
0.7403995 0.0072140354 0.012912012 -0.007956698 0.7201208 0.7367412 0.0028753672 0.7537174
0.009080325 0.010812202 0.008476892 0.73217404 0.7390493 0.7210697 0.004026978 0.008590433
-0.0049260044 0.75065243 0.007729288 -0.01714308 -0.01912191 0.01805725 -0.009897052 -0.017278042
0.009039267 -0.009633076 -0.017336514 0.019627715 0.010133619 0.009609471 -0.007574944 0.7145773
0.73425686 0.0163282 -0.0189678 -0.018943593 0.7200581 0.009721832 0.7309296 0.7447542
0.72069836 -0.020031098 0.01030783 -0.0078027104 -0.004210708 0.71643806 -0.011082343 0.020237032
-0.009664622 -0.014489053 0.72938156 0.7468252 0.012335829 -0.020499863 0.0063089863 -0.019209681
-0.018414 0.0063227043 -0.0070869206 0.017286325 0.0059312764 0.014347085 0.018402899 0.01559341
0.0071854475 0.01750893 -0.008649698 -0.0146791125 -0.015452529 -0.013466235 0.0025024815 -0.0070795426
0.71541953 -0.01643266 0.016101157 -0.0010824178 0.0040093204 0.0148017695 0.75574684 0.013664879
0.01099169 -0.006868429 0.73885715 -0.009144527 0.014232535 0.002132586 0.008911101 0.00055601855
0.013081963 0.015370663 -0.0057649724 0.01216935 0.0060085985 0.008242761 0.020645754 0.016129028
-0.020246198 -0.008165431 -0.014907715 0.020650163 0.013478012 -0.017817074 -0.008766996 0.013590839
0.0025695 -0.01629498 0.750021 0.013718403 -0.013464817 0.0066244532 0.018656062 0.017645782
0.7404901 0.015536385 0.00019241772 0.0018683574 0.7304368 -0.017752439 0.0140443 -0.008232009
0.020537596 0.01943305 0.7318164 0.019969147 -0.009734432 0.016799295 -0.0074029975 -0.011186657
0.0062343124 0.012430807 0.0032000192 0.01836419 -0.0035818424 -0.0047794897 -0.012120179 -0.019743165
-0.013564891 -0.013209318 0.013037354 -0.012489869 0.7547121 -0.015578236 -0.018674215 -0.008731184
0.71780944 0.75105333 -0.006095959 -0.00031254368 -0.019991701 -0.011743604 0.009300094 -0.017207572
0.017536912 -0.0062300903 0.0011741145 -0.017599557 0.72609913 0.016624564 -0.0067105764 0.015789855
-0.0014969222 -0.019982347 0.012845241 0.001430045 -0.019369433 0.0063379887 0.01672064 0.0019790153
-0.014852623 0.00712784 -0.01402597 -0.016903194 0.0013647373 0.016000763 0.7262814 0.7263994
0.74493337 0.7559482 0.0042272597 -0.019872556 0.016737139 -0.011219503 0.019348187 0.004451389
-0.018132862 0.005380841 0.0006564942 0.016868558 0.0048414557 -0.004562736 -0.009165038 -0.009228117

layers.0.bias f4 [32]
00000000: f65a 3f3f 58ab 2a3f fb44 313f b278 2d3f
00000010: 6490 283f a237 2f3f bb7a e23e c5eb 2c3f
00000020: 8b27 313f fc0d 2e3f cbb2 0ebd 591c d3bc
00000030: 6ded 393f f02c 323f 1aae 273f ba9a 2d3f
00000040: 2420 b8bc 6288 b73e 4cef 2f3f f7c7 2b3f
00000050: 8fb3 26bd 6f76 1dbd de90 94bc 263e e9bc
00000060: f825 2f3f ab64 2d3f 1aa4 2e3f a2bb 1c3f
00000070: 8cfb 2a3f 6b96 e9bc 9f6c 413f 2538 ffbc
0.7474817 0.666677 0.6924588 0.6776229 0.6584532 0.68444264 0.4423426 0.67547256
0.6920096 0.6799009 -0.03483848 -0.025770353 0.7262791 0.6959982 0.6550003 0.6781422
-0.022476263 0.3584624 0.68724513 0.67102 -0.040698584 -0.038443025 -0.018135484 -0.028472017
0.6841731 0.6773173 0.6821915 0.61223805 0.6679008 -0.028514108 0.7555637 -0.031154701

layers.2.weight f4 [1, 32]
00000000: 0242 41be d37c 48be e177 9fbe 7e71 7cbe
00000010: 0f58 62be 9f0a 13be 1a09 8fbe e49e e3bd
00000020: 5dd9 74be 7260 7dbe 5002 c4bb 74bf bcb9
00000030: f050 20be 55aa 95be 9ada 4dbe dc5b f2bd
00000040: 8158 e23d 0e5f 23be 9f8c 52be 5978 1abe
00000050: 76e5 2c3d 98b7 de3d e118 133e 4e0d 953a
00000060: a9bc 73be 0e49 16be c260 41be 6a47 d8bd
00000070: f1e6 8fbe de3e 123e 0925 4ebe 9f57 093d
-0.18872836 -0.19578867 -0.31146148 -0.24652669 -0.22103904 -0.1435952 -0.2793663 -0.1111429
-0.23911043 -0.24743822 -0.005981721 -0.00036000798 -0.15655875 -0.29231516 -0.20102921 -0.11833927
0.11052037 -0.15954229 -0.20561455 -0.15084971 0.04221102 0.108748615 0.1436496 0.0011371763
-0.23802437 -0.14676306 -0.18884566 -0.10560496 -0.28105882 0.14281794 -0.20131315 0.033530828
