GraphClustering/LargeGraphs/Data/NewKarate_0_500_1_o_Forward200.pt (torch, 646043 bytes, 9 tensors)

layers.0.weight f4 [64, 2312]
0	0xbc15323a	-0.009106213
1	0x3ca54dfd	0.02017879
2	0xbc3cbd1b	-0.011519696
3	0x3ae20670	0.001724435
4	0xbb3c0478	-0.0028689187
5	0xb9aa14c0	-0.00032440387
6	0x3b9fd098	0.0048771612
7	0xbac80810	-0.0015261192
8	0xbc9d1d67	-0.01917906
9	0xbac4cac0	-0.0015014037
10	0xb9f3ea00	-0.00046522915
11	0x3c13dd1a	0.009024883
12	0x3ca67f93	0.020324504
13	0x3b6ebc50	0.003642816
14	0xbc34d421	-0.011036904
15	0x3c1b863a	0.009492451
16	0x3c86bcd9	0.016447471
17	0xbbd25c0c	-0.0064196642
18	0xbc01a93c	-0.007913884
19	0xbc2eb705	-0.010663752
20	0x3b68af50	0.0035504885
21	0xbc7218f6	-0.014776459
22	0xbbd87592	-0.0066058123
23	0x3c6013b6	0.013676574
24	0x3bb65b54	0.0055650864
25	0xbbc24c38	-0.005929496
26	0x3c964a7b	0.018346062
27	0x3b3a55f0	0.002843257
28	0xb9ed8180	-0.00045300648
29	0xbc95a213	-0.01826576
30	0x3bfb7274	0.007673556
31	0xbb514048	-0.0031929184
32	0x3c5e064a	0.013551304
33	0x3c8d4993	0.017246997
34	0xbc77f5b4	-0.015134264
35	0x3bb0337c	0.005377231
36	0xbc963e0b	-0.018340131
37	0xbc97d255	-0.018532911
38	0xbb8623d0	-0.0040936247
39	0x3c73751e	0.014859466
40	0xbc83d909	-0.016094701
41	0xbc75fa5e	-0.0150133055
42	0x3be2a5a0	0.0069167167
43	0xbbb15c44	-0.0054126102
44	0x3c7f8c5a	0.015597427
45	0x3b1108f0	0.0022130571
46	0xbc90c091	-0.017669948
47	0xbc74d067	-0.014942265
48	0x3a476500	0.0007606298
49	0x3c7b8d3e	0.015353499
50	0xbc33ac3a	-0.010966355
51	0xbc74bce5	-0.014937614
52	0x3c3cc19a	0.011520768
53	0x3b1c05d8	0.0023807194
54	0x3c52857a	0.012849206
55	0xbb83b360	-0.004019186
56	0xbc1213f5	-0.008915891
57	0xbc94f4f4	-0.018183209
58	0x3c9ae431	0.018907638
59	0x3ca33a41	0.019925239
60	0x3c588e36	0.0132174995
61	0x3bf6ef14	0.0075358246
62	0x3b97f0a8	0.0046368428
63	0x3ca9f9f7	0.020749075
64	0x3c967b13	0.018369233
65	0xbc884eb9	-0.0166391
66	0xbc9317b7	-0.017955644
67	0x3c15cc16	0.009142896
68	0x3c5ac1b2	0.013351845
69	0x3c9b4b67	0.018956853
70	0x3bddc3c4	0.006767722
71	0x3c4d66a6	0.01253668
72	0x3ca5499b	0.0201767
73	0x3b3233c8	0.0027191509
74	0xbc6f0338	-0.01458817
75	0x3bcf13b0	0.0063194856
76	0x3c98f327	0.018670632
77	0x3c129606	0.008946901
78	0x3c29bb80	0.010359645
79	0xbc4f9c12	-0.012671487
80	0x3c307b9e	0.01077166
81	0xbb849810	-0.0040464476
82	0xbbc603fc	-0.0060429554
83	0x3b938434	0.004501844
84	0x3c2f392e	0.010694785
85	0xbc970f5d	-0.018439943
86	0x3c8ffbf7	0.0175762
87	0xbc700914	-0.014650602
88	0x3c9557a1	0.018230261
89	0xbc75074a	-0.014955351
90	0xbae96820	-0.0017807521
91	0x3bb5065c	0.0055244397
92	0xbc159de0	-0.009131879
93	0xbc6b0a49	-0.014345714
94	0xbc52aa36	-0.012857964
95	0x3c736dea	0.0148577485
96	0x3a5971c0	0.0008294843
97	0x3b90c318	0.0044177882
98	0xbbd2b2e0	-0.006430015
99	0x3bcdd124	0.006281035
100	0x3c82cdd3	0.015967285
101	0x3c89fb7f	0.016843555
102	0x3a9ed730	0.0012118574
103	0xbc90fc19	-0.017698335
104	0x3c38e68e	0.011285437
105	0x3940b880	0.00018379278
106	0x3c745122	0.014911922
107	0xbc77c83e	-0.015123425
108	0xbbea1772	-0.007143908
109	0x3bccb634	0.0062473062
110	0x3c6bc1a2	0.014389427
111	0x3c6f5476	0.014607539
112	0xbc0ba2a4	-0.008522663
113	0xbc48a457	-0.012246213
114	0x3c05d2d4	0.008167941
115	0x3ae49870	0.001744045
116	0xbc837dab	-0.016051134
117	0x3c8b20c9	0.016983407
118	0x3b353af0	0.0027653538
119	0xbc3d61fc	-0.011559006
120	0xbc955a9b	-0.01823168
121	0x3bf3bab0	0.0074380264
122	0xba966eb0	-0.0011477079
123	0x3ca97f83	0.020690685
124	0x3bc1d4e4	0.005915271
125	0x3bafc2f8	0.0053638183
126	0xba8348f0	-0.0010016244
127	0xbc846ad0	-0.016164213
128	0xbca27571	-0.019831391
129	0xbc9f0591	-0.019411834
130	0xbc951f10	-0.018203288
131	0xbca445db	-0.020052841
132	0x3b0a0568	0.0021060351
133	0xbbceb85a	-0.0063085975
134	0xbc697db6	-0.014251163
135	0x3c59b916	0.013288757
136	0x3c102466	0.008797741
137	0xba8ebd20	-0.0010890104
138	0xbc0481e3	-0.008087608
139	0xbc368cd8	-0.011141978
140	0x3bc27770	0.005934648
141	0xbc9f02f6	-0.019410592
142	0xbafde1b0	-0.0019369628
143	0x3bdb5d28	0.0066944547
144	0xbc03520a	-0.008015165
145	0xbb8e9e70	-0.0043523833
146	0x3bb431dc	0.0054991078
147	0x3ca83335	0.02053223
148	0x3c10bbd0	0.0088338405
149	0x3ae77c60	0.0017660968
150	0x3c81b9bb	0.015835634
151	0x3a8a9060	0.0010571592
152	0x3c152162	0.009102197
153	0xbc9c6faa	-0.019096214
154	0xbba07790	-0.0048970655
155	0x3c88de5d	0.016707594
156	0x3a93cb90	0.0011275876
157	0x3c8908cd	0.01672783
158	0x3c39692e	0.011316581
159	0xbbe194fa	-0.0068842145
160	0xbca8622d	-0.020554626
161	0xbc7fbc96	-0.015608927
162	0xbc97b1c1	-0.018517377
163	0x3ca8c6c9	0.0206026
164	0xbc0aa5cf	-0.008462383
165	0x3c185bf8	0.009299271
166	0x3c9d9a83	0.019238716
167	0x3c22a546	0.0099271
168	0xbb7f2968	-0.0038934592
169	0x3c990381	0.018678429
170	0x3c8d4c71	0.017248364
171	0xbc976068	-0.018478587
172	0xbba35564	-0.0049845446
173	0xbc5af2ae	-0.013363523
174	0x3c7ff04a	0.015621254
175	0xbc3692a0	-0.011143357
176	0xbc261a28	-0.010138072
177	0x3c16e548	0.009209938
178	0x3b705a50	0.0036674924
179	0x3c9c6c35	0.019094566
180	0x3c8b4409	0.017000215
181	0x3c27cae8	0.010241248
182	0xbc5f4f01	-0.013629676
183	0xbc68ecb2	-0.014216589
184	0x3c73993a	0.014868075
185	0x3c55a0a2	0.013038786
186	0x3c3d8f06	0.011569744
187	0x3b1aa8b0	0.002359908
188	0x3c3613d6	0.011113128
189	0xbca0dcb3	-0.019636488
190	0xbca256f9	-0.019816862
191	0xbc2197d4	-0.009862859
192	0x3aa52800	0.0012600422
193	0x3af0ed70	0.0018381309
194	0x3c981e61	0.018569173
195	0xbc9db17a	-0.019249666
196	0x3bf52f0c	0.007482415
197	0x3c75b426	0.014996564
198	0xbc7f8b36	-0.015597155
199	0xbbf88b22	-0.0075849453
200	0x3c843203	0.016137129
201	0xbc022097	-0.00794234
202	0xbb88f690	-0.004179783
203	0x3c12a832	0.008951234
204	0x3b5411e8	0.0032359306
205	0x3c322c5e	0.010874836
206	0x3bc32750	0.005955614
207	0x3be50424	0.006989019
208	0x3a513200	0.0007980168
209	0xbc0aab07	-0.008463628
210	0x3c704f2e	0.014667315
211	0x3b8ce434	0.004299665
212	0x3c853cfd	0.016264433
213	0x3b546c48	0.0032413173
214	0x3bec8ba0	0.007218793
215	0x3c9c1563	0.019053167
216	0xbc34e454	-0.011040766
217	0x3c9d95bd	0.01923644
218	0xbc6f40b2	-0.014602827
219	0xbc0ec923	-0.008714947
220	0x3c32d6da	0.010915482
221	0xbba25c60	-0.0049548596
222	0xbb243f68	-0.0025062207
223	0x3c292dae	0.010325832
224	0x3ca4526b	0.020058831
225	0x3c880821	0.016605439
226	0xbb42bd70	-0.0029714964
227	0xbc963669	-0.018336492
228	0xbbd3b896	-0.0064612133
229	0xbc806133	-0.015671348
230	0x3b34a520	0.0027564242
231	0x3b65ae80	0.0035046637
232	0x3c7c318a	0.01539267
233	0x3c9122c3	0.017716771
234	0xb9522380	-0.00020040385
235	0xbc15e470	-0.009148702
236	0xbbb387cc	-0.0054788347
237	0xbb999a34	-0.004687572
238	0xbc9bde78	-0.01902698
239	0xbc821e7a	-0.015883673
240	0xbc7f9adf	-0.015600889
241	0xb9fa2d80	-0.00047717616
242	0xbc967e16	-0.01837067
243	0xbaa0b8a0	-0.0012262054
244	0xbc3b226f	-0.011421784
245	0xbc125575	-0.008931507
246	0x3c98c9bb	0.01865088
247	0x39a79440	0.00031963177
248	0x3c802ab7	0.015645368
249	0xbc8c1553	-0.017100012
250	0xbc25e555	-0.010125478
251	0xbc131b95	-0.008978744
252	0x3c8f08a9	0.017460184
253	0x3bd49954	0.0064880047
254	0xbb97cb9c	-0.0046324264
255	0xbc3cc34b	-0.011521171

layers.0.bias f4 [64]
0	0x3c48b962	0.01225123
1	0x3dc88ac1	0.0979209
2	0xbc608054	-0.013702471
3	0x3defde84	0.11712363
4	0xbc3598a2	-0.011083754
5	0xbd03656d	-0.03207915
6	0xbc61ac88	-0.013774045
7	0xbbca110a	-0.006166582
8	0x3dce216f	0.10064971
9	0x3dd28940	0.102800846
10	0xbc9d9a17	-0.019238515
11	0xbc92315d	-0.017845804
12	0x3dfd7e27	0.12377577
13	0x3c91b065	0.017784307
14	0xbc14797a	-0.009062165
15	0x3d91653e	0.070993885
16	0x3b84780c	0.004042631
17	0x3c713e6e	0.014724357
18	0xbc8f0dac	-0.017462574
19	0xbbe952d4	-0.0071204696
20	0xbc023cc5	-0.007949059
21	0x3c64c3a6	0.013962662
22	0xbd139661	-0.036032084
23	0xba876e00	-0.0010332465
24	0x3c2c3ede	0.010513036
25	0xbcd1cc40	-0.02561009
26	0xbc1fc379	-0.009751194
27	0xbc1a7b4d	-0.009428811
28	0xbbffa82e	-0.007802031
29	0x3c42c996	0.011888882
30	0xbd0efcf9	-0.034909222
31	0x3de81037	0.11331218
32	0x3dd1a3fd	0.102363564
33	0xbabe5a40	-0.0014522746
34	0x3d8281d1	0.06372417
35	0x3dd158ea	0.10222037
36	0x3c8af59b	0.016962817
37	0xbcacbba1	-0.021085562
38	0xbd4f0e56	-0.05055078
39	0xbb96b4b8	-0.00459918
40	0xbd38f1c6	-0.045152448
41	0xbc8dbe6b	-0.017302712
42	0xbd3c40ca	-0.045960225
43	0xbd49e938	-0.04929468
44	0xbc2c81c3	-0.0105289845
45	0x3c0f2824	0.008737598
46	0xbd2fc315	-0.042910654
47	0xbc9d4b20	-0.019200861
48	0xbd0a22cb	-0.033724587
49	0xbd2442ec	-0.040102884
50	0xbc4bda2a	-0.012442151
51	0x3bd92a08	0.006627325
52	0xbc43ce79	-0.011951082
53	0xbd00ca85	-0.031443138
54	0xbd017357	-0.031604137
55	0x3db7454e	0.08948766
56	0xbcfb5626	-0.030680727
57	0xbc8c78e3	-0.017147487
58	0xbce0bb83	-0.027433163
59	0x3da652a3	0.081212305
60	0x3bc05f10	0.0058707073
61	0xbc9bf486	-0.019037496
62	0xbd398d73	-0.045300912
63	0x3dcba4e2	0.09943558

layers.2.weight f4 [64, 64]
0	0xbd436b9c	-0.047710046
1	0xbda04cec	-0.07827172
2	0xbceeb7c0	-0.029140353
3	0xbdf5303a	-0.11972089
4	0xbcb80bb8	-0.022466525
5	0x3db4ffcc	0.08837852
6	0xbd0406b8	-0.03223297
7	0xbd30fb54	-0.043208435
8	0xbd576294	-0.052584246
9	0xbdbd149e	-0.09232448
10	0x3c4f51a0	0.012653738
11	0x3d5c1c04	0.053737655
12	0x3c5b1220	0.013371021
13	0xbd837e1c	-0.06420538
14	0xbde9e0d8	-0.11419839
15	0x3da93c1e	0.082634196
16	0xbdc8dae0	-0.09807372
17	0x3dad18d6	0.08452003
18	0xbd790674	-0.06079717
19	0x3df0963e	0.117474064
20	0x3d1ee9c8	0.03879717
21	0x3d9fefb8	0.078093946
22	0x3dbf4fdc	0.09341404
23	0xbd189ae0	-0.037257075
24	0x3d2c25b4	0.042028144
25	0xbdf4df4a	-0.119566515
26	0xbdf1d4e4	-0.11808184
27	0xbd62bed4	-0.05535777
28	0x3cc77ce8	0.024351552
29	0x3d984cb6	0.074365065
30	0xbdeeb400	-0.11655426
31	0xbc9eb7c0	-0.019374728
32	0x3d49c8d0	0.049263775
33	0xbdee5368	-0.11637002
34	0x3dc02cc6	0.0938354
35	0xbc99a310	-0.018754512
36	0xbc254450	-0.010087088
37	0x3d8c2f06	0.068449065
38	0x3de96236	0.113956854
39	0xbdba9b96	-0.09111707
40	0x3d5f845c	0.054569587
41	0xbc6617e0	-0.014043778
42	0xbdfe038a	-0.12403019
43	0x3d8a4430	0.06751287
44	0x3dc3de92	0.09563936
45	0xbd0b93dc	-0.034076557
46	0xbc834ec0	-0.016028762
47	0x3dbd18ba	0.09233232
48	0xbdabfa64	-0.083973676
49	0x3d8eba20	0.06969094
50	0xbdd9ff7c	-0.10644433
51	0xbcf66b20	-0.030080378
52	0x3d85a194	0.06524959
53	0xbcf13700	-0.029445171
54	0xbdad9476	-0.08475582
55	0xbc808898	-0.015690133
56	0xbd79e584	-0.0610099
57	0xbd8adf92	-0.06780924
58	0xbde7cffc	-0.11318967
59	0xbdea6b6a	-0.11446269
60	0xbd7f23f0	-0.062290132
61	0xbd389120	-0.045060277
62	0x3c2af3c0	0.010434091
63	0xbd644b80	-0.055736065
64	0x3d8a2f9e	0.067473635
65	0xbd9849d0	-0.074359536
66	0x3de424a6	0.11139803
67	0xbd4e03c4	-0.05029656
68	0xba5c4700	-0.0008402914
69	0xbd810e1c	-0.06301519
70	0xbd8711d6	-0.06595199
71	0x3ce91a58	0.028454944
72	0x3db0965a	0.08622427
73	0x3d0c1d3c	0.034207568
74	0xbddd9f1e	-0.10821365
75	0x3df014a6	0.117226884
76	0x3dc1eb4c	0.094687074
77	0xbcbb4d50	-0.022864014
78	0xbcd5abe0	-0.026082933
79	0x3c01c430	0.00792031
80	0x3dec351c	0.11533567
81	0x3db30620	0.087414026
82	0x3deee310	0.116644025
83	0x3d1e6f34	0.03868027
84	0x3df910d0	0.1216141
85	0x3c17d970	0.00926815
86	0x3dc55c40	0.09636736
87	0xbd94e728	-0.07270652
88	0xbda841f2	-0.08215703
89	0xbc8df518	-0.017328784
90	0x3d2d7cec	0.042355463
91	0xbcff87a8	-0.031192616
92	0xbd8ae2ae	-0.06781517
93	0xbd7ef238	-0.062242717
94	0x3d89e4ee	0.06733118
95	0xbd96390e	-0.07335101
96	0xbdc256c6	-0.09489207
97	0x3da4ca8a	0.08046444
98	0x3b8bcc40	0.004266292
99	0xbd3baeb0	-0.04582089
100	0x3cf5a468	0.029985622
101	0xbdd255c6	-0.10270266
102	0xbd849516	-0.064737484
103	0x3de72618	0.11286563
104	0xbda6109e	-0.08108638
105	0x3deaaa32	0.114582434
106	0x3d0be750	0.034156144
107	0x3d77d314	0.060504034
108	0x3c4c8a80	0.012484193
109	0x3df1f998	0.11815184
110	0x3ccdb4f0	0.025110692
111	0xbd1f1364	-0.03883685
112	0xbd8ed402	-0.06974031
113	0xbc39c650	-0.011338785
114	0x3c7beb60	0.015375942
115	0xbdefdf1a	-0.11712475
116	0xbd88650a	-0.06659897
117	0x3dc90af2	0.09816541
118	0xbd45e194	-0.04831083
119	0xbd902812	-0.07038893
120	0x3dcfe75a	0.10151549
121	0xbde70930	-0.11281049
122	0x3de0070e	0.109388456
123	0x3de61848	0.112351
124	0xbd9c1c2a	-0.07622559
125	0xbd7b999c	-0.06142579
126	0xbad42c80	-0.0016187578
127	0x3cceab68	0.025228217
128	0x3ce9b948	0.028530732
129	0xbcc4d3d8	-0.024026796
130	0x3d580cec	0.0527467
131	0xbb91de60	-0.004451558
132	0x3cf9d730	0.030498117
133	0x3d9e71f0	0.077365756
134	0xbdd5879a	-0.104262546
135	0xbc8f4120	-0.017487109
136	0xbc415c80	-0.011801839
137	0xbd47fca0	-0.048824906
138	0x3cbb2860	0.0228464
139	0x3df6da22	0.12053324
140	0xbcded340	-0.027200341
141	0x3bbdc860	0.005791709
142	0x3d55daf4	0.052210763
143	0xbdad26a4	-0.08454636
144	0xbdf5804c	-0.11987361
145	0xbd99ce04	-0.075099975
146	0x3d8f492c	0.06996378
147	0x3bc5e520	0.0060392767
148	0x3cfc5298	0.030801103
149	0xbccd46c0	-0.02505815
150	0x3de7c60e	0.11317073
151	0x3df605b4	0.120128065
152	0xbb2ff1c0	-0.0026846975
153	0x3da4c65c	0.080456465
154	0xbdd6674a	-0.104689196
155	0xbd83bcda	-0.06432505
156	0x3d258b0c	0.04041581
157	0x3da9c968	0.08290368
158	0x3ded7dfa	0.11596294
159	0xbd285c80	-0.04110384
160	0x3d45b4a8	0.04826799
161	0xbd705e70	-0.058683813
162	0xbd666cb8	-0.056256026
163	0xbdc50832	-0.09620704
164	0xbda79fbc	-0.08184764
165	0xbc8695c0	-0.016428828
166	0x3d1a4bfc	0.03767012
167	0xbde261a8	-0.11053783
168	0x3dcb393a	0.099230245
169	0xbd77c888	-0.060493976
170	0x3b32c5c0	0.0027278513
171	0x3d8ee498	0.069771945
172	0x3d01a93c	0.031655535
173	0xbdc08726	-0.094007775
174	0xbdbd3d8c	-0.09240255
175	0x3c5242e0	0.012833327
176	0x3d9cffc6	0.076659724
177	0xbcbdd258	-0.023171589
178	0x3df5db70	0.12004745
179	0xbde06c00	-0.10958099
180	0x3ce2afd8	0.02767174
181	0x3dbb5c8e	0.09148513
182	0x3dfeae8c	0.12435636
183	0xbd06e93c	-0.032937273
184	0x3d64e184	0.05587913
185	0xbd668534	-0.056279376
186	0x3c9ef220	0.019402564
187	0xbdedc070	-0.1160897
188	0x3c998758	0.018741295
189	0xbce21f18	-0.027602717
190	0xbd194660	-0.03742063
191	0xbd4b3900	-0.049614906
192	0xbce68ad8	-0.028142378
193	0xbdf8ddea	-0.12151702
194	0x3d38fd08	0.045163184
195	0x3d83efc3	0.06442215
196	0xbbca6bc9	-0.0061774
197	0x3da781df	0.08179068
198	0xbdd9a625	-0.10627393
199	0x3d9ed2aa	0.07755025
200	0xbd180071	-0.037109796
201	0xbdb20105	-0.08691601
202	0xbd5ea628	-0.054357678
203	0xbc902e00	-0.01760006
204	0x35bd4ed9	1.4104545e-06
205	0xbceed798	-0.029155537
206	0x3de25552	0.1105143
207	0xbd383c8a	-0.04497961
208	0xbc90aea8	-0.017661408
209	0x3daba17e	0.083804116
210	0x3df5ba4a	0.119984224
211	0xbd167e50	-0.036741555
212	0x3de12468	0.10993272
213	0x3df06116	0.11737268
214	0xbdca325c	-0.098728865
215	0x3d77acb8	0.06046745
216	0x3db5a730	0.08869779
217	0xbd42df69	-0.04757634
218	0x3ca68d16	0.020330947
219	0xbd8161b6	-0.06317465
220	0xbda8763c	-0.082256764
221	0x3da8e6ae	0.08247124
222	0x3d3f252a	0.0466663
223	0xbd1e392e	-0.03862875
224	0xbe169344	-0.14704615
225	0xbcd2de40	-0.025740743
226	0xbd951821	-0.07279993
227	0x3d1e14ba	0.038593985
228	0xbd5cce3c	-0.053907618
229	0xbc0406e0	-0.00805828
230	0xbbcec135	-0.006309653
231	0xbd15591c	-0.036461934
232	0x3db31234	0.08743706
233	0x3cb9c66f	0.022677628
234	0xbd18622c	-0.037203
235	0xbd497eaa	-0.049193062
236	0x3debf8b2	0.11522044
237	0xbdbd7ec4	-0.09252694
238	0x3dcfaca4	0.101403505
239	0xbd0d5d90	-0.034513056
240	0xbc2da7f0	-0.010599121
241	0xbd68410d	-0.056702662
242	0x3dab6036	0.0836796
243	0xbd41f654	-0.047354057
244	0xbd4472af	-0.047960933
245	0x3da05935	0.07829515
246	0x3d8a0d75	0.06740848
247	0x3da4ee02	0.08053209
248	0xbdb78169	-0.0896023
249	0x3dcb042a	0.099129036
250	0x3d3ab98e	0.045587115
251	0x3d673cb4	0.056454375
252	0x3a433d00	0.00074477494
253	0x3d865558	0.06559247
254	0xbdd4a112	-0.10382284
255	0xbe1238f2	-0.14279535

layers.2.bias f4 [64]
0	0x3cd60ab0	0.026128143
1	0xbc8a9920	-0.016918719
2	0xbd63d230	-0.055620372
3	0xbcae7e8c	-0.021300577
4	0x3d826e6d	0.06368718
5	0x3e304c50	0.17216611
6	0x3b1e81c9	0.0024186245
7	0xbd9b93fc	-0.07596585
8	0x3e1a8238	0.15088737
9	0x3e2c26b9	0.16811647
10	0xbde90754	-0.11378351
11	0x3d4c9fcc	0.04995708
12	0x3ad27880	0.001605764
13	0x3df69758	0.12040585
14	0x3d2c3a99	0.04204807
15	0xbe0d13c7	-0.13777076
16	0x3de91261	0.113804586
17	0xbd791d95	-0.060819227
18	0x3d68e1ff	0.05685615
19	0xbd769710	-0.06020266
20	0xbc88e9f6	-0.016713124
21	0x3e0bda16	0.13657412
22	0xbca434d3	-0.02004472
23	0xbddc979e	-0.10771106
24	0xbd60be0c	-0.054868743
25	0x3d434aeb	0.04767887
26	0x3d57939e	0.052631013
27	0xbddf7bf5	-0.10912315
28	0x3e3cb418	0.18428075
29	0xbdfd2df4	-0.123622805
30	0xbdcd1c0d	-0.10015116
31	0x3d80beb0	0.06286371
32	0x3e72e0ee	0.23718616
33	0x3d529ebc	0.051420912
34	0xbdfdafd2	-0.12387051
35	0xbd2bd442	-0.04195047
36	0x3c672edc	0.014110293
37	0x3e4ab911	0.1979716
38	0xbdcdac19	-0.10042591
39	0x3e6ad360	0.22932196
40	0xbd04b692	-0.032400675
41	0x3d5f71a4	0.054551736
42	0x3cf2b958	0.029629394
43	0xbe07da9b	-0.13266985
44	0xbdf58400	-0.119880676
45	0xbdc0e96c	-0.09419522
46	0x3e5c4dc5	0.21514042
47	0xbcae1c40	-0.021253705
48	0xbdaf88ac	-0.0857099
49	0x3e0e5e7b	0.13903229
50	0x3dcd6e5b	0.10030814
51	0x3e398ca2	0.18120053
52	0x3e59afc5	0.21258457
53	0x3e3a8b98	0.18217313
54	0xbddfe21a	-0.10931797
55	0x3e50208d	0.20324917
56	0x3ccfe103	0.025375849
57	0x3e474384	0.19459349
58	0x3d90cefb	0.070707284
59	0x3d8e2a10	0.069416165
60	0x3d6fc7a9	0.05854002
61	0x3daba75d	0.083815314
62	0x3db98c1f	0.09059929
63	0x3ccef794	0.025264539

layers.4.weight f4 [64, 64]
0	0xbd041cec	-0.032254145
1	0x3dc10542	0.09424831
2	0x3dca6ec6	0.098844096
3	0x3dec8fb4	0.11550847
4	0x3d12162c	0.035665676
5	0xbdb914d4	-0.09037176
6	0x3dceb7ae	0.10093628
7	0xbdfe0f04	-0.12405208
8	0x3d832786	0.06404023
9	0xbd7a4f7c	-0.06111096
10	0xbd87e5d2	-0.066356316
11	0x3dd3f852	0.10350098
12	0x3d29b504	0.041432396
13	0x3c8fddb8	0.017561778
14	0xbd545618	-0.051839918
15	0xbd4cc1b8	-0.049989432
16	0xbc4fbf40	-0.012679875
17	0x3cdd3a90	0.027005464
18	0xbccaa018	-0.024734542
19	0x3d881002	0.06643678
20	0x3df3fc9e	0.11913417
21	0x3dcc8a84	0.09987357
22	0x3ca98450	0.020692974
23	0x3d3eb2b4	0.046557143
24	0xbbec4960	-0.0072108954
25	0x3da6d532	0.081461325
26	0x3c8539e8	0.016262963
27	0x3d1f7198	0.03892669
28	0xbdda4aa8	-0.10658771
29	0xbdf97164	-0.12179831
30	0x3dab9e38	0.08379787
31	0x3b961a20	0.004580751
32	0xbdcfdbbe	-0.10149334
33	0xbd838b4c	-0.06423053
34	0xbdfa3d06	-0.122186705
35	0xbdaa5cf4	-0.08318511
36	0xbdc9a84e	-0.09846555
37	0xbcec7108	-0.028862491
38	0xbcccb098	-0.02498655
39	0xbdfec90e	-0.12440692
40	0x3da7f5b8	0.08201164
41	0x3d82f25c	0.06393883
42	0xbde0c042	-0.1097417
43	0x3d89b39a	0.067237094
44	0xbc01c9d0	-0.007921651
45	0x3dfcce4a	0.12344034
46	0xbd85bf68	-0.065306485
47	0x3de8a06a	0.113587216
48	0xbdd6e36c	-0.10492596
49	0xbd261fdc	-0.040557727
50	0x3cb84de8	0.022498086
51	0xbdef6dfc	-0.116909
52	0x3d9124d8	0.070871055
53	0xbc20d7a0	-0.009817034
54	0xbbcaf980	-0.0061942935
55	0xbddc21a2	-0.107486024
56	0xbc6c5230	-0.014423892
57	0xbdf0b9f0	-0.11754215
58	0xbdfcfb7a	-0.12352653
59	0x3d8484ac	0.06470618
60	0xbd7d1798	-0.06179008
61	0xbd38b7a4	-0.04509701
62	0x3d70cc9c	0.05878888
63	0xbd86665c	-0.06562492
64	0x3d860996	0.06544797
65	0x3d9814d2	0.07425846
66	0x3d4d19e4	0.05007352
67	0x3d727cd8	0.05920109
68	0x3dbbf4c4	0.09177545
69	0x3df2ab0d	0.118490316
70	0x3d83b0a3	0.06430175
71	0xbc08d9d0	-0.008352712
72	0x3e339c38	0.17540061
73	0x3d08bebc	0.033385023
74	0xbddf742e	-0.109108314
75	0xbd31dbfc	-0.043422684
76	0xbd268c78	-0.040661305
77	0x3e2154b9	0.15754975
78	0xbd940552	-0.07227577
79	0x3db0e2c1	0.08637
80	0x3e142586	0.14467439
81	0x3dda9d41	0.10674525
82	0x3d6f56bf	0.058432337
83	0x3bbf08af	0.0058298926
84	0x3dff3379	0.124609895
85	0x3bd56cac	0.006513199
86	0x3dc4d6f6	0.09611313
87	0xbda3ec09	-0.080040045
88	0x3d9335b0	0.071879745
89	0xbc3049d0	-0.010759786
90	0x3cf77df2	0.030211423
91	0x3c53597b	0.012899752
92	0x3da53fa2	0.080687776
93	0xbdd76d48	-0.105188906
94	0x3c2ec520	0.010667115
95	0xbdb5a2a0	-0.08868909
96	0xbd5270c7	-0.051377084
97	0xbc8579c0	-0.016293406
98	0xbcdfa098	-0.027298257
99	0x3e0d7717	0.1381496
100	0xbd881342	-0.06644298
101	0x3d2659b6	0.0406129
102	0x3ce8df41	0.028426768
103	0xbd7f1ebd	-0.062285174
104	0x3df9e2a6	0.12201433
105	0x3c272110	0.010200754
106	0xbb84bd60	-0.0040508956
107	0xbc5e4f23	-0.013568672
108	0xbd112930	-0.03543967
109	0xbdc70c3e	-0.09719132
110	0xbd89fbbc	-0.06737468
111	0xbd6fa3b4	-0.05850573
112	0xbda9bcf4	-0.08287993
113	0x3e2a22ec	0.16614884
114	0xbccc058a	-0.024904985
115	0xbcba657b	-0.022753468
116	0xbd1e025f	-0.03857648
117	0x3dfcaecd	0.12338028
118	0xbd66ea74	-0.056375936
119	0xbc666d84	-0.0140641965
120	0xbd013080	-0.031540394
121	0xbd34ef56	-0.04417356
122	0x3e18f850	0.14938474
123	0x3e2d222d	0.16907568
124	0x3dc92929	0.09822304
125	0x3be8499e	0.007088854
126	0x3c6d66f0	0.014489874
127	0x3ce2e7d8	0.027698442
128	0xbd167f04	-0.036742225
129	0xbd2753cc	-0.0408514
130	0x3d89c114	0.0672628
131	0xbbc07a68	-0.005873967
132	0xbcae61c0	-0.021286845
133	0xbd0d45af	-0.034490284
134	0xbd2f46ac	-0.042792007
135	0x3d9bf4be	0.0761504
136	0xbe066ee4	-0.13128239
137	0xbd9281b3	-0.071536444
138	0xbcdb3f18	-0.026763484
139	0x3d274f00	0.040846825
140	0x3c9f2fb8	0.019431934
141	0xbdfef882	-0.12449743
142	0xbe1130a1	-0.14178707
143	0x3d5ca05c	0.053863868
144	0xbe184abf	-0.14872263
145	0xbdb7e346	-0.08978896
146	0xbccafb5f	-0.024778066
147	0x3d39a900	0.045327187
148	0x3dd6a7a8	0.10481197
149	0xbcc62034	-0.024185278
150	0x3de16faa	0.11007626
151	0x3df00518	0.117197216
152	0x3d55e9ec	0.05222504
153	0x3d8cd702	0.06876947
154	0x3cf188d6	0.029484194
155	0xbd399a44	-0.045313135
156	0xbdc57d05	-0.09642986
157	0x3cbd9298	0.02314119
158	0xbdac2ac4	-0.084065944
159	0xbdb07a28	-0.086170495
160	0x3d9143f8	0.07093042
161	0xbced4325	-0.028962681
162	0xbc1a7070	-0.009426221
163	0x3dd033f0	0.10166156
164	0x3d8decda	0.069299415
165	0x3d682ff6	0.056686364
166	0xbdb9bc15	-0.09069077
167	0xbd724a1e	-0.059152715
168	0xbd7923d0	-0.06082517
169	0xbdbd2e2b	-0.092373215
170	0xbd36e594	-0.044652537
171	0xbc7379d0	-0.014860585
172	0xbcf78470	-0.030214518
173	0xbcab2298	-0.020890519
174	0x3d4508fd	0.048104275
175	0xbcfe8570	-0.031069487
176	0x3db7fa4e	0.08983289
177	0x3d0eb3f8	0.0348396
178	0x3da9e891	0.08296312
179	0xbdb063bc	-0.08612773
180	0xbcaa0cff	-0.02075815
181	0xbda19d9c	-0.0789139
182	0x3dbb9036	0.091583654
183	0xbde97fcb	-0.11401328
184	0xbd904bee	-0.070457324
185	0x3d43cae7	0.047800925
186	0x3c09fbd9	0.008421862
187	0xbe17ac6f	-0.14811872
188	0x3c119419	0.008885407
189	0x3d0d4355	0.03448804
190	0xbde0a1c6	-0.10968356
191	0x3db59677	0.088665895
192	0xbd5c6b10	-0.05381304
193	0xbd8ccd6e	-0.0687512
194	0xbd7cb94c	-0.06170015
195	0xbd8a8c32	-0.067650214
196	0xbd2137af	-0.039359745
197	0x3e05e1f8	0.13074481
198	0xbd61dc05	-0.055141468
199	0xbda87caa	-0.08226903
200	0xbca5044d	-0.020143652
201	0xbd2de0b2	-0.042450614
202	0x3d8f3bb8	0.06993812
203	0xbda09a3c	-0.07841918
204	0xbd7398f8	-0.059472054
205	0x3d5d26a0	0.053991914
206	0x3d9103b8	0.070807874
207	0x3c341b5f	0.010992854
208	0x3e28bbb7	0.16477858
209	0xbe1bc969	-0.1521355
210	0x3cc2d6d9	0.023784088
211	0x3d3b7c42	0.0457728
212	0x3d601e6f	0.054716524
213	0x3d4c6692	0.049902506
214	0xbcf8c13d	-0.03036558
215	0x3da633ba	0.08115335
216	0xbd405504	-0.046956077
217	0xbdab13ba	-0.08353372
218	0x3e05a46d	0.13051005
219	0x3d334423	0.043766152
220	0x3df251db	0.11832019
221	0x3de3ff5e	0.11132692
222	0xbd138db8	-0.036023825
223	0x3d12e348	0.035861284
224	0x3deaf4b5	0.114724554
225	0x3e405a08	0.18784344
226	0xbdf0fcea	-0.117669895
227	0x3c232676	0.0099579
228	0x3e2deb6f	0.16984342
229	0x3e39992b	0.18124835
230	0xbd861b8d	-0.06548224
231	0xbbd11a4b	-0.006381308
232	0x3d1902f7	0.037356343
233	0xbd47c143	-0.048768293
234	0xb81c4000	-3.7252903e-05
235	0xbd6a0984	-0.05713798
236	0xbcf9b540	-0.030481935
237	0xbd153b74	-0.036433652
238	0x3e0ddcb2	0.1385372
239	0xbc6a3260	-0.014294237
240	0x3da46bf6	0.080284044
241	0x3ce94e5a	0.028479744
242	0x3d909f0e	0.07061587
243	0x3d9c927e	0.07645129
244	0x3dc624bf	0.096749775
245	0x3bf24467	0.007393408
246	0x3da7376c	0.08164868
247	0xbbdcfcdb	-0.00674401
248	0x3deb8810	0.11500561
249	0x3da75953	0.08171334
250	0x3df197ae	0.11796509
251	0x3e40fa7d	0.18845554
252	0xba680fd5	-0.0008852457
253	0xbd48bb2e	-0.049006633
254	0x3dbe7825	0.093002595
255	0x3d891d28	0.06695014

layers.4.bias f4 [64]
0	0xbdddaca0	-0.10823941
1	0x3cee739b	0.02910786
2	0xbd0785df	-0.033086654
3	0x3e56567c	0.20931429
4	0x3e814886	0.25250643
5	0x3e5d6fbd	0.21624656
6	0xbccc3ee3	-0.02493233
7	0x3e80ecd9	0.251807
8	0xbd99bcac	-0.075066894
9	0x3c8035ce	0.015650656
10	0xbd0b05c6	-0.033941053
11	0xbdfc6849	-0.12324578
12	0x3cf96ed8	0.030448362
13	0xbc5b4be0	-0.013384789
14	0xbe145297	-0.1448463
15	0xbe35fcd4	-0.17772228
16	0x3e24d403	0.16096501
17	0x3d8b2d9f	0.06795811
18	0x3dd0f5fb	0.10203167
19	0x3d25b885	0.040459175
20	0xbd9dfe9c	-0.077145785
21	0xbc2904df	-0.010316103
22	0xbd3dd08c	-0.046341464
23	0xbd60a07c	-0.05484055
24	0x3d7220fc	0.059113488
25	0x3d28f40d	0.04124837
26	0xbe23f5db	-0.16011755
27	0xbdabd620	-0.083904505
28	0x3c5f50d0	0.013630107
29	0x3e2f865f	0.17141102
30	0x3cb30958	0.021855041
31	0x3c1c87f9	0.009553903
32	0x3d18ff70	0.03735298
33	0xbdc48f5c	-0.09597656
34	0x3df8394d	0.12120304
35	0x3e46b12b	0.19403522
36	0xbd803c8b	-0.06261548
37	0xbcb949bc	-0.022618167
38	0xbdc738c1	-0.09727622
39	0x3e14cc55	0.14531071
40	0xbc97ad10	-0.01851514
41	0x3d27b220	0.040941358
42	0x3e2adae9	0.1668507
43	0xbd8e4b70	-0.06947982
44	0xbdc221ac	-0.09479079
45	0xbccadfb5	-0.024764875
46	0xbd6cd7f9	-0.057823155
47	0xbdf6d5b0	-0.120524764
48	0x3d072a8a	0.032999553
49	0x3e875d8d	0.2643856
50	0xbc1b9bcc	-0.009497594
51	0xbde359df	-0.11101126
52	0x3d12de0a	0.035856284
53	0xbdcabed9	-0.098996826
54	0xbd4fd93d	-0.050744284
55	0xbde2fe56	-0.11083667
56	0x3d3c0c19	0.045909975
57	0xbdefdd78	-0.11712164
58	0x3d4b7870	0.049675405
59	0xbd3a23cc	-0.045444295
60	0xbcadd4f8	-0.021219715
61	0x3cd8d2d0	0.02646771
62	0xbd13923b	-0.036028128
63	0x3d28ed1c	0.04124175

layers.6.weight f4 [64, 64]
0	0xbc9a38e8	-0.018825963
1	0xbdda4984	-0.10658553
2	0x3dd7c414	0.10535446
3	0xbccf45a2	-0.025301758
4	0xbd45cd11	-0.04829127
5	0xbdb03d75	-0.08605472
6	0x3d8d95ca	0.069133356
7	0xbd2d0328	-0.04223934
8	0x3956b000	0.00020474195
9	0x3d5db358	0.054126114
10	0xbcf650a0	-0.030067742
11	0x3cda29fb	0.026631346
12	0xbca8eee0	-0.020621717
13	0xbc2d11c0	-0.010563314
14	0x3d8cd528	0.06876594
15	0xbdf4e129	-0.119570084
16	0xbcb310bc	-0.021858566
17	0x3aee1d00	0.0018166602
18	0x3c639400	0.013890266
19	0x3c93c880	0.018039942
20	0x3cdae102	0.02671862
21	0xbd97bd00	-0.07409096
22	0x3deb6b8e	0.11495124
23	0x3bcb50e0	0.0062047094
24	0x3d6e2d1c	0.05814849
25	0xbdc51aea	-0.09624274
26	0x3cf3c270	0.029755801
27	0x3c8cec3a	0.017202485
28	0x3d26229d	0.040560354
29	0xbdc4c483	-0.09607794
30	0x3d463d50	0.048398316
31	0x3de790a2	0.113068834
32	0xbd664e88	-0.056227237
33	0x3d08af18	0.033370107
34	0x3d51ce15	0.051221926
35	0x3d8491ca	0.064731196
36	0xbcba9742	-0.022777203
37	0xbd6139c4	-0.05498673
38	0xbd951378	-0.07279104
39	0xbc78472e	-0.015153689
40	0x3de13638	0.109966695
41	0xbe13609f	-0.14392327
42	0xbda1a029	-0.07891876
43	0x3d6f2a68	0.05839005
44	0xbdcbdb3a	-0.099539235
45	0x3dccc20c	0.09997949
46	0xbcbc216a	-0.022965152
47	0x3cd4a4e3	0.02595753
48	0x3d315590	0.04329449
49	0xbe1847d2	-0.14871147
50	0xbd8b627c	-0.06805894
51	0xbd71e8c3	-0.05905987
52	0xbd9de120	-0.07708955
53	0xbda451ce	-0.080234155
54	0xbdedecb4	-0.11617413
55	0x3ccdb3ed	0.02511021
56	0xbdcea8cf	-0.100907914
57	0xbd17f2e8	-0.037096888
58	0x3ce0f9f0	0.02746293
59	0x3da330da	0.07968302
60	0x3d9c4858	0.07630986
61	0x3d8e8da5	0.0696061
62	0xbd8a6ebc	-0.06759402
63	0x3dfc8190	0.123293996
64	0x3d86adb4	0.065761
65	0x3d20287c	0.03910111
66	0xbd85d84a	-0.065353945
67	0x3d2de5cd	0.042455483
68	0x3dd7436f	0.10510909
69	0x3e05034a	0.12989536
70	0xbd51fba2	-0.051265366
71	0x3e2ec82c	0.17068547
72	0x3d4eaca0	0.050457597
73	0xbdad2821	-0.084549196
74	0xbdbb3257	-0.09140461
75	0xbd55ad7e	-0.05216741
76	0x3d5e2ed0	0.054243863
77	0x3dad40bc	0.08459613
78	0x3e0539cb	0.13010328
79	0x3e21b77d	0.15792651
80	0xbcb4b6c4	-0.022059806
81	0x3daf4b8d	0.08559332
82	0x3e336d4d	0.17522164
83	0x3dbe7e45	0.09301428
84	0xbd005a71	-0.03133625
85	0x3d5329fb	0.051553708
86	0xbd6dc814	-0.058052137
87	0x3d75ac24	0.05997862
88	0x3c4f06e0	0.0126359165
89	0xbd77c8bc	-0.06049417
90	0xbda49f14	-0.08038154
91	0x3e165a53	0.14682893
92	0x3e301bf9	0.1719817
93	0x3d8c6a1c	0.06856176
94	0x3d316400	0.043308258
95	0xbcd8428d	-0.026398921
96	0x3e3bff9c	0.18359226
97	0xbbad7e60	-0.005294606
98	0x3e0bc577	0.13649546
99	0x3e3789f2	0.17923716
100	0x3e03c8ca	0.12869564
101	0xbcbc04ef	-0.022951571
102	0x3c2175c6	0.0098547395
103	0x3e0f23a1	0.13978435
104	0x3d90fb9a	0.07079239
105	0x3d71f615	0.059072573
106	0xbcbb8d63	-0.022894567
107	0xbdaa4f3a	-0.083158925
108	0x3d1ac218	0.03778276
109	0xbd94bd5c	-0.0726268
110	0x3cf9d27a	0.03049587
111	0xbd505db2	-0.050870605
112	0x3d1c338f	0.038135108
113	0x3dc876d5	0.097882904
114	0x3c96ddfc	0.018416397
115	0xbbc55811	-0.006022461
116	0xbcfd03d7	-0.03088562
117	0xbd0718c0	-0.032982588
118	0xbd8f58ea	-0.06999381
119	0xbd79b170	-0.060960233
120	0xbd639542	-0.055562265
121	0x3d5b2884	0.053505436
122	0x3d133126	0.035935543
123	0xbd7ce268	-0.061739355
124	0x38c39800	9.326637e-05
125	0x3e196974	0.14981633
126	0xbdba2f14	-0.09091011
127	0x3d7bc1b8	0.06146404
128	0xbd94bbaa	-0.072623566
129	0x3dd0f250	0.102024674
130	0x3c786c19	0.015162491
131	0xbdb6a413	-0.089180134
132	0x3ced1348	0.028939858
133	0xbdc2c9bb	-0.09511133
134	0xbda0c83c	-0.07850692
135	0xbe10f453	-0.14155702
136	0x3d6c9c94	0.057766512
137	0xbcdd5054	-0.027015842
138	0x3d786078	0.060638875
139	0x3df5532c	0.119787544
140	0xbd15023c	-0.036379084
141	0xbcf864f0	-0.030321568
142	0x3c31cf50	0.01085265
143	0xbdd4c046	-0.10388236
144	0xbd233dab	-0.039853733
145	0xbdb95c70	-0.09050834
146	0xbdf66380	-0.12030697
147	0x3dacde09	0.08440787
148	0x3d2facec	0.04288952
149	0xbc22df40	-0.009940922
150	0x3dd13646	0.1021543
151	0xbd2f3070	-0.042770803
152	0x3d0e825c	0.03479229
153	0xbe1cc84b	-0.1531078
154	0xbd28340c	-0.04106526
155	0x3de20cae	0.11037575
156	0x3d6a0c50	0.05714065
157	0xbdc23f0d	-0.09484682
158	0xbd8eb7a0	-0.069686174
159	0x3d8d5ce0	0.0690248
160	0xbd8adae9	-0.06780035
161	0xbdf4b5c4	-0.119487315
162	0xbdcff735	-0.10154573
163	0x3d4f15ac	0.050557777
164	0x3cba10f0	0.022713155
165	0x3bac5a33	0.005259776
166	0xbdc197f6	-0.094528124
167	0xbd2f7bc2	-0.042842634
168	0x3dfd2a6e	0.123616084
169	0x3da9e5dc	0.08295795
170	0xbdd0a3f2	-0.1018752
171	0xbdd72ab0	-0.10506189
172	0x3db8e144	0.09027341
173	0x3d6ccdb8	0.057813376
174	0xbb2773c0	-0.002555117
175	0xbc252a10	-0.010080829
176	0x3d140489	0.036137138
177	0x3d36dde7	0.044645216
178	0x3d5fefaa	0.05467192
179	0xbcdf4148	-0.027252808
180	0xbd4428bc	-0.04789041
181	0x3da7c9e4	0.081928045
182	0x3df20208	0.11816794
183	0x3d384d38	0.044995517
184	0xbd1fade4	-0.038984194
185	0x3df8ac92	0.1214229
186	0x3cb24db6	0.021765571
187	0x3ddc8eb8	0.10769409
188	0xbd986f8a	-0.074431494
189	0x3de417e8	0.11137372
190	0xbd114503	-0.035466205
191	0x3de88026	0.113525674
192	0x3d5a0a48	0.05323246
193	0xbd01c5df	-0.031682845
194	0x3cca8a40	0.024724126
195	0x3d969894	0.07353321
196	0x3df0e3d6	0.11762206
197	0x3dada7e2	0.08479287
198	0x3dcc8a44	0.099873096
199	0xbc9d8e40	-0.01923287
200	0xbd603ba0	-0.054744363
201	0x3e07004b	0.13183706
202	0xbd801276	-0.06253521
203	0x3e00102d	0.1250617
204	0xbd8a5870	-0.06755149
205	0x3d8df314	0.06931129
206	0xbd03c0d4	-0.032166317
207	0x3b481c3a	0.0030534402
208	0x3e2e3e3e	0.17015931
209	0x3e026aa8	0.12735999
210	0x3d1bc809	0.038032565
211	0xbd383434	-0.04497166
212	0x3b2bbb06	0.0026204004
213	0xbce5a8e3	-0.028034633
214	0xbd425d2c	-0.047452137
215	0xbd8d004c	-0.06884822
216	0x3b3caa00	0.0028787851
217	0xbcf6f6f4	-0.030147053
218	0xbd949171	-0.07254303
219	0x3db7bbef	0.08971392
220	0x3e2e0258	0.16993082
221	0x3e3b6a4d	0.1830227
222	0xbdec054a	-0.11524446
223	0xbbf80d5d	-0.0075699524
224	0x3e19b500	0.15010452
225	0x3dfebac8	0.124379694
226	0x3e32581b	0.17416422
227	0x3d660450	0.056156456
228	0x3d36eac2	0.044657476
229	0xbcaad084	-0.020851381
230	0xbd6a4831	-0.057197753
231	0x3cbb9e2a	0.022902567
232	0xbd288f3c	-0.041152224
233	0xbd29d2dd	-0.04146086
234	0x3dda8b97	0.10671156
235	0x3d143cdc	0.036190853
236	0x3deec25a	0.11658163
237	0x3dfe36b0	0.124127746
238	0xbd796b43	-0.06089331
239	0xbda7f90d	-0.082017995
240	0x3c8107ae	0.015750732
241	0x3def3be0	0.11681342
242	0xbda93949	-0.082628794
243	0xbdc74e4c	-0.09731731
244	0x3cd90f1a	0.026496459
245	0x3c043e04	0.008071426
246	0xbc56611e	-0.013084678
247	0x3e17987c	0.14804262
248	0xbd6f2492	-0.058384486
249	0xbde9ee16	-0.114223644
250	0x3d10330a	0.035204925
251	0xbd9c8282	-0.0764208
252	0xbda587dc	-0.08082554
253	0x3e0071ab	0.12543361
254	0x3d974bf5	0.073875345
255	0xbd88ef96	-0.066863224

layers.6.bias f4 [64]
0	0xbd01c970	-0.031686246
1	0x3e578934	0.21048433
2	0x3c9a22e3	0.018815463
3	0x3e2d1755	0.16903432
4	0xbd613c6b	-0.05498926
5	0xbce81d31	-0.028334232
6	0x3de7a605	0.113109626
7	0xbd6eac54	-0.058269814
8	0x3c488218	0.012238048
9	0x3c6682e0	0.014069289
10	0x3dfbe701	0.1229992
11	0xbd819d1c	-0.06328794
12	0x3ae748af	0.0017645563
13	0x3e706189	0.23474707
14	0x3e3cdd3f	0.18443774
15	0x3e056b60	0.13029242
16	0xbc5bbc70	-0.013411626
17	0x3e23cdf7	0.15996538
18	0xbcecd830	-0.02891168
19	0xbdc8e2f5	-0.098089136
20	0x3e1e9381	0.15485956
21	0x3e3c5dc5	0.18395145
22	0x3c350fdf	0.011051147
23	0xbd2a3d18	-0.04156217
24	0x3e820765	0.25396267
25	0x3d468053	0.048462223
26	0xbd35fad6	-0.04442867
27	0x3d5f8980	0.05457449
28	0xbd7ba804	-0.06143953
29	0xbdb57935	-0.08861009
30	0xbd6de434	-0.05807896
31	0xbda48c85	-0.080346145
32	0x3db849ff	0.08998489
33	0x3e873d74	0.26414073
34	0x3d8bba69	0.06822664
35	0x3bcbfe40	0.0062253773
36	0x3e86e212	0.26344353
37	0x3e51af8d	0.20477124
38	0xbd02df22	-0.031951077
39	0x3d538557	0.051640835
40	0xbdd274a6	-0.10276155
41	0xbe10d054	-0.14141971
42	0xbd3a4e6c	-0.045484945
43	0x3d9cb185	0.07651047
44	0x3dddb464	0.108254224
45	0x3e150c87	0.1455556
46	0xbc736ef0	-0.0148579925
47	0x3e2a8409	0.1665193
48	0xbde2a3aa	-0.11066373
49	0xbc316c51	-0.010829047
50	0x3e02cd54	0.12773639
51	0x3cfde42a	0.030992586
52	0x3d171a70	0.036890447
53	0x3db06911	0.0861379
54	0x3d8067cf	0.062698
55	0xbb4ddbda	-0.003141156
56	0xbddc2058	-0.107483566
57	0x3da891bb	0.08230921
58	0x3e895dbf	0.26829335
59	0xbd0a8b0d	-0.033824015
60	0xbd825370	-0.06363571
61	0xbd9550bb	-0.07290789
62	0xbcafac7c	-0.021444552
63	0x3dcd3fbe	0.100219235

layers.8.weight f4 [1, 64]
0	0xbc0baa80	-0.008524537
1	0xbdfcbc50	-0.12340605
2	0x3cc13ca4	0.023588486
3	0xbddb686c	-0.10713276
4	0x3d508ee8	0.050917536
5	0xbac4fbf1	-0.0015028698
6	0xbe14ab45	-0.14518459
7	0x3da4750a	0.08030136
8	0xbe10822e	-0.1411216
9	0xbdc1a0fc	-0.094545335
10	0xbda210be	-0.079133496
11	0x3dd80c6e	0.10549246
12	0xbde2700a	-0.11056526
13	0xbdd3f987	-0.10350328
14	0xbe1299e0	-0.14316511
15	0xbd79f204	-0.06102182
16	0xbdbf0c42	-0.0932851
17	0xbd80b455	-0.062843956
18	0x3d72f5cc	0.05931644
19	0x3a8b2131	0.001061475
20	0xbe40afd9	-0.1881708
21	0xbe370895	-0.17874368
22	0xbc577ebc	-0.013152774
23	0x3da4dc82	0.08049871
24	0xbdfa3e84	-0.12218955
25	0xbe29ef92	-0.16595295
26	0xbd2eeea1	-0.042708043
27	0x3d705e6c	0.058683798
28	0x3df5a3d8	0.11994141
29	0x3d896fdd	0.06710789
30	0xbdb2335a	-0.08701201
31	0x3c1631ef	0.0091671785
32	0x3c9627b6	0.018329483
33	0xbe27629c	-0.1634621
34	0x3d876dea	0.06612761
35	0xbd425f8c	-0.0474544
36	0xbe4a6987	-0.19766818
37	0xbe195574	-0.14974004
38	0xbc5f0fb6	-0.013614586
39	0x3c66d28c	0.014088284
40	0xbd84f528	-0.06492072
41	0x3d590dc9	0.052991662
42	0xbd49de78	-0.04928443
43	0x3d64f85f	0.055900928
44	0xbdec1cfd	-0.115289666
45	0xbdc7a73b	-0.097486936
46	0x3de388d0	0.11110079
47	0xbd949931	-0.072557814
48	0x3dd08c6a	0.10183032
49	0xbcd27b9a	-0.025693703
50	0xbe0b1db5	-0.13585551
51	0x3cc40687	0.023928894
52	0x3ce08087	0.027405037
53	0x3c2c076f	0.010499819
54	0xbcd72774	-0.02626393
55	0xbd2e4652	-0.04254753
56	0x3dff6f64	0.12472418
57	0xbe4042e8	-0.18775523
58	0xbdc6f3ab	-0.09714445
59	0x3db8b2d3	0.09018483
60	0x3df49b8c	0.11943731
61	0xbc9f7cbe	-0.019468661
62	0x3ce6f03c	0.028190725
63	0xbd166d45	-0.0367253
